mnist_model.pth (torch, 90416 bytes, 8 tensors)

conv1.weight f4 [10, 1, 5, 5]
0.11194576 -0.1449094 -0.18416768 -0.093792856 -0.2969892 0.19599937 0.0010139592 0.07203472
0.006992039 -0.031928074 0.1638357 0.17042287 0.23167816 0.087012984 0.08160071 0.009770456
0.119138405 0.10386302 0.26968762 0.15894568 -0.14700241 -0.20265724 -0.14886396 -0.16746171
-0.05628288 0.09663022 0.29313847 0.118577085 -0.37183654 -0.09476116 0.18534514 0.36192983
0.09005611 -0.3673949 -0.34945056 0.09095105 0.36564064 -0.10254528 -0.10079102 -0.23456885
0.3561685 0.072344996 0.1411908 -0.08147647 -0.16285774 0.2271275 0.03663762 0.1324688
-0.03660206 -0.013296368 -0.33405203 -0.18676981 0.14235254 0.10825706 0.34004998 0.027648756
-0.03002365 0.047916252 0.33731472 0.15021913 -0.1491467 0.22652474 0.35122275 0.34743503
-0.13450523 0.037259128 0.12958959 0.18461506 -0.11016765 -0.22460279 0.15655932 0.028619522
0.12296616 -0.05279355 -0.05351343 0.12443705 0.20716538 0.24378233 -0.06338035 0.19865814
-0.14347056 -0.0948702 0.085584134 0.04733952 0.20572563 -0.14631473 -0.19472706 0.10229146
-0.0496759 0.13879575 0.033660278 -0.21368626 -0.07840756 -0.041003436 -0.18397914 -0.09739486
0.028410377 -0.06624945 -0.18001874 -0.13692522 0.28316623 0.060821015 0.18974741 0.080486804
-0.21839143 -0.06227654 0.40722403 0.17806801 0.1375067 -0.010553386 0.2232927 0.49453357
0.42709517 -0.06801128 0.095039204 0.25336885 0.38652667 0.2990648 0.0028526597 0.03379742
-0.16473493 0.05772208 0.2704536 -0.00030014082 0.30484697 -0.13015871 -0.23512086 -0.06343185
0.24983129 0.36613166 -0.07741559 0.10449617 0.28688177 0.36292973 0.26573256 0.21933755
0.18894075 0.14250441 0.011827398 -0.12775144 -0.06891176 -0.0185987 -0.0902406 0.15968305
0.100052185 -0.085779406 0.004169501 0.03967545 0.16335161 0.18129177 -0.10410623 0.15110897
-0.0424226 -0.013245646 -0.21205342 -0.19589674 -0.18021134 -0.10562879 0.14637169 -0.08530816
-0.193917 0.06084199 0.09604166 0.15414435 -0.12415436 0.06520514 -0.033406813 0.016943457
-0.12530477 -0.066830486 0.0015135256 0.15468965 0.11661663 0.13131718 0.28380534 0.10407329
0.06327388 -0.02291343 -0.19880247 0.08841992 -0.14679205 -0.12661932 -0.28123376 -0.22097993
-0.30351368 0.15730979 -0.18296391 -0.20981947 -0.13622959 -0.20472349 0.20214087 0.11285756
0.07462118 0.10754284 0.24745892 0.009201939 0.35711977 0.4215604 0.40779746 0.032404672
0.06584479 -0.12839319 0.21371837 0.0051160716 0.20204836 0.025337845 0.008661547 0.06214137
0.18061796 0.24762194 0.033761676 0.059114266 -0.14691482 0.25924778 0.33900028 0.111768834
0.082049854 -0.19556595 -0.056659322 0.27636772 -0.30211636 0.024108645 -0.29022607 -0.22570021
0.09010625 -0.06678111 0.061142687 0.32553837 0.36382753 0.35950765 -0.02085133 -0.12141931
0.32552794 0.11963353 0.07510605 -0.01972502 -0.19667934 0.12992777 0.1657938 -0.090748586
-0.26047584 -0.120821506 -0.00047065795 -0.040062822 -0.120927066 -0.1039428 -0.31578308 -0.24773026
-0.1958005 0.09462331
00000000: d243 e53d 2163 14be 7496 3cbe 7816 c0bd
00000010: f80e 98be 0fb4 483e d3e6 843a f086 933d
00000020: 791d e53b 03c7 02bd 8cc4 273e 5583 2e3e
00000030: 0a3d 6d3e dd33 b23d 461e a73d 4314 203c
00000040: d6fe f33d 23b6 d43d 7f14 8a3e a8c2 223e
00000050: cd87 16be 6185 4fbe cb6f 18be 157b 2bbe
00000060: e188 66bd 11e6 c53d 3f16 963e 8bd8 f23d
00000070: 5c61 bebe 2412 c2bd 1ecb 3d3e de4e b93e
00000080: 566f b83d 2f1b bcbe 2feb b2be 8b44 ba3d
00000090: 4035 bb3e 4203 d2bd 866b cebd d132 70be
000000a0: b85b b63e 9d29 943d 5294 103e 23dd a6bd
000000b0: 2ec4 26be 1d94 683e 5411 163d e7a5 073e
000000c0: 0bec 15bd 02d9 59bc de08 abbe 9640 3fbe
000000d0: ddc4 113e e1b5 dd3d 081b ae3e a57f e23c
000000e0: 28f4 f5bc d543 443d 84b4 ac3e 0bd3 193e
000000f0: eab9 18be 1af6 673e 78d3 b33e 01e3 b13e
00000100: bdbb 09be 079d 183d 22b3 043e bb0b 3d3e
00000110: 949f e1bd 46fe 65be 1651 203e 7d73 ea3c
00000120: afd5 fb3d 0d3e 58bd e630 5bbd dad8 fe3d
00000130: 2923 543e 13a2 793e 8fcd 81bd 0a6d 4b3e
00000140: f2e9 12be 4f4b c2bd bc46 af3d 16e7 413d
00000150: bda9 523e 87d3 15be 8866 47be 2f7e d13d
00000160: f578 4bbd 7920 0e3e 5cdf 093d 92d0 5abe
00000170: 2594 a0bd 38f3 27bd 0765 3cbe f576 c7bd
00000180: e1bc e83c cbad 87bd d556 38be 2036 0cbe
00000190: 2afb 903e 751f 793d 254d 423e 44d6 a43d
000001a0: 01a2 5fbe af15 7fbd ab7f d03e 7657 363e
000001b0: 8ece 0c3e 1ce8 2cbc d7a6 643e 8133 fd3e
000001c0: 38ac da3e 7f49 8bbd eaa3 c23d 90b9 813e
000001d0: d3e6 c53e 051f 993e b0f3 3a3b 2a6f 0a3d
000001e0: 46b0 28be fd6d 6c3d e578 8a3e 385c 9db9
000001f0: e714 9c3e 5348 05be 86c3 70be 8fe8 81bd
00000200: c6d3 7f3e 9c75 bb3e 118c 9ebd 1702 d63d
00000210: 2be2 923e edd1 b93e 190e 883e 069a 603e
00000220: af79 413e adec 113e b4c7 413c 46d1 02be
00000230: 9c21 8dbd 4d5c 98bc 10d0 b8bd f483 233e
00000240: 29e8 cc3d 1dad afbd 4fa0 883b ba82 223d
00000250: a545 273e 8da4 393e a635 d5bd 4fbc 1a3e
00000260: 52c3 2dbd 4404 59bc 8824 59be 2899 48be
00000270: 5289 38be e853 d8bd 76e2 153e 0bb6 aebd
00000280: 2e92 46be 7335 793d 7db1 c43d 04d8 1d3e
00000290: a444 febd 468a 853d 95d5 08bd 01cd 8a3c
000002a0: e54f 00be 6cde 88bd 7e61 c63a f766 1e3e
000002b0: b3d4 ee3d 0378 063e ef4e 913e 6124 d53d
000002c0: bc95 813d f2b4 bbbc e092 4bbe 8115 b53d
000002d0: a850 16be 7fa8 01be dffd 8fbe 9048 62be
000002e0: 2566 9bbe d115 213e e45a 3bbe eada 56be
000002f0: c57f 0bbe 09a3 51be 04fe 4e3e dd21 e73d
00000300: fdd2 983d 6c3f dc3d df65 7d3e bbc3 163c
00000310: 67d8 b63e c4d6 d73e d4ca d03e c3ba 043d
00000320: a2d9 863d 8179 03be fdd8 5a3e b8a4 a73b
00000330: c4e5 4e3e 5091 cf3c 29e9 0d3c f387 7e3d
00000340: eaf3 383e 9b90 7d3e af49 0a3d cd21 723d
00000350: d770 16be 20bc 843e 7291 ad3e 0fe7 e43d
00000360: c109 a83d 7142 48be 9b13 68bd 1280 8d3e
00000370: ffae 9abe 7e7f c53c 8398 94be f51d 67be
00000380: a089 b83d 89c4 88bd c170 7a3d f7ac a63e
00000390: 9a47 ba3e 6311 b83e 69d0 aabc b0aa f8bd
000003a0: 99ab a63e 6d02 f53d 33d1 993d 5d96 a1bc
000003b0: 4f66 49be c90b 053e dac5 293e 65da b9bd
000003c0: 175d 85be 4471 f7bd a4c2 f6b9 ea18 24bd
000003d0: 9ca8 f7bd f6df d4bd 52ae a1be 00ad 7dbe
000003e0: ed7f 48be dec9 c13d

conv1.bias f4 [10]
0.16100697 -0.064273685 0.047408905 0.12820147 0.19453067 0.0011367553 0.14169797 0.14113593
0.04829299 0.055263624
00000000: 03df 243e eca1 83bd d72f 423d 3f47 033e
00000010: 0c33 473e 2eff 943a 4619 113e f085 103e
00000020: dfce 453d 1c5c 623d

conv2.weight f4 [20, 10, 5, 5]
0.054653965 0.02911155 -0.08281674 0.032223344 0.023185333 -0.055867225 0.00044310596 -0.11357675
0.023193892 -0.032558657 0.006252897 -0.015629703 -0.03121867 0.03680266 -0.015495808 -0.06511586
-0.068694174 0.017037915 0.013054202 0.028737346 -0.051338494 0.005826972 0.06464922 0.03620811
-0.023257487 -0.0280652 -0.09497861 -0.011083929 -0.01853582 0.032128047 -0.023910984 -0.106890246
-0.004315606 0.04225006 0.012155919 -0.067864195 -0.053619057 0.060051896 0.023577807 -0.021936124
-0.036512733 0.019451348 0.0956313 0.01188627 -0.008893361 -0.022789147 0.026034243 0.09571632
-0.01090274 0.049414147 0.0108992765 -0.04345646 -0.041008748 0.026977193 0.09997108 -0.08468818
-0.011996786 0.10648971 0.11141287 0.048884176 -0.022203162 0.039494388 0.066021584 -0.0037680166
0.011134132 -0.042663764 -0.01599664 -0.000546978 -0.06858337 -0.05996321 0.0270566 -0.03245419
-0.038923174 -0.05743528 -0.038775064 -0.012212061 -0.0577402 -0.050594263 -0.005957995 -0.0060857455
-0.04981161 -0.07240568 -0.07653128 0.027278334 -0.017452752 -0.031300537 -0.038714867 -0.065452516
-0.0884756 -0.05343222 0.045634225 0.021886364 -0.027897539 -0.03269164 0.0399941 0.030864066
0.066178046 0.04629416 0.054460026 0.00746394 -0.0078058825 -0.100103855 -0.0055754194 0.008842196
0.1000411 -0.039052974 -0.13237147 -0.02350456 0.07831523 0.009326136 -0.10716371 0.024431735
0.076769 0.02616194 -0.0075613814 -0.06493788 -0.0057751657 0.13078955 0.03836903 -0.027169006
-0.01862325 -0.09418271 -0.020255815 -0.033606913 -0.08142931 0.039959293 0.021951219 0.028676987
0.019201579 -0.00044871977 -0.02234197 0.05508962 0.053237945 0.038680878 0.070564464 0.009379637
0.108316824 0.09618012 0.07381743 -0.0068108914 -0.047066297 0.080705844 0.031843722 -0.04414869
-0.06732901 -0.07170792 -0.049853988 -0.077027574 0.017851261 -0.06799039 -0.018551024 0.0041743885
0.024110356 -0.033460096 0.031581637 0.025836393 -0.067885235 0.05805865 -0.034600936 -0.037908807
-0.062251676 0.053425487 0.02536009 0.04922927 -0.0084982375 0.010115986 -0.027878407 -0.0389877
0.0011605055 -0.026014902 0.0074308724 -0.023761611 0.018249054 0.021310112 -0.010173402 -0.055033598
0.02342693 -0.04649663 -0.0089617865 0.039989185 -0.056211326 0.0502478 -0.13119878 -0.026062347
0.010085141 -0.02458791 -0.076092914 -0.022878028 -0.019344375 -0.019467896 -0.023053175 -0.043355662
0.049688425 0.056789517 0.09675949 0.05025144 -0.04796612 -0.012772416 0.06075869 -0.04657482
-0.0006047489 -0.05487877 0.01761643 0.009147813 -0.023970978 -0.016623886 -0.06373088 -0.049174003
0.006021354 -0.04037098 -0.0100177955 -0.0017590108 0.05180779 0.042402618 0.03215513 0.05118422
-0.030420667 0.039539073 0.010464404 -0.06438112 -0.02156185 -0.04746258 0.03144314 -0.006041237
0.005927965 0.013286826 -0.06335009 0.028448403 -0.01002791 0.008382781 0.010402119 -0.08609772
-0.0047703977 -0.086843394 -0.0038073333 0.009386036 0.03933396 -0.02957992 -0.06775625 -0.0010040081
-0.05752119 -0.027297324 -0.03564547 -0.013395332 -0.020660585 -0.09165682 -0.036807384 -0.02387713
0.0888457 -0.018381061 -0.05332324 0.004785537 -0.07154049 0.023678001 0.03341943 -0.08834297
00000000: d6dc 5f3d 587b ee3c d39b a9bd a0fc 033d
00000010: 2bef bd3c 08d5 64bd ad50 e839 ed9a e8bd
00000020: 1e01 be3c 3a5c 05bd 1ae5 cc3b dd09 80bc
00000030: 4cbe ffbc 63be 163d 21e2 7dbc 775b 85bd
00000040: 88af 8cbd 1993 8b3c 4be1 553c 956a eb3c
00000050: 5048 52bd 2ff0 be3b cf66 843d f54e 143d
00000060: 7c86 bebc fee8 e5bc 2584 c2bd 5e99 35bc
00000070: 6fd8 97bc b398 033d f8e0 c3bc 46e9 dabd
00000080: ed69 8dbb 660e 2d3d 9f29 473c 62fc 8abd
00000090: a89f 5bbd faf8 753d 3f26 c13c 63b3 b3bc
000000a0: 608e 15bd 6f58 9f3c 58da c33d a1be 423c
000000b0: 76b5 11bc 4eb0 babc c445 d53c eb06 c43d
000000c0: 68a1 32bc 7d66 4a3d e192 323c 67ff 31bd
000000d0: caf8 27bd 46ff dc3c a3bd cc3d ff70 adbd
000000e0: 2b8e 44bc 4717 da3d 6e2c e43d c63a 483d
000000f0: 68e3 b5bc dec4 213d 5336 873d d4f0 76bb
00000100: ef6b 363c 33c0 2ebd 630b 83bc 1263 0fba
00000110: 7075 8cbd fc9b 75bd cea5 dd3c afee 04bd
00000120: e86d 1fbd 4241 6bbd 9ad2 1ebd 1915 48bc
00000130: fd80 6cbd ee3b 4fbd 493b c3bb ef6a c7bb
00000140: 4207 4cbd 6e49 94bd 6fbc 9cbd d076 df3c
00000150: 13f9 8ebc fe34 00bd 7b93 1ebd f80b 86bd
00000160: b232 b5bd bedb 5abd f4ea 3a3d 084b b33c
00000170: 6189 e4bc abe7 05bd dad0 233d a3d6 fc3c
00000180: 5b88 873d f29e 3d3d 7a11 5f3d 1194 f43b
00000190: 7dc8 ffbb 4003 cdbd 02b2 b6bb dcde 103c
000001a0: 59e2 cc3d 03f6 1fbd 638c 07be a38c c0bc
000001b0: bc63 a03d a6cc 183c a678 dbbd 1025 c83c
000001c0: 1139 9d3d 9151 d63c 77c5 f7bb 27fe 84bd
000001d0: 9a3d bdbb b2ed 053e d828 1d3d 8991 debc
000001e0: c98f 98bc dde2 c0bd 86ef a5bc 67a7 09bd
000001f0: 69c4 a6bd 5bac 233d 0bd3 b33c 00ec ea3c
00000200: a14c 9d3c 2642 ebb9 8206 b7bc a7a5 613d
00000210: 0810 5a3d d76f 1e3d 1a84 903d 0dad 193c
00000220: 36d5 dd3d 15fa c43d 982d 973d e62d dfbb
00000230: 97c8 40bd 1b49 a53d 906e 023d 42d5 34bd
00000240: cbe3 89bd 9adb 92bd b233 4cbd a2c0 9dbd
00000250: cf3c 923c 8c3e 8bbd 51f8 97bc 4fc9 883b
00000260: 1583 c53c 740d 09bd bf5b 013d d8a6 d33c
00000270: 6a07 8bbd e8ce 6d3d b6b9 0dbd 4446 1bbd
00000280: 9dfb 7ebd afd4 5a3d f7bf cf3c a2a4 493d
00000290: 313c 0bbc 85bd 253c 4261 e4bc 91b1 1fbd
000002a0: 1a1c 983a 341d d5bc ad7e f33b b6a7 c2bc
000002b0: 0a7f 953c 8b92 ae3c 57ae 26bc e96a 61bd
000002c0: d5e9 bf3c 4073 3ebd 75d4 12bc b3cb 233d
000002d0: d93d 66bd a3d0 4d3d f958 06be b480 d5bc
000002e0: 263c 253c 966c c9bc 9ad6 9bbd b46a bbbc
000002f0: 1878 9ebc 237b 9fbc 03da bcbc b595 31bd
00000300: 1786 4b3d 209c 683d d729 c63d 74d4 4d3d
00000310: 1f78 44bd 6543 51bc 1bde 783d 3dc5 3ebd
00000320: 0388 1eba 90c8 60bd 5550 903c b5e0 153c
00000330: c95e c4bc d12e 88bc 5685 82bd ae6a 49bd
00000340: c74e c53b 0a5c 25bd ae21 24bc 9c8e e6ba
00000350: 6834 543d 5eae 2d3d 19b5 033d 8ba6 513d
00000360: c334 f9bc b9f3 213d e472 2b3c 40da 83bd
00000370: 7aa2 b0bc 1f68 42bd 86ca 003d 92f5 c5bb
00000380: 603f c23b fdb0 593c b1bd 81bd a00c e93c
00000390: 1a4c 24bc ef57 093c a66d 2a3c 0054 b0bd
000003a0: ff50 9cbb f3da b1bd 7484 79bb e3c7 193c
000003b0: a51c 213d 9751 f2bc cac3 8abd ec98 83ba
000003c0: 579b 6bbd a39e dfbc fc00 12bd 1878 5bbc
000003d0: 6340 a9bc 92b6 bbbd 57c3 16bd f999 c3bc
000003e0: bcf4 b53d e193 96bc 7869 5abd fecf 9c3b
000003f0: d283 92bd 5ef8 c13c d0e2 083d 29ed b4bd

conv2.bias f4 [20]
0.018197829 -0.023276413 0.050975453 -0.023977721 -0.008153211 -0.02088119 -0.0483819 -0.014902763
-0.050904464 -0.022398768 -0.00050129887 -0.06347838 -0.059354495 0.05914307 -0.039958406 -0.07164254
-0.012187241 -0.075952746 -0.05407117 0.014905989
00000000: 9d13 953c 2dae bebc a3cb 503d ed6c c4bc
00000010: 0c95 05bc 080f abbc 192c 46bd b82a 74bc
00000020: 3381 50bd 9f7d b7bc 9969 03ba f400 82bd
00000030: b31d 73bd 0140 723d 6dab 23bd 53b9 92bd
00000040: feac 47bc 1d8d 9bbd bb79 5dbd 4038 743c

fc1.weight f4 [50, 320]
-0.08468718 -0.030966828 -0.0061054383 -0.045551445 0.04545694 -0.01820948 0.004834002 -0.025258334
-0.0125145605 0.041538917 0.025202347 0.043893676 0.015451922 -0.056697477 -0.0016667212 0.03321619
-0.06255603 -0.015082979 -0.029955238 0.022155551 0.026398174 -0.0050041024 0.035746757 -0.041135464
0.015057359 -0.062984675 0.028938642 0.008710975 -0.018638143 -0.062342785 0.022682235 0.021646703
-0.030746235 0.004014503 -0.035737693 -0.05279839 -0.027665501 -0.00094531686 0.033134267 0.045468435
0.0066069816 -0.03884329 -0.038103662 -0.029391244 -0.012631636 -0.04053927 0.046518475 -0.050320573
0.020749724 0.052089535 0.034300756 0.035146054 -0.037770983 -0.01571236 -0.07818419 0.030415965
-0.036977135 -0.028704945 -0.042438734 -0.07314501 -0.05365827 -0.018182447 0.010816216 -0.09533993
0.022923589 0.014932753 0.0016215108 -0.033748053 -0.018810023 -0.014297579 -0.06548987 -0.030484475
-0.0014191567 -0.024036633 0.019516282 0.04793728 0.0071549504 0.026996903 0.017991126 -0.00021513822
-0.034222186 0.0772316 0.011837645 -0.08941443 -0.023468055 0.016269099 -0.039880812 -0.018028999
-0.02300536 -0.0064136293 -0.00654092 -0.005493041 -0.009564051 0.06927796 0.07541832 -0.00958033
-0.0025863776 0.037773058 -0.015349771 -0.014043382 0.053371042 0.0021212217 -0.019138554 0.06662872
0.00037185117 -0.034002416 0.05438361 0.06436293 0.04727719 0.016284287 0.020125432 0.04045656
0.023213055 -0.021886516 0.08373661 0.009329956 0.018447515 -0.029401315 -0.0039472403 0.025086688
0.018480623 -0.010555488 -0.059577174 0.034512535 -0.017640078 -0.043510977 -0.033966817 0.017003419
-0.035751548 -0.012328464 0.025354568 -0.012565474 0.003190384 0.019369025 0.02941794 0.035447847
0.049445916 -0.023280472 -0.032920312 0.0270266 -0.025857363 0.012955615 -0.07276243 -0.038087543
-0.042735543 -0.05897514 -0.038083874 -0.018176885 0.053963736 -0.0031461988 -0.0060137827 -0.05209721
0.03437654 -0.00855619 -0.010851951 0.07918237 0.043988135 0.052031707 0.043831933 0.037966274
-0.01859865 -0.0071491036 -0.051085845 0.0107869515 0.0065678256 0.004513266 0.066728234 0.0060121357
-0.04364435 0.0064976737 -0.013709275 0.04762368 0.066075705 0.015172087 0.03526015 -0.024043191
-0.020841954 -0.11787801 -0.09189223 -0.08260699 0.003299801 0.039920487 0.015600943 -0.068454124
0.020373046 -0.011516106 0.01894438 0.02487306 0.040063635 0.053009007 0.021938879 0.06033895
-0.027152944 0.014843834 -0.002527418 0.0028355492 0.023589525 0.053697623 0.032438736 0.026363922
-0.006343764 -0.07317165 -0.05619184 0.003329057 -0.007874332 -0.028070744 -0.004764371 -0.028310984
-0.03368266 0.068035856 0.06259221 0.02103703 0.0189755 -0.049831994 -0.021350982 0.0029196958
-0.09086443 -0.0013095413 -0.013308365 -0.06562054 -0.106194146 0.016860265 -0.0015723914 -0.07597461
0.028144522 -0.01426797 -0.1038944 -0.08480862 0.020513449 -0.033502433 -0.04933053 0.0052731335
0.0026286677 0.09138288 0.033156227 0.019745352 0.03864154 0.055587478 0.0064664236 0.06420366
0.025944443 0.041349754 -0.040486865 -0.06195407 -0.060736842 -0.0006621399 0.018841058 0.0679115
0.024818307 0.01361039 0.06562234 0.013104221 0.002524041 -0.046885412 -0.04410302 -0.06721883
00000000: 7970 adbd 25ae fdbc 2110 c8bb 2794 3abd
00000010: 0e31 3a3d 0c2c 95bc 8c66 9e3b 91ea cebc
00000020: df09 4dbc b624 2a3d 2775 ce3c dbc9 333d
00000030: 0f2a 7d3c 9d3b 68bd e275 daba b30d 083d
00000040: 601d 80bd 991e 77bc b064 f5bc 8f7f b53c
00000050: fc40 d83c 74f9 a3bb 316b 123d a97d 28bd
00000060: 24b3 763c 1cfe 80bd bb10 ed3c 7ab8 0e3c
00000070: 05af 98bc 265b 7fbd 18d0 b93c 6d54 b13c
00000080: 87df fbbc 188c 833b b061 12bd 2043 58bd
00000090: c3a2 e2bc 24cf 77ba ccb7 073d 1c3d 3a3d
000000a0: 617f d83b 241a 1fbd 9612 1cbd e8c5 f0bc
000000b0: ecf4 4ebc 810c 26bd 288a 3e3d f21c 4ebd
000000c0: 53fb a93c d65b 553d f37e 0c3d 4ff5 0f3d
000000d0: bfb5 1abd 35b7 80bc 081f a0bd e72a f93c
000000e0: 5675 17bd a226 ebbc 3dd4 2dbd 0dcd 95bd
000000f0: c6c8 5bbd 5bf3 94bc 7f36 313c 9541 c3bd
00000100: 40ca bb3c 81a8 743c e088 d43a 663b 0abd
00000110: 7a17 9abc 6540 6abc 8e1f 86bd 94ba f9bc
00000120: ff02 baba 79e8 c4bc 9ce0 9f3c e259 443d
00000130: 1374 ea3b 9c28 dd3c 2062 933c ba96 61b9
00000140: 902c 0cbd 9a2b 9e3d aff2 413c ea1e b7bd
00000150: 1440 c0bc c646 853c 105a 23bd 8db1 93bc
00000160: bd75 bcbc 6c29 d2bb 3755 d6bb f8fe b3bb
00000170: 8ab2 1cbc 9ae1 8d3d ec74 9a3d d1f6 1cbc
00000180: 3780 29bb ecb7 1a3d 9b7d 7bbc 3716 66bc
00000190: 989b 5a3d 3204 0b3b 75c8 9cbc a374 883d
000001a0: 05f5 c239 1e46 0bbd 59c1 5e3d b6d0 833d
000001b0: baa5 413d a066 853c 17de a43c c7b5 253d
000001c0: 4e29 be3c 5a4b b3bc 1a7e ab3d acdc 183c
000001d0: 3e1f 973c 07db f0bc da57 81bb 9982 cd3c
000001e0: ad64 973c edf0 2cbc 3207 74bd 045d 0d3d
000001f0: ed81 90bc 9138 32bd ca20 0bbd c14a 8b3c
00000200: 3770 12bd 53fd 49bc 62b4 cf3c 6bdf 4dbc
00000210: c315 513b caab 9e3c e4fd f03c c331 113d
00000220: cd87 4a3d b0b6 bebc 73d7 06bd e366 dd3c
00000230: d2d2 d3bc ca43 543c 7804 95bd af01 1cbd
00000240: 770b 2fbd eb8f 71bd d6fd 1bbd b1e7 94bc
00000250: 1409 5d3d 7530 4ebb 440f c5bb e263 55bd
00000260: 6ace 0c3d 432f 0cbc 62cc 31bc 5e2a a23d
00000270: e72c 343d 331f 553d 1d89 333d 8682 1b3d
00000280: 325c 98bc 0743 eabb 643f 51bd c1bb 303c
00000290: ea36 d73b 05e4 933b d0a8 883d 7301 c53b
000002a0: 6bc4 32bd 70ea d43b de9c 60bc 0c11 433d
000002b0: b352 873d 5894 783c f26c 103d 3af6 c4bc
000002c0: bfbc aabc 076a f1bd fe31 bcbd db2d a9bd
000002d0: 7941 583b aa83 233d 199b 7f3c ad31 8cbd
000002e0: 60e5 a63c 0dae 3cbc 3f31 9b3c 96c2 cb3c
000002f0: c419 243d f91f 593d 2ab9 b33c fa25 773d
00000300: da6f debc 8d33 733c 0aa3 25bb 9fd4 393b
00000310: d23e c13c 0af2 5b3d 7bde 043d 27f9 d73c
00000320: 59df cfbb 05db 95bd 6a29 66bd 4f2c 5a3b
00000330: 5803 01bc 9ef4 e5bc 711e 9cbb 70ec e7bc
00000340: d4f6 09bd 6256 8b3d 5830 803d d955 ac3c
00000350: 8272 9b3c a21c 4cbd 41e8 aebc 5e58 3f3b
00000360: 2117 babd eaa4 abba 540b 5abc 1064 86bd
00000370: 517c d9bd 8a1e 8a3c b318 ceba 9498 9bbd
00000380: 578f e63c 34c4 69bc 96c6 d4bd 24b0 adbd
00000390: d20b a83c d939 09bd cf0e 4abd 40ca ac3b
000003a0: ba45 2c3b f326 bb3d d3ce 073d 01c1 a13c
000003b0: 9746 1e3d b2af 633d 4be4 d33b 357d 833d
000003c0: 7189 d43c 5c5e 293d 8ed5 25bd 8dc3 7dbd
000003d0: 32c7 78bd 7593 2dba 9058 9a3c 2f15 8b3d
000003e0: c34f cb3c 1dfe 5e3c 0165 863d 16b3 563c
000003f0: 626a 253b eb0a 40bd 5ea5 34bd 07aa 89bd

fc1.bias f4 [50]
0.049002614 0.04199551 -0.0013325327 -0.0051353425 0.01837492 -0.010579969 0.004745973 -0.02250531
0.02654713 0.011531497 0.024556283 0.06191563 -0.022827016 0.0016585677 0.0006048584 -0.04284899
0.055104833 0.021992154 0.070683554 -0.03292891 0.03163594 0.023451949 -0.02564351 0.036753993
0.03561526 -0.0006161441 0.079581395 -0.022364931 -0.034281276 -0.029317392 -0.028385201 0.04700352
0.007870605 -0.034364983 -0.036582433 0.086170316 0.013984785 -0.059765134 0.035522588 -0.030943245
0.017674455 0.07935217 0.034824427 -0.035196938 -0.01770863 0.025330056 -0.039794393 -0.047919217
0.05901833 0.04003927
00000000: f7b6 483d 7c03 2c3d 61a8 aeba 6046 a8bb
00000010: 0087 963c 9b57 2dbc 1b84 9b3b 0e5d b8bc
00000020: 5e79 d93c 9bee 3c3c 422a c93c 3e9b 7d3d
00000030: b9ff babc 4c64 d93a 5c8f 1e3a 6c82 2fbd
00000040: 9bb5 613d e428 b43c 8ac2 903d 77e0 06bd
00000050: b094 013d 4d1e c03c 5712 d2bc 5b8b 163d
00000060: 4fe1 113d bb84 21ba 92fb a23d a936 b7bc
00000070: 866a 0cbd 072b f0bc 1588 e8bc c386 403d
00000080: b6f3 003c 4cc2 0cbd 76d7 15bd 107a b03d
00000090: 7120 653c 49cc 74bd 2280 113d b07c fdbc
000000a0: 05ca 903c 6483 a23d 0fa4 0e3d aa2a 10bd
000000b0: b011 91bc fa80 cf3c 72ff 22bd f146 44bd
000000c0: 34bd 713d 3800 243d

fc2.weight f4 [10, 50]
0.182459 -0.10373091 0.17862648 0.13505682 -0.12793668 -0.025119452 -0.18085496 -0.16368696
-0.047595844 -0.15033567 -0.21331047 -0.14011145 -0.11142585 0.1055666 0.21808006 0.15314788
0.0014732545 0.22945862 0.16935886 -0.08947396 -0.08266766 -0.108926535 -0.10144434 -0.21360038
-0.0772561 -0.23259115 -0.23202413 -0.23776704 0.073108844 0.17427522 -0.15803279 -0.110522464
0.20604932 0.114550725 -0.14335026 0.160496 0.11532922 0.03631993 -0.037044913 -0.1433483
-0.12257302 -0.21123415 0.120109744 -0.11818865 0.012606065 0.24893148 -0.098910026 -0.01867809
0.11843054 0.14510953 -0.053351987 0.17471202 -0.17114918 0.043474957 0.16180174 0.14960295
-0.2178328 0.0938634 0.071778394 -0.1244995 0.13117306 0.18241048 -0.13961788 -0.17213613
-0.031036561 -0.22685823 0.23960625 -0.045417592 -0.21872272 0.0063139987 -0.1532987 0.09724871
0.14011788 0.1529353 0.1751121 -0.27020776 -0.2886106 0.18266824 0.12973727 0.019361269
0.1859932 -0.10358397 -0.18206304 -0.18250243 0.14491056 0.05917111 -0.1407169 -0.07895537
0.1544664 0.17239629 -0.05781235 0.09767532 -0.09819915 -0.21559298 0.12701023 -0.106403455
-0.16460524 0.19719636 -0.22324003 0.045684252 -0.03919732 -0.0474793 -0.02588666 -0.037986867
-0.10557616 0.15472837 0.13205577 0.09159665 0.19875541 0.06658537 -0.03665738 0.23237492
0.07021475 0.117822915 0.18729395 0.102538146 -0.10769245 -0.016459493 -0.12546776 -0.17809857
-0.054621466 0.08871649 -0.17646004 -0.194675 -0.060662605 -0.09721774 -0.15740351 0.053060025
-0.19877474 -0.0235726 -0.117981404 -0.11833396 0.049256228 -0.13595264 0.15515782 0.16542476
-0.09864162 -0.14582472 0.1314172 0.047280427 0.14771256 0.1734616 -0.08781764 -0.049619395
0.08073259 0.15961212 -0.009967003 0.17597504 -0.123635285 0.16930726 -0.025296623 0.1809936
0.1444637 -0.137512 -0.045326114 -0.20093359 0.09860817 0.094982915 -0.017229225 0.04478127
-0.040190343 0.21964778 -0.13679472 0.022279609 0.13027748 -0.091002494 -0.16271476 -0.045002375
-0.11886671 0.16696529 0.18674952 0.1426144 0.11757223 -0.09349664 -0.1890358 -0.12366471
0.1360079 -0.082856864 0.19455354 -0.091280416 -0.2619647 0.2247005 -0.12475936 0.14370751
0.10998246 0.04053164 0.1673257 0.01662202 -0.22369936 -0.034189392 0.13016976 0.14707504
-0.17667742 0.10921468 0.09601483 -0.04827752 -0.08798243 -0.07434167 -0.12612082 0.14073133
-0.062037505 -0.04410104 -0.06885794 0.061477363 0.13675614 0.18444704 0.1577838 -0.17743552
-0.0946653 -0.1436705 0.20360126 0.02353737 0.23155311 -0.21457334 -0.11864074 0.15661713
-0.1055811 -0.12214423 -0.1070739 -0.13095324 -0.10304919 -0.15421847 0.19270569 0.19262893
0.17388672 0.17489472 0.070847265 -0.021420278 -0.027497338 -0.101364814 0.075439095 0.18732126
-0.18458638 -0.24342483 -0.13093928 -0.14098829 -0.086405195 0.29501265 0.1426464 -0.07965329
-0.23439571 -0.09866902 0.153565 0.035734143 -0.14629483 -0.0015395574 -0.08030603 -0.1750038
0.20226558 -0.1347363 0.08242359 -0.10566024 -0.02326492 -0.19945833 0.006685587 -0.08891047
00000000: 88d6 3a3e df70 d4bd dce9 363e 564c 0a3e
00000010: d501 03be 4fc7 cdbc 0b32 39be 8e9d 27be
00000020: dcf3 42bd 98f1 19be 0f6e 5abe 6079 0fbe
00000030: 3c33 e4bd 4d33 d83d 6150 5f3e ccd2 1c3e
00000040: 381a c13a 33f7 6a3e 696c 2d3e 203e b7bd
00000050: aa4d a9bd e014 dfbd 0dc2 cfbd 0fba 5abe
00000060: 7238 9ebd 602c 6ebe bc97 6dbe 3479 73be
00000070: 17ba 953d 3475 323e 59d3 21be 9a59 e2bd
00000080: 98fe 523e 9299 ea3d 69ca 12be 1059 243e
00000090: ba31 ec3d 35c4 143d 68bc 17bd e6c9 12be
000000a0: 9007 fbbd c44d 58be 19fc f53d e40c f2bd
000000b0: ab89 4e3c e5e7 7e3e 5791 cabd cb02 99bc
000000c0: b68b f23d 9897 143e 9d87 5abd b5e7 323e
000000d0: bb41 2fbe cc12 323d 5baf 253e 8431 193e
000000e0: 900f 5fbe 743b c03d 8d00 933d 98f9 febd
000000f0: 3b52 063e d0c9 3a3e fdf7 0ebe 7444 30be
00000100: 6340 febc 864d 68be 575b 753e cc07 3abd
00000110: d9f8 5fbe a9e5 ce3b 56fa 1cbe 552a c73d
00000120: 107b 0f3e 129b 1c3e 9650 333e ac58 8abe
00000130: c5c4 93be 620d 3b3e d9d9 043e 869b 9e3c
00000140: 0075 3e3e d523 d4bd bc6e 3abe ebe1 3abe
00000150: 6f63 143e 685d 723d 1718 10be 5ab3 a1bd
00000160: 712c 1e3e a788 303e a5cc 6cbd 000a c83d
00000170: a31c c9bd 68c4 5cbe f80e 023e 0eea d9bd
00000180: 478e 28be d8ed 493e 0999 64be 691f 3b3d
00000190: 5e8d 20bd a879 42bd 4310 d4bc 1e98 1bbd
000001a0: 5038 d8bd 1d71 1e3e a139 073e 0697 bb3d
000001b0: 8a86 4b3e e95d 883d 0d26 16bd b1f3 6d3e
000001c0: c0cc 8f3d 244d f13d fcc9 3f3e 85ff d13d
000001d0: dc8d dcbd 0fd6 86bc 9f7a 00be 795f 36be
000001e0: c2ba 5fbd feb0 b53d f1b1 34be e258 47be
000001f0: 5a79 78bd 181a c7bd 632e 21be 7855 593d
00000200: 9b8b 4bbe 531b c1bc 3ca0 f1bd 1359 f2bd
00000210: e6c0 493d 2b37 0bbe b1e1 1e3e 1c65 293e
00000220: 9e04 cabd 1353 15be 3b92 063e 1fa9 413d
00000230: f641 173e eb9f 313e bcd9 b3bd b53d 4bbd
00000240: 2157 a53d 5c71 233e a44c 23bc cd32 343e
00000250: 7f34 fdbd e25e 2d3e dd3a cfbc 6356 393e
00000260: 4bee 133e f2cf 0cbe e0a7 39bd 89c1 4dbe
00000270: 15f3 c93d 6786 c23d 4e24 8dbc 916c 373d
00000280: a19e 24bd 59eb 603e ea13 0cbe ba83 b63c
00000290: 7667 053e 845f babd b39e 26be 6954 38bd
000002a0: 6470 f3bd f3f8 2a3e 443b 3f3e 8209 123e
000002b0: b6c9 f03d 2b7b bfbd 9a92 41be ec43 fdbd
000002c0: a845 0b3e dcb0 a9bd 0b39 473e 3af1 babd
000002d0: 3d20 86be e317 663e d681 ffbd 1028 133e
000002e0: 7c3e e13d 8104 263d 6e57 2b3e e72a 883c
000002f0: 7211 65be 2d0a 0cbd 394b 053e d79a 163e
00000300: edea 34be f2ab df3d 6ca3 c43d a6be 45bd
00000310: 2230 b4bd 7240 98bd d125 01be e01b 103e
00000320: 0a1b 7ebd 4ba3 34bd 6405 8dbd b0cf 7b3d
00000330: cd09 0c3e afdf 3c3e 1492 213e a8b1 35be
00000340: e1df c1bd 5c1e 13be d97c 503e 71d1 c03c
00000350: 421c 6d3e 1db9 5bbe ebf9 f2bd 3e60 203e
00000360: e73a d8bd c126 fabd 9049 dbbd 9b18 06be
00000370: 740b d3bd 72eb 1dbe a454 453e 8540 453e
00000380: 5c0f 323e 9a17 333e 5f18 913d 9479 afbc
00000390: 1942 e1bc 5b98 cfbd d07f 9a3d 25d1 3f3e
000003a0: 3604 3dbe 5c44 79be f214 06be 3c5f 10be
000003b0: 35f5 b0bd e60b 973e e611 123e 4421 a3bd
000003c0: 6e05 70be fc12 cabd 2540 1d3e f75d 123d
000003d0: 50ce 15be f9ca c9ba 7d77 a4bd 3234 33be
000003e0: b51e 4f3e 50f8 09be b3cd a83d 6564 d8bd
000003f0: 1396 bebc ce3e 4cbe c512 db3b b116 b6bd

fc2.bias f4 [10]
-0.07037147 0.059981927 -0.051530298 -0.16142596 0.012323231 0.084018774 -0.13521056 -0.10376064
0.09916497 -0.039596133
00000000: eb1e 90bd 9caf 753d 6f11 53bd d94c 25be
00000010: 61e7 493c 0912 ac3d a374 0abe 7580 d4bd
00000020: 0117 cb3d 8e2f 22bd
