mnist_model.pth (torch, 440112 bytes, 6 tensors)

fc1.weight f4 [128, 784]
0	0x3d05fe8f	0.03271347
1	0x3d256808	0.040382415
2	0x3d380776	0.04492899
3	0x3bab5ad8	0.0052293353
4	0x3cfa2cd6	0.030538958
5	0x3c5bbd4b	0.01341183
6	0xbc849834	-0.016185857
7	0xbc5370f7	-0.012905351
8	0x3c81defe	0.015853401
9	0x3b07552b	0.002065013
10	0x3d00ac9f	0.031414624
11	0xbc12ba61	-0.008955569
12	0x3c25ff4b	0.010131667
13	0x3cdd403f	0.027008174
14	0x3c9d4122	0.019196097
15	0x3c427419	0.0118685
16	0xbc2d3599	-0.010571861
17	0x3ccdbe51	0.025115164
18	0x3d3b61ca	0.045747556
19	0x3d3cbddc	0.0460795
20	0x3ca11a8a	0.019665975
21	0x3cb34c67	0.021887017
22	0xbc6a3d5d	-0.014296857
23	0x3d2aa9d7	0.04166588
24	0xbbd07de0	-0.0063626617
25	0xbb4b4d7a	-0.0031021521
26	0x3d0f6ba3	0.03501476
27	0x3c81f772	0.015865061
28	0xbbe978cf	-0.007124997
29	0xbba4e025	-0.005031603
30	0x3ce1ceef	0.027564494
31	0x3cb598fd	0.022167677
32	0x3c85e9e7	0.016346885
33	0x3c3a9e81	0.011390329
34	0x3d5a066c	0.05322878
35	0x3cbc5711	0.022990735
36	0x3d49c3f4	0.04925914
37	0x3d06e813	0.032936167
38	0xbc32860f	-0.01089622
39	0x3d2428de	0.040078036
40	0x3d27bfe3	0.04095448
41	0x3d541a1e	0.05178272
42	0x3cea13bf	0.028573869
43	0xbbeb2957	-0.007176559
44	0xbc80493e	-0.015659925
45	0x3ca144c2	0.019686107
46	0x3d49ad6a	0.049237646
47	0x3c037eba	0.008025819
48	0x3cd178b1	0.025570245
49	0x3d1b3fe9	0.037902746
50	0x3cd4a5dd	0.025957996
51	0x3ce56281	0.028001072
52	0x3c9a7efb	0.018859377
53	0x3a4cd030	0.0007813005
54	0x3cc3a287	0.02388121
55	0x3d1745e1	0.036931876
56	0xbb9471f8	-0.0045301877
57	0x3cbda302	0.023149017
58	0x3d017466	0.031605147
59	0x3cd6070f	0.026126413
60	0x3cc75e1d	0.024336869
61	0x3d03628e	0.03207641
62	0xbc8240d8	-0.01590006
63	0x3d0d6c19	0.034526918
64	0x3c4f715d	0.012661305
65	0x3afffa34	0.0019529522
66	0xbc3c9a0b	-0.011511336
67	0xbb8de130	-0.004329823
68	0x3ca5ba2d	0.020230377
69	0xbc46113b	-0.012089069
70	0x3d3639d4	0.044488743
71	0x3d538f62	0.051650412
72	0x3d0a7263	0.033800494
73	0xbb35ae1b	-0.0027722183
74	0x3ccc0178	0.024903044
75	0x3c636add	0.013880459
76	0x3d1cdebc	0.038298354
77	0x3d5b7d36	0.053586207
78	0x3c76c259	0.0150609845
79	0x3d53b486	0.051685832
80	0x3c43f7dd	0.011960951
81	0x3d27ce48	0.04096821
82	0xbc48da7f	-0.012259125
83	0x3caf1767	0.021373464
84	0xbb941100	-0.004518628
85	0x3b8a6d60	0.0042244643
86	0x3c722885	0.014780168
87	0x3d30e17b	0.043183785
88	0x3d4fe13e	0.050751917
89	0x3c3c87eb	0.011507015
90	0xbbb29311	-0.0054496606
91	0x3cfce010	0.03086856
92	0xbc2f3595	-0.010693927
93	0x3c00bbc1	0.007857264
94	0x3c803c8a	0.015653867
95	0x3d15b9c3	0.03655411
96	0x3ca21521	0.019785466
97	0x3c188f71	0.009311543
98	0xbbc4223a	-0.0059855254
99	0x3d51d94d	0.051232625
100	0x3d3606ab	0.044439953
101	0xbc8e0d57	-0.017340345
102	0xba919dc6	-0.0011109642
103	0x3c9e7917	0.01934485
104	0x3b3d25a6	0.0028861552
105	0x3cff6a3c	0.031178586
106	0xbb675823	-0.0035300336
107	0x3d4a118c	0.04933314
108	0x3d4e22c6	0.05032613
109	0x3d4a3ab4	0.04937239
110	0x391d68e5	0.00015011763
111	0xbb8bd064	-0.0042667855
112	0xbb38985a	-0.002816698
113	0xbbce430c	-0.0062946137
114	0x3d0fbed9	0.035094116
115	0xbb0bd40a	-0.0021336102
116	0x3ba52934	0.005040312
117	0x3d30595f	0.04305398
118	0x3ce0be8b	0.027434608
119	0x3c43da01	0.011953832
120	0x3cf04ae0	0.029332578
121	0x3b465d7a	0.0030268119
122	0xbc5eb2ee	-0.013592465
123	0x3badb3d8	0.00530098
124	0x3d2dd68d	0.04244094
125	0x3b16b35e	0.0022995095
126	0xbd12c7d6	-0.03583511
127	0xbd1ff3e7	-0.039050963
128	0xbc9f7fd5	-0.019470135
129	0x3d2c7c5c	0.042110786
130	0x3d0dc764	0.03461398
131	0x3bf18383	0.0073704137
132	0xbc44b813	-0.012006777
133	0x3d076235	0.033052642
134	0x3d533265	0.05156173
135	0x3d17f86d	0.03710215
136	0x3c6233bd	0.013806281
137	0x3d035f76	0.03207346
138	0xb9db40d6	-0.00041819242
139	0xbb1540fa	-0.0022774325
140	0x3d2fddbf	0.042936083
141	0x3c96f38b	0.018426677
142	0x3c5d504f	0.013507917
143	0x3cd18149	0.025574343
144	0x3d45ad56	0.04826101
145	0x3c9197da	0.017772604
146	0xbc891542	-0.01673377
147	0x3d3bb1c4	0.045823827
148	0xb8b8ec54	-8.817823e-05
149	0x3c61e978	0.013788573
150	0xbd243986	-0.04009392
151	0xbb5f9189	-0.0034113845
152	0xbd3012c6	-0.042986654
153	0x3c81e199	0.015854644
154	0x3c2410b5	0.010013749
155	0x3b56ac0e	0.0032756361
156	0xbd213b38	-0.039363116
157	0xbc0f59ce	-0.008749438
158	0xbd2379ac	-0.039910957
159	0x3bccc8ea	0.0062495368
160	0xbd2cbdac	-0.042173073
161	0x3d089cb1	0.033352558
162	0xbc14246a	-0.009041885
163	0x3d2d7222	0.042345174
164	0x3d2f8737	0.04285356
165	0x3b1ea782	0.002420873
166	0x3d12f270	0.035875738
167	0xbc8c7f22	-0.017150465
168	0x3d059a24	0.032617703
169	0x3cc88bad	0.024480665
170	0x3d24ddc8	0.04025057
171	0x3d2d1097	0.04225215
172	0x3cd0364d	0.025416518
173	0x3cbdf2e2	0.023187105
174	0x3d370ca4	0.04468979
175	0x3d16adb1	0.03678674
176	0x3c68502a	0.014179269
177	0xbd0091b5	-0.031388957
178	0xbd065e62	-0.032804854
179	0xbcca02e3	-0.02465958
180	0xbce61fc7	-0.028091324
181	0x3c6d0848	0.014467306
182	0x3c827f11	0.01592973
183	0x3c809338	0.0156952
184	0x3ce6a7b3	0.028156137
185	0xb4e161a3	-4.1980556e-07
186	0xbd31770f	-0.043326434
187	0x3aaa39a6	0.0012987151
188	0x3c858910	0.016300708
189	0x3cd01af1	0.025403472
190	0x3d4f8ce3	0.05067147
191	0xbc7bd33b	-0.0153701855
192	0x3cf7c553	0.030245459
193	0x3d4385cb	0.047735017
194	0x3c50576f	0.012716158
195	0xbb77a5a8	-0.0037787948
196	0xbc1c85f5	-0.009553422
197	0x3d465650	0.048422158
198	0x3d365d22	0.044522412
199	0x3c869955	0.016430536
200	0xbba58039	-0.0050506857
201	0x3b9b65d0	0.0047423616
202	0xbc6b76c9	-0.014371582
203	0xbc4c9cd9	-0.012488567
204	0x3c5d29e9	0.013498762
205	0x3bb49132	0.0055104727
206	0x3c5a673a	0.013330275
207	0xbd254c51	-0.040355984
208	0xbd22da22	-0.03975881
209	0xbd0ceb37	-0.034404006
210	0x3c807cf7	0.015684588
211	0x3d34aaa5	0.04410805
212	0xbd3ff02c	-0.046859905
213	0xbc8a332a	-0.0168701
214	0xbcc08c5f	-0.023504434
215	0x3c0dd391	0.008656398
216	0xbb3477da	-0.0027537257
217	0x3cd60edb	0.02613013
218	0x3d153d5a	0.036435463
219	0x3ca60aa1	0.02026874
220	0xbc7abc37	-0.015303663
221	0x3baeafb3	0.0053310036
222	0x3c90b180	0.017662764
223	0xbc027a4f	-0.007963731
224	0x3d4fbabe	0.0507152
225	0x3c89ab66	0.016805362
226	0x3d335ae7	0.043787863
227	0x3cb67a6f	0.022275178
228	0xbc630e8b	-0.013858448
229	0x3cff7654	0.031184353
230	0x3c870b17	0.01648478
231	0xbc22d316	-0.009938022
232	0x3aa02355	0.0012217561
233	0x3bfa614c	0.007640993
234	0x3b0d960b	0.0021604325
235	0xbd2e14a6	-0.04250016
236	0xbd2830a1	-0.041062
237	0xbd19f43f	-0.037586447
238	0x399e32af	0.0003017387
239	0x3c877ddb	0.016539505
240	0xbd007e38	-0.03137037
241	0xbd1eb293	-0.03874452
242	0x3c50c021	0.01274112
243	0xbc493740	-0.012281239
244	0x3b5d20f0	0.0033741556
245	0xbc1eb38e	-0.009686364
246	0xbc008230	-0.007843539
247	0xbc882da4	-0.016623326
248	0x3bc3bdc6	0.0059735505
249	0x3cf124d7	0.029436512
250	0x3c59bf39	0.01329022
251	0x3d5ae6c4	0.05344273
252	0x3cd80641	0.02637017
253	0x3d477460	0.04869497
254	0x3d2c9386	0.042132877
255	0x3d323f0e	0.043517165

fc1.bias f4 [128]
0	0xbd0e0ac6	-0.034678243
1	0xbcc82960	-0.024433792
2	0xbcb087f1	-0.021549197
3	0xbd4dfc99	-0.050289724
4	0xbcc4de4d	-0.024031783
5	0xbc8246e8	-0.015902951
6	0xbc664458	-0.01405438
7	0xbce57214	-0.028008498
8	0xbd3bb0e8	-0.045823008
9	0x3caf304b	0.021385333
10	0xbadcaee0	-0.0016836785
11	0xbd15303c	-0.036422953
12	0x3d1ca556	0.038243614
13	0x3b4ee3f4	0.0031568976
14	0xbc065d88	-0.0082010105
15	0xbc8bdd0a	-0.017073173
16	0xbd0763fb	-0.033054333
17	0xbaab6184	-0.0013075327
18	0x3c0c9cfe	0.008582352
19	0xbbc1b1ae	-0.0059110736
20	0xbb1ba3ec	-0.0023748828
21	0xbd14b19e	-0.0363022
22	0xbd034f5c	-0.032058105
23	0x3bf05468	0.0073342808
24	0xbce458bd	-0.027874345
25	0xbaf3f652	-0.0018612838
26	0xba94250c	-0.0011302545
27	0xbcb06de0	-0.021536767
28	0xbd31348f	-0.043263014
29	0xbdeaa501	-0.11457253
30	0xbc180e33	-0.009280729
31	0x3d1fb707	0.038992908
32	0xbb5acb68	-0.00333854
33	0xbd9c6f09	-0.07638366
34	0xbd6dcc7b	-0.058056336
35	0x3c79c32c	0.0152442865
36	0xbbdc46c6	-0.006722304
37	0x3c49bf96	0.012313744
38	0xbda07c70	-0.078362346
39	0xbd3e8bfa	-0.04652021
40	0xbc0c0e69	-0.0085483575
41	0xbca1f950	-0.019772202
42	0xbbf2c689	-0.007408921
43	0x397ba4f8	0.00023998681
44	0x3c2547bd	0.0100879045
45	0xbbd50631	-0.006500982
46	0x3ba5cca1	0.005059794
47	0xbd342321	-0.043978814
48	0xbd1d8afe	-0.03846263
49	0x3d012519	0.03152952
50	0xbcd11458	-0.025522396
51	0xba2cc212	-0.0006590198
52	0xbc2a4095	-0.010391374
53	0x3c5ac217	0.013351939
54	0xbca3db07	-0.020001901
55	0xbccc3e17	-0.02493195
56	0xbc4b680c	-0.012414943
57	0xbb444bd4	-0.0029952424
58	0xbd0af142	-0.033921488
59	0xbd1a3361	-0.037646655
60	0xbd47c320	-0.04877007
61	0xbbf7e830	-0.0075655207
62	0xbd0eeb71	-0.034892503
63	0xbd092760	-0.033484817
64	0xbc623d08	-0.013808496
65	0xbc935ac1	-0.01798761
66	0xbcfd88bc	-0.03094899
67	0xbcfbb08f	-0.030723838
68	0xbd441f42	-0.047881372
69	0xbc7462d8	-0.014916144
70	0xbd75f5dd	-0.060048927
71	0x3cc47489	0.02398135
72	0xbc82c23c	-0.015961759
73	0xbc7927f4	-0.0152072795
74	0x3c90c62a	0.017672617
75	0xbca4eed2	-0.02013341
76	0x3c98adcd	0.018637562
77	0xbc966378	-0.018357977
78	0x397fd5fc	0.0002439841
79	0xbcdfc91e	-0.02731758
80	0x3abc2bd1	0.001435632
81	0x3c74c0eb	0.014938573
82	0xbcf4e549	-0.029894488
83	0xbb51fafd	-0.003204047
84	0xbc9a31b8	-0.018822536
85	0xbd12defe	-0.035857193
86	0xbcfa0be2	-0.030523244
87	0xbd868ec2	-0.06570198
88	0xbd1ff68a	-0.039053477
89	0xbdb31cf9	-0.087457605
90	0xbd48543a	-0.04890845
91	0xbb0084fd	-0.0019610517
92	0xbd17caf9	-0.037058804
93	0xbba2211b	-0.004947794
94	0xbdaf2752	-0.08552422
95	0x3bf3e7be	0.0074433973
96	0x3b94eb82	0.0045446763
97	0xbcad1a37	-0.021130664
98	0xbceb6353	-0.028733885
99	0x3c17b47b	0.0092593385
100	0xbca3f0a7	-0.020012213
101	0xbc8ff52b	-0.01757296
102	0xbc240055	-0.010009845
103	0xbcef4270	-0.029206485
104	0xbc91e65b	-0.017810037
105	0x3c5facce	0.01365204
106	0xbc700559	-0.0146497125
107	0xbd2894f6	-0.041157685
108	0xbd9b65ca	-0.07587774
109	0xbd01a1a4	-0.031648293
110	0xbd175ef4	-0.03695579
111	0xbccabbe3	-0.024747794
112	0xbc38e725	-0.011285578
113	0xbd18e94e	-0.03733187
114	0xbd169628	-0.036764294
115	0xbc880134	-0.016602136
116	0x3c449343	0.011998001
117	0xbd205c14	-0.039150313
118	0xbd2e093d	-0.04248928
119	0xbd50937d	-0.050921906
120	0xbd2fc0f5	-0.042908628
121	0x3a28c800	0.0006438494
122	0xbd8a918c	-0.06766042
123	0xbcca731f	-0.024713097
124	0x3b1a358c	0.0023530452
125	0x39335dff	0.00017105787
126	0x3c78cda4	0.015185747
127	0x3bae45d7	0.005318384

fc2.weight f4 [64, 128]
0	0x3dc61393	0.09671702
1	0x3ca5497b	0.02017664
2	0x3cc7faae	0.024411526
3	0x3d844ef2	0.0646037
4	0xbe2768fd	-0.16348644
5	0xbbacb3db	-0.005270464
6	0xbe8890d0	-0.26672983
7	0x3db04fbb	0.086089574
8	0xbd878bab	-0.066184364
9	0xbe247c0e	-0.16062948
10	0x3d3eea80	0.046610355
11	0x3ca3125e	0.01990622
12	0xbcb8460a	-0.022494335
13	0xbd4809fb	-0.048837643
14	0x3e836021	0.25659278
15	0xbd30ae2f	-0.043134864
16	0xbe56a37b	-0.209608
17	0x3dd0efee	0.10202013
18	0x3c248bef	0.010043128
19	0x3db6534b	0.089026056
20	0xbe3f255e	-0.18666598
21	0x3c465c8a	0.012107024
22	0x3d7357a1	0.05940974
23	0xbdd0c89d	-0.10194514
24	0x3d24219c	0.040071115
25	0x3d8ae7b6	0.067824766
26	0xbe8eebe0	-0.27914333
27	0xbd21e8ec	-0.039528772
28	0xbdf5c087	-0.11999612
29	0x3e1786d2	0.14797524
30	0xbc820f39	-0.0158764
31	0xbe53054f	-0.20607494
32	0x3cfda0b6	0.030960422
33	0x3e0e50b9	0.13897981
34	0xbd0fd497	-0.03511485
35	0x3dbfe3a3	0.0936959
36	0xbd8ecd9a	-0.06972809
37	0xbdb129b2	-0.08650531
38	0x3e2c4ccc	0.1682617
39	0x3c3f3414	0.011670131
40	0xbdb55fe4	-0.0885618
41	0x3d61f47c	0.0551648
42	0xbe15f03a	-0.1464242
43	0x3ce025e5	0.02736182
44	0xbce7363f	-0.028224109
45	0xbe2a8199	-0.16651
46	0xbc522590	-0.012826338
47	0x3d87b453	0.06626191
48	0xbd6b8a14	-0.05750473
49	0xbf32a982	-0.697899
50	0x3d5c09a5	0.053720135
51	0x3ad59867	0.001629603
52	0x3e1012e5	0.14069708
53	0x3c9acc26	0.018896174
54	0x3bb60090	0.0055542663
55	0x3b7862a8	0.00379006
56	0x3dc4b188	0.09604174
57	0xbe1d97c8	-0.15389931
58	0x3d492136	0.049103938
59	0x3c67dd0e	0.014151825
60	0xbd8ae170	-0.0678128
61	0xbe525ddc	-0.20543617
62	0x3e3df1c6	0.1854926
63	0xbdd9775b	-0.106184684
64	0x3ce22a42	0.02760804
65	0xbdc2b135	-0.09506456
66	0xbb2032d7	-0.0024444365
67	0xbcd0067e	-0.02539372
68	0x3db9c4d9	0.09070749
69	0x3e00d4b0	0.12581134
70	0xbe195bb2	-0.14976385
71	0x3d0abdb8	0.033872336
72	0xbdb3483c	-0.08754012
73	0x3d4fa4aa	0.050694145
74	0x3d66a870	0.05631298
75	0xbd0831c0	-0.03325057
76	0x3dc896f3	0.09794416
77	0x3d675909	0.056481395
78	0x3e125476	0.14290032
79	0x3daffd3a	0.08593221
80	0xbd36a168	-0.044587523
81	0x3c80200d	0.015640283
82	0x3dc7686a	0.09736712
83	0xbd4531a8	-0.04814306
84	0xbccf955f	-0.02533978
85	0x3e347225	0.17621668
86	0xbe883251	-0.26600888
87	0xbe439f72	-0.19103792
88	0xbc7daa6d	-0.015482527
89	0xbc57e9f9	-0.013178342
90	0xbcb9b6a4	-0.022670098
91	0xbd8ff6b7	-0.07029479
92	0x3d9abb67	0.075552754
93	0x3d8068b3	0.0626997
94	0xbd1a3de0	-0.037656665
95	0x3dcd9006	0.10037236
96	0x3c112837	0.008859686
97	0xbc8d56ad	-0.017253244
98	0x3ce1294f	0.027485518
99	0xbd8b1c44	-0.067925006
100	0xbd109bb2	-0.035304733
101	0xbde688a4	-0.11256531
102	0x3c226a36	0.009913018
103	0x3ce419e2	0.027844373
104	0xbe58c508	-0.21168911
105	0xbc9d576c	-0.019206725
106	0xbdaeca34	-0.08534661
107	0x3dc2e080	0.09515476
108	0x3e03b6a9	0.12862648
109	0x3e2d3b6e	0.16917202
110	0xbcce6d6b	-0.025198659
111	0xbc809c31	-0.015699478
112	0x3d153ea6	0.0364367
113	0xbe3f6615	-0.18691285
114	0xbdd8fb09	-0.10594756
115	0xbd950c08	-0.072776854
116	0x3ba9a727	0.005177397
117	0xbe13e630	-0.14443278
118	0x3ddfc406	0.109260604
119	0x3d4707c8	0.048591405
120	0x3ced1d21	0.028944554
121	0xbe4d72ac	-0.20063275
122	0x3e31eccf	0.17375492
123	0x3c43d929	0.0119536305
124	0xbdc9ee90	-0.09859955
125	0xbd5f27fd	-0.054481495
126	0xbda4185b	-0.08012458
127	0x3da475fe	0.08030318
128	0x3d00afbc	0.031417593
129	0xbd79bcaf	-0.06097096
130	0x3c87454a	0.016512532
131	0x3dd6ca47	0.104878
132	0x3e6173df	0.22016858
133	0x3cf758f3	0.030193781
134	0x3dd203f6	0.10254662
135	0xbd8e4fa7	-0.06948786
136	0x3d01301e	0.03154003
137	0xbc516ae2	-0.0127818305
138	0x3dd76512	0.105173245
139	0x3d05be0e	0.032651953
140	0x3c209a70	0.009802446
141	0xbd5c4c89	-0.053783927
142	0xbd7240fe	-0.059144013
143	0xbcc676d1	-0.024226578
144	0xbe475284	-0.19465071
145	0x3d96ee21	0.07369638
146	0xbdd9b631	-0.106304534
147	0x3d771952	0.06032688
148	0x3e822342	0.25417525
149	0xbd84a040	-0.06475878
150	0x3d99c99b	0.07509156
151	0xbd46c20d	-0.048524905
152	0x3ba5537d	0.005045353
153	0xbd30cbb3	-0.043163013
154	0x3de4101a	0.11135884
155	0x3d9e47f3	0.07728567
156	0xbe0fabde	-0.14030406
157	0xbdf8414e	-0.12121831
158	0xbd4be36c	-0.049777433
159	0xbdeb739c	-0.1149666
160	0x3d96deb1	0.07366694
161	0xbe753c9d	-0.23948903
162	0x3ea86f9b	0.32897648
163	0xbd8a3962	-0.06749226
164	0x3d9ca1c1	0.076480396
165	0xbc04d6db	-0.008107866
166	0xbe2fbdd7	-0.17162262
167	0xbdb70e1c	-0.08938238
168	0xbc6eb313	-0.014569062
169	0xbcc0e4d9	-0.023546623
170	0x3d4ede2a	0.05050484
171	0x3b46dfc1	0.003034577
172	0x3bdd867e	0.0067604175
173	0x3d127ed1	0.035765473
174	0x3db390a0	0.087678194
175	0xb8439180	-4.662713e-05
176	0x3bf61b6c	0.007510593
177	0xbe7cc12c	-0.24683064
178	0x3d19f381	0.03758574
179	0x3e21c2d8	0.15796983
180	0xbd60d0c9	-0.054886613
181	0xbd125af7	-0.035731282
182	0xbd542af6	-0.051798783
183	0xbdd7a6f6	-0.10529892
184	0x3d4758db	0.048668724
185	0xbd058dc8	-0.032605916
186	0x3da73a71	0.08165444
187	0x3c9673e9	0.018365817
188	0x3b60d920	0.0034309104
189	0x3d60aa52	0.05484993
190	0xbe10462d	-0.1408927
191	0xbd84badb	-0.06480952
192	0xbd3d7fb3	-0.04626436
193	0x3c1cb480	0.009564519
194	0xbd09dfa2	-0.03366054
195	0x3d0c28ba	0.034218527
196	0x3deb9e9a	0.1150486
197	0xbe86345c	-0.26211822
198	0x3cc0dd4e	0.023543026
199	0x3d95471b	0.07288953
200	0x3d4eb50c	0.05046563
201	0xbcc0af1b	-0.023520997
202	0xbdd5b31b	-0.10434552
203	0x3c1e7ab5	0.00967281
204	0xbd4d5177	-0.05012652
205	0x3d88ab97	0.06673353
206	0x3e2c618c	0.16834086
207	0xbe25b7ec	-0.16183442
208	0xbb83672c	-0.004010102
209	0x3c39a3ce	0.011330558
210	0xbd85a806	-0.065261886
211	0xbccfbce4	-0.025358625
212	0xbca4bd0e	-0.02010968
213	0x3c8179a0	0.015805066
214	0xbd834230	-0.06409109
215	0x3e559441	0.20857336
216	0x3d9731ff	0.07382583
217	0x3ecaa34a	0.39577705
218	0xbd1e1a4e	-0.038599305
219	0xbcb9267a	-0.022601355
220	0xbbf6ef34	-0.0075358395
221	0x3da2fa9a	0.07957955
222	0x3d245a68	0.04012528
223	0x3c156a9e	0.009119658
224	0x3d912b16	0.07088296
225	0x3d340578	0.043950528
226	0x3c9050a7	0.017616583
227	0xbc890e93	-0.016730582
228	0x3d0ae319	0.033907983
229	0xbd073d99	-0.03301773
230	0x3a44cf02	0.0007507653
231	0xbf017aa8	-0.50577784
232	0xbe291f9c	-0.16515964
233	0x3dabe2d6	0.08392875
234	0xbd070563	-0.03296412
235	0xbc048c44	-0.008090083
236	0xbd868d2f	-0.065698974
237	0x3e07aa1d	0.13248487
238	0xbd50622c	-0.050874874
239	0x3c46d77f	0.012136339
240	0xbd5d4be2	-0.054027446
241	0x3d0f5e62	0.03500212
242	0x3d882995	0.06648556
243	0x3c605531	0.013692186
244	0xbd20f07b	-0.03929184
245	0x3cca8329	0.024720745
246	0xbedf1007	-0.43566915
247	0xbcb522c0	-0.022111297
248	0x3d836006	0.064147994
249	0xbcc695fc	-0.02424144
250	0xbe0a6525	-0.13515146
251	0xbc5436e8	-0.012952544
252	0x3df2cdca	0.118556574
253	0x3dc2dacc	0.095143884
254	0x3d78804d	0.060669232
255	0xbd994dec	-0.074855655

fc2.bias f4 [64]
0	0x3c1226dd	0.008920399
1	0x3e52dc1b	0.20591776
2	0xbd660361	-0.056155566
3	0x3d929804	0.07157901
4	0xbd9c2ff9	-0.076263376
5	0xbe1d4cca	-0.15361324
6	0xbe4b0667	-0.19826661
7	0x3d407454	0.04698594
8	0xbe17c18b	-0.14819925
9	0x3d0f5ab7	0.03499862
10	0xbc0461d4	-0.008079965
11	0xbe2e1dfe	-0.17003629
12	0x3d51aad6	0.051188312
13	0xbc87c10f	-0.01657155
14	0xbe800d97	-0.25010368
15	0x3e557003	0.2084351
16	0xbd86d87c	-0.0658426
17	0x3d28944e	0.04115706
18	0xbe15e44e	-0.14637873
19	0x3dd42da7	0.1036027
20	0xbe27cd10	-0.16386819
21	0x3e8dd632	0.2770248
22	0x3e250009	0.16113295
23	0x3d359eb7	0.044340815
24	0xbd273a0c	-0.040826842
25	0xbcb8bb1a	-0.022550154
26	0xbe422e86	-0.1896306
27	0xbde2bc85	-0.110711135
28	0xbdb6c6df	-0.089246504
29	0xbe3a74ab	-0.18208568
30	0x3df3a2d4	0.118962914
31	0x3e8f80a9	0.28027847
32	0x3c420c74	0.011843789
33	0xbd9bfbb8	-0.07616371
34	0x3c5b0935	0.013368894
35	0x3e459b98	0.19297636
36	0xbe09b43e	-0.13447663
37	0xbe59c5b1	-0.2126682
38	0xbdcc6855	-0.09980837
39	0xbde8de89	-0.1137057
40	0xbe845a92	-0.2585035
41	0xbe56f5ae	-0.20992157
42	0x3dc5d411	0.09659589
43	0xbdbc91f6	-0.09207527
44	0xbd1fe5b1	-0.03903741
45	0xbe1a94b0	-0.15095782
46	0xbe19058f	-0.14943527
47	0xbe5db040	-0.21649265
48	0xbd109a61	-0.035303477
49	0xbd81858a	-0.06324299
50	0x3d6ce0ae	0.05783146
51	0xbe24c450	-0.16090512
52	0xbcd5cb11	-0.026097806
53	0x3d01ef15	0.031722147
54	0x3e263124	0.16229683
55	0xbdb47d52	-0.088129655
56	0x3d2bb6b6	0.041922294
57	0xbe50348e	-0.20332548
58	0xbde76549	-0.112986155
59	0xbe0d87bb	-0.13821308
60	0xbda95bf9	-0.082694955
61	0x3d54601a	0.051849462
62	0xbdfdec0f	-0.1239854
63	0xbd51804d	-0.051147748

fc3.weight f4 [10, 64]
0	0xbe31f4e9	-0.17378582
1	0x3e06d2f7	0.13166414
2	0xbdf77b87	-0.12084108
3	0x3d6af14b	0.05735902
4	0x3e7e40fe	0.2482948
5	0xbe66da1f	-0.22544144
6	0xbeaca838	-0.3372209
7	0x3d8fd8d4	0.070237786
8	0xbd95420a	-0.072879866
9	0x3dda3bfc	0.10655972
10	0x3d592d33	0.05302162
11	0xbe51b446	-0.20478925
12	0x3e2bf809	0.16793837
13	0xbcb634fb	-0.02224206
14	0xbe355e54	-0.17711765
15	0x3dc3c9fb	0.09560009
16	0xbd174b71	-0.03693718
17	0xbe662509	-0.22475065
18	0xbe04f308	-0.12983334
19	0xbe27fd68	-0.1640526
20	0xbe8f97dc	-0.28045547
21	0xbbf46240	-0.0074580014
22	0xbd464090	-0.048401415
23	0xbe8a7483	-0.27042016
24	0xbe6d2392	-0.231581
25	0xbcac30e0	-0.0210194
26	0x3da9bd78	0.082880914
27	0xbdcabacb	-0.09898909
28	0xbde507ed	-0.11183152
29	0x3df83a56	0.12120502
30	0x3e124840	0.14285374
31	0x3dc453e9	0.09586317
32	0x3d21f8c6	0.03954389
33	0x3dbbb80b	0.09165963
34	0xbd57a066	-0.052643202
35	0xbe2fafa1	-0.17156841
36	0x3dd9155a	0.105997756
37	0xbec1a89b	-0.37823948
38	0xbe232196	-0.15930781
39	0x3dd8f023	0.105926774
40	0x3d62ddcc	0.055387303
41	0xbe90aaec	-0.28255403
42	0xbe3e9d9d	-0.18614812
43	0xbe487385	-0.19575317
44	0x3cca5c60	0.024702251
45	0x3d5ff2cf	0.05467492
46	0xbe941504	-0.28922284
47	0x3e22acfc	0.15886301
48	0xbe300adf	-0.17191647
49	0xbe757c87	-0.23973285
50	0x3daeaa82	0.085286155
51	0x3cd90412	0.026491199
52	0x3d212776	0.039344274
53	0x3e026270	0.12732863
54	0xbe8b9b48	-0.27266908
55	0xbba8fcd7	-0.005157094
56	0xbd886f79	-0.06661887
57	0x3e24c622	0.16091207
58	0x3e39c144	0.18140131
59	0xbddbe489	-0.10736949
60	0xbd3889f4	-0.045053437
61	0xbe4e3bb7	-0.20139967
62	0xbe06a085	-0.13147171
63	0xbccf633a	-0.02531587
64	0x3e103820	0.1408391
65	0xbe82c49e	-0.25540632
66	0xbd581240	-0.05275178
67	0xbd5db1e9	-0.054124746
68	0xbda8d291	-0.08243287
69	0x3df56580	0.1198225
70	0xbc24985e	-0.010046093
71	0xbd2f2b26	-0.04276576
72	0xbdb4d775	-0.08830158
73	0xbcc69671	-0.024241658
74	0x3d30484e	0.043037705
75	0x3ba96e38	0.00517061
76	0xbd9d5670	-0.07682502
77	0xbd2c2329	-0.04202572
78	0xbe62cf72	-0.22149447
79	0xbe0e6c51	-0.13908507
80	0xbd969af6	-0.07353775
81	0x3c898423	0.01678664
82	0xbcb44afa	-0.022008408
83	0x3e1de683	0.15419964
84	0x3dad258e	0.084544286
85	0x3d69c7b8	0.057075232
86	0xbe9de423	-0.30838117
87	0xbe35b4d5	-0.17744763
88	0xbe774b41	-0.24149801
89	0x3cd7462e	0.026278581
90	0xbece76a2	-0.40324885
91	0xbdb22f90	-0.08700478
92	0xbe601f05	-0.21886833
93	0x3d5ccfb4	0.05390902
94	0xbda758e4	-0.081712514
95	0xbe9c640f	-0.3054509
96	0x3ce58203	0.028016096
97	0xbea6cc3c	-0.32577693
98	0xbd9d0595	-0.0766708
99	0x3de9b16f	0.11410796
100	0x3e6327f5	0.22183211
101	0x3dc0a4a8	0.09406406
102	0x3d53a7e0	0.05167377
103	0xbe817528	-0.25284696
104	0x3db2034b	0.08692034
105	0xbe643708	-0.22286618
106	0xbd69bded	-0.057065893
107	0x3e0dc435	0.13844378
108	0xbc0da130	-0.008644387
109	0x3dac46e7	0.08411961
110	0xbe8c5ed6	-0.27416104
111	0xbe77af5e	-0.24187991
112	0x3e49fd76	0.19725594
113	0xbde27cf0	-0.11058986
114	0x3ccdcd18	0.02512221
115	0x3d212c56	0.039348923
116	0x3becd356	0.0072273416
117	0x3e3a6830	0.18203807
118	0x3c8b2235	0.016984085
119	0x3eb1c0c9	0.34717396
120	0xbc8dc5ef	-0.017306296
121	0x3e7cac7c	0.24675173
122	0xbdc4e1f2	-0.09613408
123	0xbe98e790	-0.29864168
124	0x3d8866f2	0.0666026
125	0xbf024e7c	-0.5090101
126	0x3c97810c	0.018494152
127	0x3d8d0650	0.0688597
128	0x3c837124	0.01604516
129	0xbdc0558d	-0.093913175
130	0xbd22eabe	-0.03977465
131	0xbad1927d	-0.0015989091
132	0x3e2aa1ab	0.16663234
133	0x3dc6da17	0.09709566
134	0x3cdb9ff4	0.02680967
135	0xbdebd105	-0.11514477
136	0xbdd45308	-0.103673995
137	0xbdc9ac91	-0.098473676
138	0xbd725e2d	-0.059171844
139	0xbe39f7a2	-0.1816087
140	0xbe1efd3b	-0.15526287
141	0xbe1ca536	-0.15297398
142	0xbe995db5	-0.29954305
143	0x3a81d8f2	0.0009906574
144	0xbd5aa65b	-0.053381305
145	0xbe915590	-0.28385592
146	0xbe8f8343	-0.28029832
147	0xbe8630c2	-0.26209074
148	0x3cea3cc5	0.02859343
149	0xbd4e55e3	-0.050374877
150	0xbe28ad73	-0.16472416
151	0xbd6d3358	-0.057910293
152	0xbcddb370	-0.027063102
153	0x3cddb1fc	0.027062409
154	0xbe98975f	-0.29802987
155	0x3dc8c097	0.098023586
156	0xbd93372b	-0.07188257
157	0x3e18276b	0.14858787
158	0xbe0271d2	-0.12738732
159	0x3d017df4	0.03161426
160	0xbd9613bd	-0.073279835
161	0x3daef43e	0.08542679
162	0x3e2bfb75	0.16795142
163	0x3e364aba	0.17801943
164	0x3e413b0f	0.18870185
165	0x3cf68c40	0.030096173
166	0x3cacdca4	0.021101303
167	0x3d6402cf	0.05566674
168	0xbde53c61	-0.11193157
169	0xbcf2e9b9	-0.029652463
170	0x3e095b4e	0.13413736
171	0x3c010389	0.007874378
172	0xbbdd36f2	-0.0067509348
173	0x3d029011	0.031875674
174	0xbd9a71be	-0.07541226
175	0x3c02473c	0.007951554
176	0xbcb4298e	-0.021992471
177	0x3ce3ed7c	0.027823202
178	0x3e47e2d9	0.1952013
179	0xbdab8a80	-0.08376026
180	0x3d630a09	0.055429492
181	0xbda8d7ec	-0.08244309
182	0x3dca0394	0.09863964
183	0xbe010436	-0.12599263
184	0xbdb16ec0	-0.08663702
185	0xbe82c871	-0.2554355
186	0x3da92962	0.08259846
187	0xbe8bd718	-0.2731254
188	0xbe0ec889	-0.13943686
189	0xbe8c8786	-0.27447146
190	0xbde0d379	-0.10977835
191	0xbd48bdf4	-0.04900928
192	0xbe9541b2	-0.29151684
193	0x3e55c86f	0.2087724
194	0x3db4bb95	0.08824841
195	0x3c993dfa	0.01870631
196	0x3cff42c1	0.03115976
197	0xbcad61b6	-0.021164756
198	0xbe0ba805	-0.13638313
199	0xbc358f9d	-0.011081603
200	0xbd48b838	-0.04900381
201	0xbd366761	-0.044532184
202	0xbc5ea8bc	-0.013590034
203	0xbd7e8e9c	-0.06214772
204	0xbe74b500	-0.23897171
205	0xbd99bb63	-0.07506444
206	0xbe096f4e	-0.13421366
207	0xbce02cc7	-0.027365102
208	0x3d5add4a	0.053433694
209	0x3e0e4f57	0.13897453
210	0xbdd619ea	-0.104541615
211	0xbd91d894	-0.07121387
212	0xbcf09439	-0.029367553
213	0xbe65454f	-0.2238972
214	0xbda33060	-0.07968211
215	0xbc8f4795	-0.017490188
216	0xbddf2d4f	-0.10897314
217	0xbbfbffed	-0.007690421
218	0xbe2ce2a6	-0.16883335
219	0x3c99280d	0.018695856
220	0x3e1337ef	0.14376806
221	0xbcb17235	-0.021660903
222	0xbddc6554	-0.10761514
223	0x3d079d60	0.03310907
224	0xbd9b70c7	-0.0758987
225	0xbe240682	-0.16018108
226	0x3e697435	0.22798236
227	0x3e19f3be	0.15034387
228	0xbd95c4f9	-0.0731296
229	0x3e08e2cd	0.13367768
230	0xbe74c620	-0.23903704
231	0x3dd9d96f	0.10637175
232	0x3e3a7cf7	0.18211733
233	0xbddfc729	-0.10926659
234	0xbe1a309f	-0.1505761
235	0x3d1b6b8a	0.037944354
236	0xbd4a5b6d	-0.049403597
237	0xbd9e464e	-0.07728253
238	0x3e21dad2	0.1580613
239	0xbe5d6f8f	-0.21624587
240	0xbeaec728	-0.3413632
241	0xbd848af8	-0.06471819
242	0xbe049e00	-0.12950897
243	0xbce8b40a	-0.028406162
244	0xbccb13e6	-0.024789762
245	0x3c09c940	0.008409798
246	0x3e1e071b	0.15432398
247	0x3d66d99a	0.056359865
248	0xbd05e02d	-0.032684494
249	0xbeb4d712	-0.35320336
250	0xbdecdc2d	-0.11565433
251	0xbf0a754b	-0.54085225
252	0xbd64613b	-0.05575679
253	0xbd98a597	-0.07453459
254	0x3d4183a2	0.047244675
255	0xbda0fb65	-0.0786045

fc3.bias f4 [10]
0	0xbd99d8ef	-0.0751208
1	0xbea934bd	-0.3304805
2	0x3dea7487	0.11448007
3	0xbd2680c9	-0.040650163
4	0x3bd39c2b	0.0064578257
5	0xbe0a25d6	-0.13490996
6	0xbe1200f8	-0.14258182
7	0xbe503a7c	-0.2033481
8	0x3eae0210	0.3398595
9	0x3d3fb246	0.046800874
