results/mnist_model.pth (torch, 90416 bytes, 8 tensors)

conv1.weight f4 [10, 1, 5, 5]
00000000: ff2e 3c3d 1456 86be b9b6 94be ca81 8dbe
00000010: 53dc 2fbe 28de a23e 68aa 923d bd24 4abe
00000020: a470 7cbe 5286 18be a2d7 423e 1328 c13e
00000030: 85b1 013f 7ca1 bf3e 126c 9f3d 846a a3bd
00000040: e291 833e 0bf4 c63e 9b12 f33e 9431 573e
00000050: a411 91be 40de eabe d78e dfbe bef0 cfbe
00000060: b684 1ebc 7d02 323e ce5a 113e f6cb 48be
00000070: 059a abbe 1ca6 8bbe 78a3 ac3e 4cb7 c53e
00000080: 7b0f 9abd 4562 95be 2a1f fabe 8939 003e
00000090: 4605 083f dcbb e6bd 5f68 3bbe c481 debe
000000a0: 258b 9d3e 4277 0b3e aa8b 1b3e 6561 10be
000000b0: 76cc 6fbe 9a6a d43d a21d 2a3d 47aa ed3d
000000c0: e568 7e3b 65f4 933d 5c1f 5fbe 07f7 89be
000000d0: 18f6 f5bd b84c 513c 4b2a 993e f5aa 27be
000000e0: ff37 e6bd 15f6 203d c568 c03e d753 c83d
000000f0: 60e5 6abe 589b 2f3d 9596 bb3e c078 003f
00000100: 3078 57be e318 593c 7a86 613e 50aa f63e
00000110: 4b7e c7bc 223c 92be 12a9 ab3d 5b6a aabd
00000120: aef7 cebd a9b4 99be ed1b 52be 503a 1d3e
00000130: 4e90 133f 4619 ad3e 49c3 9f3c 2493 e53d
00000140: 8597 29be d62a f83d 1b7d 403e 65f2 733e
00000150: ee96 b43e c7f1 73be 873a 6bbe 8a85 313e
00000160: a8e7 4c3e 1353 603e 671c 8abd 4f92 c8be
00000170: a4ed 8dbe 397d 07be 394b d2be 2453 85bc
00000180: acf6 3dbd 0348 a9be d9da e6be 51ca 9fbe
00000190: 613f 823e c69f 19b9 22f9 ba3d 04e5 5d3d
000001a0: c9a8 9bbd b70e 5ebe dbed 813e 0609 20bd
000001b0: af13 c9bd b7dc 853e a97b 64bd 49f6 943e
000001c0: dcd3 953d 5c96 9abe 9197 163e a5fe a63d
000001d0: 6122 9e3e e18a da3d f201 bdbd 41fa 433d
000001e0: 29a6 d1bd 20c9 e93d 75f5 203e 57fd 4fbd
000001f0: 5d22 253e 798a 2fbe 36af e4be 1585 94be
00000200: b84b 603e 2e77 c93e 0ec1 82be 551a 623c
00000210: 6e59 d43e 7980 c73e 2832 4ebd f8f3 173e
00000220: c142 533e 94e3 9d3d 1b62 1fbe c98d 9dbe
00000230: 666e 603b 3c04 d3bd 6f92 b7be 9480 eabd
00000240: 8bc7 013e 0060 3d38 93e8 29bd 85eb 273d
00000250: 0fe6 173e eec0 233e 6a56 54be 7929 61bc
00000260: 5dc3 70be 3220 7a3d dc4a 7cbe d1c2 adbe
00000270: 17a0 9ebe 059c 1dbe 9f93 913e f924 8abd
00000280: 9e0a b1be b22c 9bbd 21b9 963d ae28 303e
00000290: f0f3 1dbe 2e09 f8bd e560 d8bd ac15 0c3d
000002a0: 51a9 b7bc 3309 d23d 3b0d b2bd edfa dc3d
000002b0: f0da a33d 00bc b13e c986 143f 1cf4 863c
000002c0: 4702 703e 7909 933e b3d8 25be c544 4c3e
000002d0: 0d38 8ebe 13fb 94be e1f2 2abf 4756 1abf
000002e0: 8a80 cabe ecee 333e 785c bebd 62f3 a9be
000002f0: 9a6d a7bd 2c49 bdbd e174 6d3e 030a cd3e
00000300: 63a0 433e 189d 483e 148a 833e 1309 33be
00000310: 864c a63e 0f6b ce3e 89db 463e 9f03 40bd
00000320: 2120 98bb 898e 7abd 09eb 943e 1e0f 10bc
00000330: 8a9c 863d 078c 04be 5a68 63bd 9e7a 883c
00000340: 1bef 813e 3bb5 ab3e 8d28 c8bc 67ba 90bd
00000350: 46ab bfbe 858d 473e 1875 e03e 43fa e83c
00000360: 33c1 9fbd 2d9f a1be 1189 0bbe 4847 013f
00000370: cea0 95be 6294 c5bc 0e5d c6be 0c1a bebe
00000380: f312 573e 7f81 57be 9c5a 86be c021 763e
00000390: 10a1 b03e 03d1 cc3e b40a 24be a9d1 51be
000003a0: 4a04 c43e de0e 0f3e a624 0b3e 4e69 63be
000003b0: c155 3ebe 24e6 6e3e b59a 843e 1165 993d
000003c0: b681 0dbf 8477 7dbe 2b1e 8cbd 47de 3b3d
000003d0: d155 3abd 99de a0be 8c1b 04bf 0b88 06bf
000003e0: 027f 91be b02c 13be
0.045943256 -0.26237547 -0.29045656 -0.27638084 -0.17173891 0.31810117 0.07161409 -0.19740577
-0.24652344 -0.14894989 0.1902757 0.37725887 0.506615 0.3742789 0.07784285 -0.079793006
0.25697237 0.38858065 0.47475132 0.21015006 -0.2833377 -0.45872688 -0.43663666 -0.4061336
-0.009675195 0.17383762 0.14194795 -0.19609055 -0.33515945 -0.2727517 0.33718467 0.38616407
-0.07522484 -0.29176536 -0.488519 0.12521948 0.53133047 -0.112663 -0.18301533 -0.43458378
0.3077022 0.13619712 0.15189996 -0.14099653 -0.2341784 0.10371895 0.041532166 0.116047435
0.0038819846 0.07224349 -0.21789306 -0.2694628 -0.12009829 0.012774639 0.2991508 -0.16373809
-0.11241149 0.039297182 0.37579933 0.09781616 -0.22939062 0.042872757 0.36638322 0.5018425
-0.21041942 0.013250562 0.22023955 0.48176813 -0.024352213 -0.28561503 0.08381857 -0.08321067
-0.10105835 -0.30020645 -0.20518465 0.15354276 0.57642066 0.33808345 0.019502299 0.112097055
-0.16561706 0.12117545 0.18797724 0.23822935 0.352714 -0.238227 -0.22971545 0.17336097
0.20010245 0.2190669 -0.067436986 -0.39174125 -0.27720368 -0.13231362 -0.41073015 -0.016274996
-0.046377823 -0.33062753 -0.45088843 -0.31209043 0.2543898 -0.00014650737 0.091295496 0.054173484
-0.076005526 -0.21685301 0.25376782 -0.039071105 -0.098182075 0.26144955 -0.055781994 0.2909415
0.073157996 -0.3019284 0.14706255 0.08154038 0.30885604 0.1067102 -0.09228887 0.047846083
-0.10236771 0.11415315 0.15718634 -0.050778713 0.1612639 -0.17142667 -0.44664925 -0.29007784
0.21903884 0.3934874 -0.25537914 0.013800223 0.4147448 0.38965204 -0.0503408 0.1483916
0.20630933 0.07709423 -0.15564768 -0.30772236 0.003424549 -0.10303542 -0.35853907 -0.114503056
0.12673776 4.515052e-05 -0.041481566 0.040996093 0.14833854 0.15991566 -0.2073609 -0.013742798
-0.23512025 0.06106586 -0.24637932 -0.33937696 -0.30981514 -0.15391548 0.28432938 -0.06745333
-0.34578413 -0.07576884 0.07359529 0.17203018 -0.15425086 -0.12111126 -0.10565356 0.034200355
-0.022419604 0.10255661 -0.0869393 0.10790048 0.080007434 0.34713745 0.58018166 0.016473822
0.23438369 0.28718165 -0.16195945 0.19948108 -0.27777138 -0.29097804 -0.66776854 -0.602879
-0.39551193 0.1757161 -0.09294981 -0.331935 -0.08175202 -0.09242472 0.23189117 0.400467
0.19104151 0.19591177 0.25691283 -0.1748393 0.32480258 0.40316054 0.19419684 -0.046878453
-0.004642502 -0.06117109 0.29085568 -0.008792667 0.06572826 -0.12944041 -0.05551944 0.01666003
0.25377735 0.33536705 -0.024433399 -0.070668034 -0.3743536 0.19487579 0.43839335 0.028439647
-0.07800522 -0.31566754 -0.13626505 0.5049939 -0.29224247 -0.024118606 -0.3874287 -0.37129247
0.21003322 -0.21045493 -0.26241004 0.24036312 0.3449788 0.40003213 -0.16019708 -0.20490135
0.38284522 0.13970515 0.13588199 -0.2220814 -0.185874 0.23329979 0.25899282 0.0748998
-0.5527605 -0.24752623 -0.068416916 0.045866277 -0.045491997 -0.3141983 -0.51604533 -0.52551335
-0.28417212 -0.14372516

conv1.bias f4 [10]
00000000: f7bd ddbe f0d1 1ebe 04e0 a8be 7e89 33be
00000010: b516 be3d 7dfd 21bd 91ba d8bd 3b86 b2bd
00000020: 8deb 8dbd b747 89be
-0.43308994 -0.15509772 -0.3298341 -0.17532918 0.09281675 -0.039548386 -0.1058246 -0.08717009
-0.06929693 -0.26812527

conv2.weight f4 [20, 10, 5, 5]
00000000: 5deb 2a3d c42a dd3d e89a 05be 1a6c 80bd
00000010: 63b0 303d 727f ecba c748 613d 3d80 e2bd
00000020: fbba 03bd c732 323d 24c0 bfbc 94eb 2ebc
00000030: 8b5f dcbd d72b a0bd 3bb4 353d b178 7bbd
00000040: 52bf 44bc 01e1 a83b 373e a53b 16e5 773d
00000050: 7d66 1bbe aed5 3f3c f557 f93d c162 0e3c
00000060: e583 24bd bcd1 273c 5496 35be da5b 34be
00000070: 04d0 5b3c a6b7 5d3d 9987 33be 16e7 49be
00000080: 83ed 073c 2f2f 453d cd09 8ebc 22af 40be
00000090: cca9 a1bc 91cf 22bd c758 8abc b227 0abd
000000a0: 5854 0fbe 9c8d e5bb 28e4 853d 8385 f73c
000000b0: 25ec 1c3d fa5c 163c 4be6 203e 1c97 7e3d
000000c0: 35fe bc3c e204 84bd ce37 c43d 493c b1bd
000000d0: 8531 fa3c eaee bb3b b332 db3d 4e89 2abc
000000e0: 3416 3a3b 6e80 453d d57f d43d 763e 8ebc
000000f0: 112f a3bc 3853 093c 088d 25bc fc89 1c3d
00000100: 18d7 efbb 9101 5fbc 5183 99bd 25ff 02be
00000110: c528 2bbe 8f79 10be cc42 46bd c595 f5bd
00000120: f963 18be 7cfb 39be ccea 29be 8674 dd3d
00000130: 9f46 cbbd 83f4 b0bc ba0b f4bc 8cf0 adbd
00000140: ebed bcbd ffd3 4abd bd01 c2bd 9001 54bd
00000150: 14f7 1cbd ed5a e0bc 608b 08bd c087 a2bc
00000160: 07bb b4bd 542a abbd 4be7 183e 7ccb c03c
00000170: e7dd bdbd 12fb 9dbd 901b 7b3d 0fa1 20bd
00000180: 42ed ec3d 6979 293d 1154 073c 8ea4 e2bb
00000190: 24af db3d b6d6 94bd 0e59 aa3c 0fd9 313e
000001a0: 07c9 643e 7e41 a9bb a58a 13be b1b4 fb3c
000001b0: 28f5 263e c401 c53d 9d11 0dbe e1ab 343d
000001c0: 51bc 203d 6a32 873d 4f8a 513d c1df 0fbe
000001d0: b944 c5b8 d0c2 e23d b0b2 8a3d 1c59 2ebd
000001e0: 0186 a2bd f341 cfbd 6a6c edbd f702 18be
000001f0: 165a 02be e22c 2a3d 9c48 953c 0008 3b3d
00000200: 2ed7 173c e600 50bd 30d7 2b3d d3c5 e43d
00000210: db8e fe3d c567 cb3d 3c64 843d f8f6 a63d
00000220: bd96 323e 887c b53d 68f0 173e 162d babb
00000230: 106c 56bd 073f 923d 8aa8 b63c ccf9 2bbd
00000240: 0cb2 b83b 6019 36bd 70bf acbd eeaf b0bd
00000250: 99bd febc 65c1 b3bc 3ab4 5bbd 4bd1 8dbd
00000260: 92aa 453c a6fc 153c 070a 3e3d 3a64 043d
00000270: 94fd 88bd 9a96 fb3d 5b76 0e3d 5e92 52bd
00000280: 16c6 fa3c 7a65 233e 278c 303e 1c60 9d3d
00000290: 9160 41bd 5b3f 783d cadf 0b3c 6549 973d
000002a0: a252 eb3c 9d1f f9bd c3a9 d03d 8095 9c3c
000002b0: 3a11 b63c 3029 50bd 9bd9 50be e1d9 acbd
000002c0: 8541 a53d be2a e8bd 6474 9dbd 7ef5 e73c
000002d0: c04a 483d 0302 0f3e 3f42 01be c8f8 fabd
000002e0: f076 97bc 0364 debc b1d3 9fbd 5d2d e6bd
000002f0: 87dd dcbd 6e8e 423d 1413 7f3d f717 4bbd
00000300: f384 83bc 89b0 53bb 8600 3a3e a414 423e
00000310: 01b5 ee3b c7f6 113c 7cb2 dfbc e6ab 1fbe
00000320: 3a9e 7ebc db3f 54bd 45fc 11bd 85f0 c73c
00000330: 4856 d03c 67fb 39bc e8a3 203d e0f0 8abd
00000340: de88 5ebb d6c5 37b8 9672 e7ba 86de df3d
00000350: 0343 113e e50f 013e 8391 e63c dd03 473d
00000360: 563f 49bd 8711 953d f375 983d 46c2 95bd
00000370: 44fa c3bd 80c9 10be c3c1 99bd ef67 a5bd
00000380: 307b 9cbd bf80 073e 0577 18be b5d6 26bd
00000390: 1993 0bbe d179 5fbd 4380 c63c 6fda 36bd
000003a0: 41e7 683d c2df 10be 5067 65bc 4519 863d
000003b0: bb8a 973c 5bd3 d9bd 9843 abbd 5cd2 31bd
000003c0: c23b 223e 8226 f9bb 0f92 c1bc 853d a53d
000003d0: e8b8 e93c 87bb 3dbe dc1e 95bd 9f97 403d
000003e0: 1a30 323d e089 0f3b 4a1c 14bd 6ef3 cfbb
000003f0: fc2d 95bd 80cc a43d 36bf 273d b3cb acbd
0.041728366 0.107991725 -0.13047373 -0.06270619 0.043136965 -0.0018043353 0.055001047 -0.11059616
-0.03216074 0.043505456 -0.02340705 -0.010676283 -0.10760411 -0.07820862 0.044361334 -0.061394397
-0.012008505 0.0051537757 0.005042817 0.060521208 -0.15175815 0.01170866 0.121749796 0.008690537
-0.040164847 0.010242876 -0.17733127 -0.17613164 0.013416294 0.05413022 -0.17532195 -0.19717059
0.008296373 0.0481407 -0.017338658 -0.18816808 -0.019734286 -0.039748732 -0.016888035 -0.033729263
-0.13997018 -0.0070054065 0.06537658 0.03021503 0.038311142 0.009177441 0.1571285 0.062155828
0.023070434 -0.06446244 0.095809564 -0.086540766 0.03054119 0.005735268 0.107030295 -0.010408713
0.0028394582 0.048218183 0.103759445 -0.017363768 -0.019919904 0.008381657 -0.010104425 0.03821753
-0.0073193423 -0.013611213 -0.0749575 -0.12792642 -0.16714771 -0.14108871 -0.048403546 -0.11991457
-0.14881887 -0.1816234 -0.16593474 0.10813241 -0.09925579 -0.021600967 -0.029790748 -0.08493146
-0.09225067 -0.04951858 -0.09472988 -0.051759303 -0.03832157 -0.027387107 -0.033336043 -0.019840121
-0.08824735 -0.08357683 0.14931981 0.023534529 -0.0927084 -0.077139035 0.061305583 -0.039216097
0.11568691 0.04137555 0.008259789 -0.006916589 0.10726765 -0.07267515 0.020794418 0.17367958
0.22342311 -0.005165278 -0.14408357 0.030725809 0.16304457 0.096194774 -0.1377625 0.04410923
0.039242093 0.066014126 0.051157292 -0.14050199 -9.4064926e-05 0.11072314 0.06772363 -0.04256545
-0.079357155 -0.10120001 -0.11592944 -0.14844881 -0.12729678 0.04154671 0.0182231 0.045661926
0.009267611 -0.050782107 0.041953266 0.111705445 0.12429591 0.09931902 0.06464431 0.08152574
0.17440315 0.08861643 0.14837801 -0.005681644 -0.05234915 0.07140928 0.022297163 -0.04198627
0.005636459 -0.044457793 -0.08434951 -0.08627306 -0.031096267 -0.021942804 -0.053638674 -0.06924685
0.012064593 0.009154474 0.04639628 0.032322146 -0.06688991 0.12284584 0.03478084 -0.051409118
0.030612033 0.15956679 0.17240964 0.07684347 -0.047211234 0.060607295 0.008537242 0.07387046
0.028725926 -0.12164233 0.101886295 0.019114256 0.022225011 -0.05082053 -0.2039551 -0.084399946
0.080691375 -0.113362774 -0.076882154 0.028315302 0.048899412 0.13965611 -0.12622927 -0.122544825
-0.018489331 -0.027147299 -0.07804049 -0.11239121 -0.107844405 0.047499113 0.062274054 -0.0495834
-0.016054606 -0.0032301268 0.18164262 0.18953186 0.007284761 0.008908934 -0.027306788 -0.15592918
-0.015540654 -0.05181871 -0.035640974 0.02440668 0.025431767 -0.011351443 0.039218813 -0.067842245
-0.003395609 -4.381485e-05 -0.0017658051 0.10931115 0.14185719 0.1260372 0.028145557 0.04858767
-0.049132667 0.07278734 0.07444372 -0.07312445 -0.09569219 -0.14139366 -0.0750766 -0.080764644
-0.07640684 0.13232706 -0.14889152 -0.040732104 -0.13630332 -0.054559533 0.024231082 -0.04464191
0.056861166 -0.14147857 -0.014001682 0.065477885 0.018498769 -0.10636016 -0.08362502 -0.043413505
0.15843108 -0.0076034674 -0.023629216 0.080683745 0.028530553 -0.18528567 -0.072812766 0.047019597
0.043502904 0.0021902248 -0.03615979 -0.0063461578 -0.072841614 0.08046818 0.040953837 -0.0843729

conv2.bias f4 [20]
00000000: 9560 353c 23f6 86bd 05ba 693d 44c4 af3c
00000010: 252d 0dbc f418 20bc d087 79bd 9ffd 243c
00000020: 4f09 7cbd f8c1 dcbc 2fdb a33d fc12 c0bd
00000030: 440f 51bd 3d71 653a 4095 063b 5c0d 87bd
00000040: 0cf6 99bb 9dc6 b1bd cd1b a5bc bce1 a53d
0.01107039 -0.065899156 0.057062168 0.021455891 -0.00861672 -0.009771574 -0.060920537 0.010070234
-0.061532315 -0.02694796 0.0800079 -0.09378621 -0.05103995 0.00087525306 0.0020535737 -0.06594345
-0.0046985205 -0.086804606 -0.020154858 0.08099696

fc1.weight f4 [50, 320]
00000000: 27eb 22be 1f14 20bd 8893 2bbd f7ec acbd
00000010: 8773 523d 80c0 04bd a136 3f3b 9879 80bd
00000020: 2e1e bb3b dad1 bb3c fa48 9c3d 4bf2 5d3d
00000030: 7d0e 873c 6f35 a9bd 9dd4 7e3d dbd3 443d
00000040: 303e 57bd 86ea 913d 742e 9dbc 5240 8bbd
00000050: a7aa 9f3c 999a 203d bbf7 c8ba b022 27be
00000060: 663e 35bd d983 aebd 7ce9 02bd 4dca 7ebc
00000070: d65b 83bd 4e70 4abd ee04 833d e681 143d
00000080: 05d7 b4bd 19ae 0cbd c7df 27bc b200 9fbd
00000090: b4d8 c1bd c835 453c 3267 343d 7433 213d
000000a0: db27 6abd 0adb 243d 3299 98bc 475b 69bd
000000b0: 384f 83bc ba1f 073c 8b82 193d d50b a3bd
000000c0: fe94 9c3c a5ae 56bd ca5e a3bb 43ff c73d
000000d0: 6606 6fbb 3767 3dbc 5a5a 25bc 9f4c 173d
000000e0: c040 67bd cd72 a5bd dac6 22bd 92a0 02be
000000f0: 1578 26bd 76ad a1bd 865e 81bd 4e8b 3dbe
00000100: c933 a4bd c495 9dbd 7a3e c7bd 056a 4fbd
00000110: 42a2 743d 532d a23b 82a1 8cbb 5159 1cbd
00000120: c209 a83d 4c57 1a3c 8220 ba39 bebe 4f3d
00000130: 1618 42bd 3845 ea3c eb5e 543c 21f4 6e3c
00000140: 877e 31bc 5e50 8738 00af 07bd bc8e 56be
00000150: 15bf 1a3d c1c9 ca3c befb a5bd b4f2 4bbd
00000160: 3c1e f1bc 5924 4fba 7ce6 033c 43d5 513d
00000170: c361 5ebc df06 a43c ad36 783d 2d4c f63c
00000180: b094 3b3d 1839 c23a 3207 583c c087 ae3d
00000190: 4d32 073d f329 51bd 1dc5 1dbd 3b5e 03bb
000001a0: 57e8 0dbd 2be5 8dbd e1db 07bc 3d5f 95bd
000001b0: 3995 8abd ae4e 83bd 9f57 a43d fdae 89bd
000001c0: f10d 3bbd b89f 9c3c 80de 623d 588e 8cbd
000001d0: d02a afbc 39d1 b63c dd79 02bd bb04 c0bc
000001e0: e45a 5a3d 8b1c a03b 55fb f3bd dee2 81bd
000001f0: aaa5 5e3d d671 dabb 8abc f8bb 160b efbc
00000200: bde2 a9bd 8c30 3abc 1349 243d e8fd 52bd
00000210: d3c9 42bd 8b14 b7bc d7e1 643d 030f aabc
00000220: ff56 81bb 8b31 9f3c 1bfd 44bd 9f66 a4bd
00000230: 6872 6ebc d0a6 663d 73e2 a73c 3dc9 03be
00000240: d12f 80bd 17d5 10be 7d25 b6bd 1568 9abd
00000250: 3e41 df3d 34b4 4c3c eac4 febc 9ebc 75bb
00000260: 6315 243d ad26 21bb c00f 47bc 4ee4 3e3c
00000270: 4a55 313c 97bb e93d c2d8 563d 67f1 7e3c
00000280: fa3e 1bbb 781e ffbc 2928 abbd 500b 31bd
00000290: 5075 8b3d 6a33 b6bd 59f8 b53d 535f cc3d
000002a0: 9820 68bd cee7 adbc 6177 07bc 28e8 e13d
000002b0: 728f f23c 6564 163d 1267 243d 1d11 5dbd
000002c0: 390f 5cbd 3aaf adbd 5240 afbd c3a9 93bd
000002d0: 4085 183d 720e 173c 0661 01bd 05ca 95bd
000002e0: 4cb9 7e3d 1d28 973c 5a17 a2bc 2fad 9ebc
000002f0: 0097 fd3c 8cde 5f3d 3845 373d d1c8 013d
00000300: e31e 0fbd ef55 053d 6d17 26bc b876 9d3d
00000310: 440c e9bc e7b0 5abc 9fad cf3a 5534 eb3b
00000320: e98e 24bb 4efe c9bd e48b 6f3d 692b 5f3c
00000330: f889 dcbb ad48 5abd bb64 3c3c ab73 3fbd
00000340: 6fe5 98bb 68e9 863d 7758 053e d36e 0d3d
00000350: af69 1dbd ed61 cf3b d58a bebc 5e28 71bd
00000360: f0b0 4fbe 03ff a43d c9e7 00bc d31f 38be
00000370: a619 e8bd 10f9 fa3c a60c 813c f9b8 87be
00000380: 53b6 ab3c e86c 99bd 3d1b 35be c850 e5bd
00000390: f9a8 5b3d 10a6 c1bd 0b45 0bbc 8438 193d
000003a0: ad63 bd3c cc16 6e3d bf1e aa3d 08bc 963c
000003b0: 7343 863d 886e 9db9 1da6 f83c fd17 22bc
000003c0: 02df 3ebb a5d8 5e3d 7f6f 1f3c 6847 72bd
000003d0: 94bb 083d 92de e3bc 669a 1cbc 7a57 c23d
000003e0: d70b 963d 8374 3fbc 4873 323d 213e 7a3c
000003f0: ba4a 973d 6d7a eebd 77a5 f9bd 5e70 00be
-0.15910016 -0.03908169 -0.041888744 -0.08443635 0.051379707 -0.032410145 0.0029176848 -0.06273192
0.005710385 0.022927213 0.07631107 0.054186147 0.0164864 -0.08262145 0.062214483 0.048053604
-0.05254954 0.0712481 -0.01918719 -0.067993775 0.019490553 0.039209936 -0.0015332618 -0.16321826
-0.04424896 -0.08521242 -0.03196095 -0.015551162 -0.06414001 -0.04942351 0.06397425 0.036256693
-0.08830074 -0.03434572 -0.010246224 -0.077638045 -0.09465161 0.012036748 0.044043727 0.03935571
-0.057166915 0.040247954 -0.018627737 -0.056971814 -0.016028985 0.00824731 0.03747801 -0.07961241
0.019114014 -0.052412648 -0.004985665 0.09765484 -0.003647232 -0.011560253 -0.010092342 0.036938306
-0.056458235 -0.08078537 -0.03974042 -0.12756565 -0.040641863 -0.07894413 -0.06316857 -0.18510172
-0.0801769 -0.07694581 -0.09728713 -0.050638217 0.059725054 0.0049492507 -0.004291714 -0.038171116
0.08204986 0.009420227 0.00035500905 0.050719015 -0.04738625 0.02859746 0.012962083 0.014584572
-0.010833389 6.452271e-05 -0.033125877 -0.20952886 0.037779886 0.024754407 -0.08104657 -0.049792007
-0.029433362 -0.00079018396 0.008050557 0.051228773 -0.013573113 0.020022808 0.060599018 0.03006562
0.045796096 0.0014818041 0.013185309 0.08521986 0.033006955 -0.051065397 -0.03851806 -0.002004518
-0.034645405 -0.06928476 -0.008292169 -0.07293556 -0.06766743 -0.06411491 0.08024525 -0.067228295
-0.045667592 0.019119129 0.055387974 -0.068630874 -0.02138272 0.022316562 -0.0318545 -0.023439756
0.053309336 0.004886215 -0.11913172 -0.063420996 0.05435721 -0.0066664023 -0.007590835 -0.02918009
-0.082952 -0.011364114 0.04010875 -0.051511675 -0.047555756 -0.022348663 0.05587944 -0.020759111
-0.0039471383 0.019432804 -0.048092943 -0.08027386 -0.014553644 0.05631143 0.020493722 -0.12869735
-0.0625912 -0.14143787 -0.08893869 -0.07539383 0.10901116 0.012494136 -0.031099755 -0.0037496458
0.04005946 -0.0024589703 -0.012149751 0.011651112 0.010823557 0.11412733 0.05245281 0.0155604845
-0.002368866 -0.031142458 -0.08357269 -0.04322368 0.06809485 -0.08896525 0.08885259 0.09979119
-0.05667171 -0.021228697 -0.008268208 0.110306084 0.029609416 0.036716837 0.040137358 -0.0539714
-0.053725455 -0.084806874 -0.0855719 -0.07210114 0.037236452 0.009219753 -0.03158667 -0.07313923
0.06218843 0.018451745 -0.019786526 -0.01936969 0.030955791 0.054655597 0.044743747 0.031685654
-0.034941565 0.032552656 -0.010137421 0.076886594 -0.028448232 -0.013347841 0.001584459 0.0071778693
-0.0025109595 -0.09862958 0.05848302 0.01362119 -0.0067303143 -0.053291965 0.011498625 -0.04674117
-0.0046660225 0.065874875 0.13022028 0.03452952 -0.038430866 0.0063288123 -0.02325956 -0.058876388
-0.2028234 0.08056452 -0.007867762 -0.1798089 -0.11333017 0.03063634 0.015753102 -0.2650831
0.020960962 -0.07491475 -0.17686172 -0.111970484 0.05362794 -0.09455502 -0.008500348 0.037407413
0.023118818 0.05812721 0.083066456 0.018400207 0.06555834 -0.00030027726 0.030352646 -0.009893415
-0.0029124622 0.054405827 0.009731173 -0.05915013 0.033382013 -0.02781609 -0.009558296 0.09489341
0.07326477 -0.011685493 0.043566972 0.015273602 0.073873 -0.116444446 -0.12189763 -0.12542865

fc1.bias f4 [50]
00000000: e8f5 d23d 05cb da3d 6287 a83d 81f3 cf3d
00000010: 4640 b13d 388f 8c3d a1bb d43b 1d11 b13c
00000020: 3a16 653d ee52 893d d103 a13d 1ff6 1a3e
00000030: ae48 f53c a21c 593d 1313 523d 1891 9b3c
00000040: 0a41 d83d 6ba0 f93d b5bd cd3d 93ea 623d
00000050: b417 ec3c 7086 733d 02f6 b93c c18b ba3d
00000060: 60c4 ca3d f54e 003d 3a20 6e3d b950 cd3d
00000070: 09b3 473d d064 823d 3529 293d d17e 833d
00000080: 8d0a cb3d 0e78 34bb 0562 523d 8706 103e
00000090: ff3e 993d 8def dcbc caa4 d33d 1ae9 483d
000000a0: df4b 673d 9f80 a83d 395b a33d a824 b73a
000000b0: b84a a63d b120 a53d ddf1 c23c e041 653d
000000c0: e1f0 5c3d 3a73 863d
0.10300809 0.10683254 0.08228947 0.101538666 0.08654837 0.06863254 0.0064920937 0.021614606
0.0559294 0.06705271 0.07862056 0.1513295 0.029941883 0.053005822 0.05128772 0.018990085
0.1055928 0.121888004 0.10045949 0.05539949 0.028819896 0.05945438 0.022700313 0.09108687
0.09900737 0.0313253 0.058136202 0.10025162 0.048754726 0.06366885 0.041299064 0.06420673
0.09914122 -0.0027537378 0.05136301 0.1406499 0.07482719 -0.026969695 0.103341654 0.049050428
0.05646884 0.082276575 0.07976384 0.0013972716 0.0811972 0.08062876 0.02379697 0.055971026
0.053940658 0.065649465

fc2.weight f4 [10, 50]
00000000: b95f a03e f3dd 38be 9a78 0b3e e34e a23e
00000010: 3aac 92be da47 d8bb 0a53 4fbe e9bd 2fbe
00000020: 7488 37be 7d74 9dbe eda9 6dbe 847b 3bbe
00000030: 8e32 3fbe f679 5c3e e943 ab3e 1841 643e
00000040: 69d7 0ebe 584d ac3e 767e 803e bacd bcbd
00000050: a415 31be af3f 35be 539c fbbd 0bc9 adbe
00000060: c440 4dbe f9ef 99be 6c8a a3be 5231 8bbe
00000070: 2586 fabd 6966 8d3e 4a68 b4bd a244 66be
00000080: 0b5e 813e 040d 6a3e 4e37 5dbe 2a2a 933e
00000090: 9a27 9dbb dd59 f93d 5cb7 443e 52f7 3abe
000000a0: 6036 71be bb3d 0cbe c24e 93bc aca6 55be
000000b0: 723b 3ebe a693 9d3e 01f6 0ebe 84d8 62be
000000c0: dcb1 c2bd 449d 643c e332 04bd f7bb 183e
000000d0: c3b4 4cbe 80a2 7e3e 8318 823e 5353 713e
000000e0: 1f19 82be dc83 113e 03f4 9fbd 52a8 5fbe
000000f0: a6d5 813e 371e ab3e dfff 22be ed0b 98be
00000100: 4307 f1bd 0b51 96be 2c40 7d3e 9173 65be
00000110: 6e35 80be c1d5 2d3e fefd 82be 485b 1ebd
00000120: 1301 2a3e 9687 5c3e 7df0 623e 5d83 65be
00000130: 6b7f a2be 6e72 a33e f85e 5b3e 7ef9 05be
00000140: 5337 5e3e 49eb 51be bd1b 20be 8e6d 95be
00000150: 1583 4c3e 3948 513c fa5f 1abe e73a 90be
00000160: e031 133e e773 a83e 1a0d 9abd af5e 1fbd
00000170: 985c 75be 90c7 4abe f803 693e f340 00be
00000180: 3aa5 7cbe e643 923e b73f c2be a2ab f6bd
00000190: 9e8d 12be e2b2 00be 9a23 ccbd 33c2 653e
000001a0: 8dd5 1fbe 0877 553e fd4f 483e 35e5 233e
000001b0: b45a 6d3e 38a4 0b3e 2ef7 47be 3bb6 a63e
000001c0: 0457 8a3e 1211 1b3e 6798 843e f31b 1c3e
000001d0: 7069 31be dbc2 58be 73e4 5dbe 6b5c 89be
000001e0: a798 2cbe 044d 8d3e 79d9 4dbe bc97 d8bd
000001f0: 03bd b4bd 990a 31be 9bfa 7ebe 815b 99bd
00000200: 2f65 89be 17b7 d8bd db57 25be 2f4f 86bd
00000210: 371e 323e a386 6abe 04e8 743e b46e 4b3e
00000220: 0d16 94bd ba60 db3c c918 fe3d 7b26 863e
00000230: 103f 7a3e b114 833e b03d 8dbd 222e a3bd
00000240: 8cf2 5e3e 1620 543e 7e62 0bbe dca4 873e
00000250: 50b9 50be 4010 923e 48f9 00be 9b2d 603e
00000260: f952 453e 5d44 71be 202d e7bd 27c5 67be
00000270: b5db 033e ecaf 3d3e 82f2 6e3d 4247 103e
00000280: ae7e 47be 9c79 8c3e 7f23 4fbd 636c f0bd
00000290: 22b3 bb3b 1ea4 16be be01 7dbe 72a5 cb3d
000002a0: a1e7 85bd bdf1 303e c5a7 833e 184b 9f3e
000002b0: dc9f 243e 13cf 17be 9527 6abe ed59 10be
000002c0: 5767 293e f690 d0bd af4e 883e 9dc6 e3bd
000002d0: 1732 a2be 7e69 9b3e 6656 4bbe 72b0 723e
000002e0: a928 453e 1f4b 48bd 1f85 a23e 0d6d b5bd
000002f0: 46da 49be 8176 57be a55d 6a3e eb11 853e
00000300: 763c 90be 431f 073e a61c 733e 8a4b 43bd
00000310: c55f 01be d00f 063c c527 5cbd 2d5b 8b3e
00000320: 611f aebd a733 5a3e 77a3 75be f863 99bd
00000330: 6675 9d3e 02ba 523e 744e 423e 4d0d 8bbe
00000340: 77e8 53be 156e 54be 3ee8 793e 419e d0bc
00000350: 0147 903e 327b 59be 54c9 f23d da55 5a3e
00000360: 0b82 413e 6d7f 58be c149 11be 3e6a 8bbe
00000370: 7ef5 06be ae6a f7bd 3122 6b3e e1fd 8d3e
00000380: d2f5 4f3e df74 9d3e b808 413e 47b7 023d
00000390: 5d1b 63bd cf07 6cbe 921d 333e 62bf 933e
000003a0: 631f 27be ed38 79be 1a85 7fbe 2e02 8dbe
000003b0: 45b2 7abe b024 c13e 996e 343e 5dd8 97bd
000003c0: 22f6 babd d06c 1bbe ec17 8c3e 8f89 a93d
000003d0: e27c 5cbe 945b 64bc fb35 12be 48f1 b8bd
000003e0: b0ef 933e 1341 47be 6fd6 65bd 7cb4 95bd
000003f0: d3e1 2f3e 7153 81be 8b83 f4bd 78f5 42be
0.3132303 -0.18053417 0.13620225 0.3170081 -0.28647023 -0.0066003622 -0.2024652 -0.17162289
-0.17923146 -0.30752936 -0.23209353 -0.18308836 -0.18671629 0.215309 0.3345025 0.22290456
-0.1394936 0.3365276 0.25096482 -0.09218927 -0.17293411 -0.17700075 -0.12285676 -0.33942446
-0.20044237 -0.30065897 -0.31941545 -0.27186066 -0.12232617 0.27617195 -0.08808954 -0.22487119
0.25267062 0.22856528 -0.21603128 0.28743106 -0.0047959806 0.12175343 0.19210571 -0.18258408
-0.23555899 -0.13695423 -0.01798189 -0.20864362 -0.18577364 0.3077671 -0.1396103 -0.22152907
-0.0950658 0.013953511 -0.03227509 0.14915453 -0.1999083 0.24866676 0.25409326 0.23566942
-0.2540979 0.14210457 -0.078102134 -0.21841553 0.25358313 0.3342149 -0.1591792 -0.296966
-0.11768963 -0.29358706 0.24731511 -0.22407366 -0.25040764 0.16976072 -0.25584406 -0.03866127
0.16601972 0.21536097 0.22162051 -0.22413392 -0.31737837 0.3192324 0.21422946 -0.13083455
0.21700792 -0.2049991 -0.15635581 -0.29185146 0.19971879 0.012773567 -0.15075675 -0.2816994
0.14374495 0.32900926 -0.0752203 -0.038908657 -0.23961103 -0.1980269 0.2275542 -0.12524776
-0.24672404 0.28567427 -0.37939236 -0.12044455 -0.14311835 -0.12568238 -0.09967728 0.22437362
-0.15608807 0.20846188 0.19561763 0.16005404 0.23179132 0.13636863 -0.19527885 0.32560906
0.27019513 0.1514323 0.25897524 0.15245037 -0.17325377 -0.21168081 -0.21669178 -0.26828322
-0.16855107 0.2759782 -0.2010249 -0.10575816 -0.088251136 -0.17289199 -0.24900286 -0.07488156
-0.2683501 -0.105817966 -0.16146795 -0.06558072 0.17394339 -0.22902922 0.23916632 0.19866449
-0.07230768 0.026779521 0.12407071 0.26201233 0.24438119 0.25601724 -0.068965316 -0.079677835
0.21772212 0.20715365 -0.1361179 0.26492965 -0.20383191 0.28528023 -0.12595093 0.21892397
0.19269933 -0.23561235 -0.11287904 -0.22633801 0.1287678 0.1852414 0.058336742 0.14089683
-0.19481918 0.2743653 -0.05057096 -0.11739423 0.0057281414 -0.14711043 -0.24707696 0.099436656
-0.0653832 0.17279716 0.25713935 0.3111198 0.16076607 -0.14825086 -0.22866662 -0.14096804
0.16543327 -0.10183899 0.2662253 -0.11121867 -0.3167884 0.30353922 -0.19857177 0.23700121
0.19253792 -0.048899766 0.31742188 -0.088586904 -0.19712171 -0.210413 0.22887285 0.25990233
-0.28171128 0.13195519 0.23741397 -0.04767946 -0.1263419 0.008182481 -0.053748865 0.27218
-0.08502079 0.21308766 -0.23988138 -0.07489771 0.3075363 0.20578769 0.1897524 -0.27158585
-0.20694147 -0.20745118 0.24405 -0.025466086 0.28179172 -0.21238402 0.118548065 0.21321812
0.18897264 -0.21142359 -0.14188291 -0.27229494 -0.13179585 -0.120808944 0.22962262 0.27732757
0.20308617 0.30753228 0.18850982 0.03191307 -0.055446018 -0.23049854 0.17491749 0.2885695
-0.16320567 -0.24338122 -0.24953118 -0.27540725 -0.24482067 0.37723303 0.17620315 -0.07414315
-0.09128977 -0.15178227 0.27362 0.0827819 -0.21532014 -0.01393785 -0.14278404 -0.09030396
0.28893805 -0.19458418 -0.056112703 -0.07309815 0.17175989 -0.25258973 -0.11939152 -0.19038951

fc2.bias f4 [10]
00000000: e858 0b3f ba04 a63e b628 58be 008e adbe
00000010: ac59 98bd bd50 173e 0172 fdbe 3aba 29bc
00000020: 08c1 ff3d c69f 9ebe
0.54432535 0.3242548 -0.2110928 -0.338974 -0.074389786 0.14776893 -0.4950104 -0.010359341
0.1248799 -0.30981272
