results/mnist_model.pth (torch, 90416 bytes, 8 tensors)

conv1.weight f4 [10, 1, 5, 5]
0	0x3dd1c76e	0.10243116
1	0xbe2ab13d	-0.16669174
2	0xbe68c094	-0.22729713
3	0xbe193ca2	-0.14964536
4	0xbea23a00	-0.31684875
5	0x3e47aee2	0.19500306
6	0x3c3f305e	0.0116692465
7	0x3d59b3d2	0.053150006
8	0xbc8b2ec8	-0.01699008
9	0xbd80f64b	-0.06296977
10	0x3e2d0ba0	0.16898966
11	0x3e5d5781	0.21615411
12	0x3e905b34	0.28194582
13	0x3dfed1f7	0.12442391
14	0x3d9ef346	0.077612445
15	0xbbbcc6cc	-0.005761003
16	0x3e0fee17	0.14055668
17	0x3e1303cf	0.14356922
18	0x3e9a6ee7	0.30162737
19	0x3e3dd271	0.18537308
20	0xbe3ea63f	-0.18618105
21	0xbe6932cb	-0.22773282
22	0xbe36629c	-0.17811054
23	0xbe3b8e90	-0.18316102
24	0xbd590ce8	-0.052990824
25	0x3dfa6dad	0.1222795
26	0x3ea0484b	0.31305155
27	0x3dabd002	0.08389284
28	0xbed063f9	-0.40701273
29	0xbdf67824	-0.12034634
30	0x3e533570	0.20625854
31	0x3ec06199	0.3757446
32	0x3d76ddbd	0.06027006
33	0xbecb8cff	-0.3975601
34	0xbebb484d	-0.365786
35	0x3dd9393f	0.10606622
36	0x3ec8083d	0.39068785
37	0xbe03da30	-0.128762
38	0xbe1428ae	-0.14468643
39	0xbe824f93	-0.25451335
40	0x3eb775ec	0.35832155
41	0x3dc71926	0.097215936
42	0x3dfa30d3	0.12216344
43	0xbdf18d32	-0.11794509
44	0xbe3e33eb	-0.18574493
45	0x3e6bc71a	0.2302517
46	0x3d9a1a68	0.07524568
47	0x3e09018e	0.133795
48	0xbd8813a1	-0.06644369
49	0xbd3d855a	-0.046269752
50	0xbeb53478	-0.35391593
51	0xbe4da5a1	-0.20082714
52	0x3df1189c	0.11772272
53	0x3dce97b7	0.10087531
54	0x3eaffc9e	0.3437242
55	0xbce8ed82	-0.028433565
56	0xbd6c91f3	-0.057756376
57	0x3d81f657	0.06345814
58	0x3eb64af0	0.35604048
59	0x3e192c44	0.14958292
60	0xbe3c404d	-0.18383904
61	0x3e592069	0.2120377
62	0x3ec60366	0.38674468
63	0x3ebe8511	0.37210897
64	0xbe2e0df3	-0.16997509
65	0x3cc6070e	0.024173286
66	0x3e070eb2	0.131892
67	0x3e530900	0.20608902
68	0xbdffc0e3	-0.12487962
69	0xbe8d36ea	-0.2758096
70	0x3e1876d9	0.14889087
71	0x3be4ea5d	0.006985946
72	0x3da0a12a	0.078432396
73	0xbde86fbf	-0.11349439
74	0xbdf44ab9	-0.11928315
75	0x3e17a01d	0.14807172
76	0x3e842ac7	0.25813887
77	0x3e95911e	0.29212278
78	0xbca34fc2	-0.019935492
79	0x3e5c1d38	0.21495521
80	0xbe1ca2b9	-0.15296449
81	0xbd9cd6fa	-0.07658191
82	0x3ded8a62	0.1159866
83	0x3daf2276	0.08551495
84	0x3e729d09	0.23692717
85	0xbe259315	-0.16169389
86	0xbe4a2441	-0.19740392
87	0x3db8da0d	0.09025965
88	0xbd18871c	-0.037238225
89	0x3e2064a1	0.15663387
90	0x3cdb202f	0.026748745
91	0xbe71296f	-0.23550962
92	0xbe031d4e	-0.12804148
93	0xbd764a66	-0.060129546
94	0xbe4bf322	-0.19916967
95	0xbdb49069	-0.088166066
96	0x3c8a96f2	0.01691768
97	0xbddd3588	-0.10801226
98	0xbe54abae	-0.20768616
99	0xbe23bfd0	-0.1599114
100	0x3e952321	0.29128364
101	0x3d373a7f	0.04473352
102	0x3e2f7f56	0.17138419
103	0x3d98654a	0.07441194
104	0xbe5e6f8e	-0.21722242
105	0xbddfc047	-0.10925346
106	0x3eb5d7dc	0.3551625
107	0x3e0753c7	0.13215552
108	0x3dc950fd	0.098299004
109	0xbd46d0f8	-0.048539132
110	0x3e090343	0.1338015
111	0x3edfa396	0.43679494
112	0x3eb776b2	0.35832745
113	0xbdfc6746	-0.12324385
114	0x3d1dd62d	0.038534332
115	0x3e37f4d7	0.17964493
116	0x3eb3b57c	0.350994
117	0x3e964593	0.29349956
118	0x3c9467c1	0.01811588
119	0x3d04d020	0.032425046
120	0xbe5c88b2	-0.2153652
121	0x3d522e25	0.051313538
122	0x3e96e811	0.29473928
123	0x3d33141e	0.043720357
124	0x3ea8acae	0.32944244
125	0xbe131308	-0.14362729
126	0xbe816824	-0.25274765
127	0xbdb2e58c	-0.08735189
128	0x3e779370	0.24177337
129	0x3ebd2fda	0.3695057
130	0xbdad7b5a	-0.08470793
131	0x3dda4c10	0.10659039
132	0x3e907de2	0.2822104
133	0x3eba734c	0.3641609
134	0x3e70e9c3	0.23526673
135	0x3e79487a	0.24344054
136	0x3e467fda	0.19384709
137	0x3de356b6	0.11100523
138	0xbc811aa6	-0.015759777
139	0xbe2ee15e	-0.17078158
140	0xbd14b3e1	-0.03630436
141	0xbca0a9e5	-0.019612262
142	0xbe071a49	-0.1319362
143	0x3e07680b	0.13223283
144	0x3dcc2e17	0.099697284
145	0xbd957795	-0.07298199
146	0xbbed7f0e	-0.007247812
147	0x3c593a0b	0.013258467
148	0x3e26f542	0.16304496
149	0x3e512984	0.20425993
150	0xbde19301	-0.11014367
151	0x3e10b7fe	0.14132687
152	0xbd7cb36e	-0.061694555
153	0xbd243813	-0.04009254
154	0xbe70e3cf	-0.23524402
155	0xbe528cfe	-0.20561597
156	0xbe4b9c47	-0.19883834
157	0xbe0266e9	-0.1273457
158	0x3e006ad8	0.12540758
159	0xbdbe428d	-0.09290037
160	0xbe4afb06	-0.1982232
161	0x3d6f2e94	0.05839403
162	0x3db47beb	0.08812698
163	0x3e0dbffa	0.13842764
164	0xbe06bc2a	-0.13157716
165	0x3d8381fb	0.06421276
166	0xbd16b609	-0.036794696
167	0x3a949a53	0.0011337496
168	0xbe1659d8	-0.1468271
169	0xbd83dbeb	-0.064384304
170	0x3c2adec2	0.010429086
171	0x3e167638	0.14693534
172	0x3dda5042	0.10659839
173	0x3e112cf9	0.14177312
174	0x3ea31ddd	0.3185872
175	0x3db5645d	0.088570334
176	0x3d9515b3	0.072795294
177	0xbc2ab2e5	-0.010418628
178	0xbe5ad6b7	-0.2137097
179	0x3df12646	0.11774878
180	0xbe2e0f7e	-0.16998097
181	0xbe257743	-0.16158776
182	0xbeac49f3	-0.3365017
183	0xbe9359c8	-0.28779435
184	0xbeaaf32e	-0.33388656
185	0x3e373758	0.17892206
186	0xbe3b1d89	-0.18272986
187	0xbe69d834	-0.22836381
188	0xbe25572c	-0.16146535
189	0xbe5d3518	-0.21602285
190	0x3e76701d	0.24066205
191	0x3e2380ad	0.15967055
192	0x3df68391	0.12036813
193	0x3e03f57e	0.12886617
194	0x3e876219	0.2644203
195	0x3c81f6eb	0.01586481
196	0x3ec71be8	0.38888478
197	0x3ef65ed4	0.48119223
198	0x3ee5bdd6	0.44871396
199	0x3d722eee	0.059126787
200	0x3d95cb01	0.073141105
201	0xbde6bcf3	-0.11266508
202	0x3e701648	0.23446
203	0x3c919f91	0.017776283
204	0x3e430c0d	0.19047566
205	0x3b58444f	0.00329997
206	0xbc12e95e	-0.008966772
207	0x3d52ac86	0.051434062
208	0x3e42d34d	0.19025917
209	0x3e7c8661	0.24660636
210	0xbb0d3ba3	-0.0021550439
211	0x3c9b1f11	0.018935712
212	0xbe417d9d	-0.18895574
213	0x3e71d117	0.23614918
214	0x3eaf2fa3	0.3421603
215	0x3dadd188	0.084872305
216	0x3d2ce5bf	0.04221129
217	0xbe7b07e0	-0.24514723
218	0xbdcea477	-0.10089963
219	0x3e8ce3f8	0.27517676
220	0xbeaa09bb	-0.3321055
221	0xbcd1129d	-0.02552157
222	0xbeb60f53	-0.35558566
223	0xbe9c016b	-0.30469832
224	0x3d53c541	0.051701788
225	0xbd1e6e33	-0.038679313
226	0x3db36266	0.087590024
227	0x3eb503b3	0.35354385
228	0x3ec2ed46	0.3807165
229	0x3ec1ce9f	0.37852952
230	0xbcf0085b	-0.02930086
231	0xbe073971	-0.13205506
232	0x3ea76300	0.32692719
233	0x3e0e14dd	0.13875146
234	0x3ddb3b22	0.10704638
235	0xbd3786e0	-0.04480636
236	0xbe5ea064	-0.21740872
237	0x3ded3033	0.11581459
238	0x3e3771b7	0.17914473
239	0xbd8a3a9b	-0.06749459
240	0xbe92c442	-0.28665358
241	0xbe1b9dd6	-0.15196928
242	0xbd304296	-0.04303225
243	0xbd6f8827	-0.058479454
244	0xbe01940a	-0.12654129
245	0xbe0b0e10	-0.13579583
246	0xbeb93440	-0.36172676
247	0xbe9afd1d	-0.30271235
248	0xbe71a690	-0.23598695
249	0x3d7d8b14	0.061900213

conv1.bias f4 [10]
0	0x3df65923	0.1202872
1	0xbd86344b	-0.06552943
2	0x3ca737ac	0.020412289
3	0x3deead50	0.116541505
4	0x3e4d83d2	0.20069817
5	0x3c922ecf	0.017844586
6	0x3e0b60e6	0.13611183
7	0x3e15cc5f	0.14628743
8	0x3d3aa07f	0.045563217
9	0x3d1a8ce3	0.037732016

conv2.weight f4 [20, 10, 5, 5]
0	0x3d4e8b51	0.05042583
1	0x3c975559	0.018473314
2	0xbdd3d1d3	-0.10342755
3	0x3cd8b212	0.026452098
4	0x3d182ed5	0.037154038
5	0xbd6d0a06	-0.057870887
6	0xbbb889ef	-0.0056316773
7	0xbe071d63	-0.13194804
8	0x3c0a92e2	0.008457871
9	0xbccb9df7	-0.024855597
10	0x3c3592a7	0.011082328
11	0xbccae524	-0.024767466
12	0xbd31ddf4	-0.04342456
13	0x3d20f2f6	0.039294206
14	0x3b9d38a3	0.0047980114
15	0xbd9737a0	-0.073836565
16	0xbd95348c	-0.07285413
17	0x3c7f1def	0.015571102
18	0x3c80a32b	0.015702805
19	0x3d1969d9	0.03745446
20	0xbd861564	-0.06547049
21	0xbb965a23	-0.004588382
22	0x3d8023d4	0.06256834
23	0x3d1a418d	0.03766017
24	0xbcc43220	-0.023949683
25	0xbd185699	-0.03719196
26	0xbdeed37a	-0.1166143
27	0xbc9d172d	-0.01917609
28	0xbc90fb19	-0.017697858
29	0x3cb06b09	0.021535413
30	0xbd360ea1	-0.044447545
31	0xbdfeac0a	-0.124351576
32	0x3ba4f384	0.005033912
33	0x3d18301b	0.037155252
34	0x3be20da4	0.0068985987
35	0xbdaf770d	-0.08567629
36	0xbd5b7dfa	-0.053586937
37	0x3d8e7851	0.06956542
38	0x3d132820	0.035926938
39	0xbc6e5bc3	-0.014548245
40	0xbd40fb1e	-0.047114484
41	0x3cec88d0	0.028873831
42	0x3ddbfe36	0.10741846
43	0x3d0b5ca1	0.034023885
44	0x3be11e98	0.006870102
45	0xbcaca803	-0.021076208
46	0x3d301872	0.042992063
47	0x3df2f80b	0.11863717
48	0x3c483c34	0.012221385
49	0x3d447205	0.0479603
50	0x3cbfc9f5	0.02341173
51	0xbd0fe664	-0.035131827
52	0xbccc873c	-0.024966829
53	0x3cacb16b	0.021080693
54	0x3dd48218	0.10376376
55	0xbda2fe47	-0.07958656
56	0x3c22da71	0.009939776
57	0x3de75c31	0.11296881
58	0x3e077fc2	0.1323233
59	0x3d816058	0.06317204
60	0xbc151961	-0.009100289
61	0x3d34e7fb	0.044166546
62	0x3d7a415a	0.06109748
63	0x3ae98742	0.0017816799
64	0x3d02d873	0.031944703
65	0xbd362ac5	-0.044474382
66	0xbd0d38b8	-0.03447792
67	0xbca111d8	-0.019661829
68	0xbd7e3f2c	-0.062071964
69	0xbd92dd74	-0.07171145
70	0x3ce2a375	0.027665833
71	0xbd648093	-0.05578668
72	0xbd60fd2f	-0.054928955
73	0xbd9203be	-0.0712962
74	0xbd76af6d	-0.060225893
75	0x3c046572	0.008080827
76	0xbd59c4e3	-0.05316628
77	0xbd472857	-0.048622455
78	0xbb89031e	-0.00418128
79	0xbc1d7b10	-0.00961186
80	0xbd3d2a35	-0.04618283
81	0xbda28e14	-0.079372555
82	0xbdc16c6e	-0.094445094
83	0x3c3e26e1	0.011605949
84	0xbcb1d743	-0.02170909
85	0xbd050a8c	-0.03248076
86	0xbd5afe59	-0.05346522
87	0xbdb363c1	-0.08759261
88	0xbdd0ba4b	-0.101917826
89	0xbd64a215	-0.055818636
90	0x3d7658ed	0.0601434
91	0x3c9605bd	0.018313283
92	0xbd0239e7	-0.0317935
93	0xbcfc4436	-0.030794244
94	0x3d5667da	0.052345134
95	0x3c92a340	0.01790011
96	0x3d77e3bf	0.06051993
97	0x3d448295	0.047976095
98	0x3d81c1fa	0.06335826
99	0x3c702514	0.014657278
100	0xb9b77999	-0.00034995077
101	0xbdbeeb62	-0.093222395
102	0xbc1fd6d1	-0.009755806
103	0xbabf4ab0	-0.0014594402
104	0x3dd40048	0.10351616
105	0xbd5e4024	-0.054260388
106	0xbe01bc0a	-0.12669387
107	0xbce5502c	-0.02799233
108	0x3daba4c8	0.08381039
109	0x3ce584f5	0.0280175
110	0xbdec9125	-0.115511216
111	0x3d3288fb	0.043587666
112	0x3da9664e	0.08271466
113	0x3d0369d4	0.032083347
114	0x3c8fe5aa	0.017565567
115	0xbda5ff42	-0.08105327
116	0x3c37edf5	0.011226167
117	0x3e257e34	0.16161424
118	0x3d6c6f7f	0.05772352
119	0xbc869371	-0.016427727
120	0xbba48bec	-0.005021563
121	0xbda234bb	-0.07920214
122	0xbbc4515e	-0.005991145
123	0xbd160d73	-0.03663392
124	0xbdc12921	-0.09431673
125	0x3d6fb246	0.058519624
126	0x3d19f2f4	0.037585214
127	0x3ce3a3bc	0.027788036
128	0x3c55fff4	0.013061512
129	0xbc0b0e88	-0.008487351
130	0xbca3e961	-0.020008745
131	0x3d736249	0.059419904
132	0x3d7715a3	0.06032337
133	0x3d82ec9f	0.06392788
134	0x3dbec4d3	0.09314885
135	0x3d0a8000	0.033813477
136	0x3e0778ab	0.13229625
137	0x3de0bb83	0.10973265
138	0x3dbfff11	0.09374822
139	0x3ba0a37a	0.0049023004
140	0xbd3995cf	-0.045308884
141	0x3dacbdde	0.08434652
142	0x3d34600a	0.044036902
143	0xbc9482b4	-0.01812873
144	0xbd5a49b8	-0.05329296
145	0xbd87bf18	-0.06628245
146	0xbd35ecdf	-0.04441535
147	0xbdab2e09	-0.0835839
148	0x3b911076	0.004427011
149	0xbda66d14	-0.08126274
150	0xbcb6349e	-0.022241887
151	0xbaa3618e	-0.0012464987
152	0x3cc3c2d2	0.023896609
153	0xbcf25eb4	-0.029586174
154	0x3d2726d4	0.040808514
155	0x3d01bb95	0.031673033
156	0xbd825769	-0.063643284
157	0x3d823f05	0.06359676
158	0xbcccac9b	-0.024984648
159	0xbcf53213	-0.029931104
160	0xbd6c3590	-0.05766827
161	0x3d685ac3	0.056727182
162	0x3cefbbf7	0.029264433
163	0x3d3ba4e7	0.04581156
164	0xbc9d06f8	-0.019168362
165	0x3c0290ab	0.007969062
166	0xbcf85f43	-0.030318862
167	0xbd1e1cb5	-0.038601596
168	0xbbcc1036	-0.0062275184
169	0xbd1ebaef	-0.038752493
170	0x3cacf2ca	0.021111865
171	0xbc6843c8	-0.014176317
172	0x3c9db353	0.019250548
173	0x3c938188	0.018006101
174	0xbcbc4876	-0.02298377
175	0xbd74c844	-0.0597613
176	0x3ca36021	0.019943299
177	0xbd8e3dbb	-0.06945368
178	0xbc8462f9	-0.016160475
179	0x3d64ce27	0.055860665
180	0xbd18fab1	-0.037348453
181	0x3d55c603	0.05219079
182	0xbe0d2cee	-0.1378667
183	0xbd191776	-0.03737589
184	0x3ccaeffb	0.024772635
185	0xbd0ca3d4	-0.034335926
186	0xbdc0f49f	-0.09421658
187	0xbd4049d8	-0.046945423
188	0xbd2de2fa	-0.04245279
189	0xbcc3e559	-0.023913072
190	0xbce64390	-0.028108388
191	0xbd8f536a	-0.06998332
192	0x3cd6c941	0.026219012
193	0x3d5aa1bf	0.05337691
194	0x3dc77e10	0.097408414
195	0x3db8e9f8	0.09029001
196	0xbd0664bf	-0.032810923
197	0xbbbc332c	-0.005743405
198	0x3d8e589d	0.069504954
199	0xbd4b30d2	-0.049607106
200	0x3c47fac8	0.012205787
201	0xbd4de2f6	-0.050265275
202	0x3c68ec9f	0.014216571
203	0x3c1e251d	0.009652403
204	0xbcd8805c	-0.026428394
205	0xbc8fc93b	-0.017552009
206	0xbd985439	-0.07437939
207	0xbd939f9f	-0.0720818
208	0xbb0db414	-0.0021622228
209	0xbd1a0cbe	-0.03760981
210	0x3b2edd83	0.0026682324
211	0x391f8aa8	0.00015215075
212	0x3d51226b	0.051058214
213	0x3d4526bb	0.04813264
214	0x3d350ad5	0.044199783
215	0x3d69e08f	0.05709892
216	0xbcf12f9c	-0.029441647
217	0x3d6126e1	0.05496872
218	0x3cf739da	0.030178953
219	0xbd3b9c6b	-0.04580347
220	0xbd3dca08	-0.04633525
221	0xbd678aa6	-0.05652871
222	0x3cd4357d	0.025904411
223	0xbb05730c	-0.0020362763
224	0x3a67cb3b	0.00088422344
225	0x3d5b3306	0.053515457
226	0xbd43374a	-0.04766015
227	0x3cee93a3	0.029123133
228	0xbca2cef2	-0.01987407
229	0xbbaf06ce	-0.0053413874
230	0x3c6b7a3c	0.014372405
231	0xbdbb7a7c	-0.091542214
232	0xbcb0fdff	-0.02160549
233	0xbded81f8	-0.11597055
234	0xbc46caca	-0.01213331
235	0x3cacbfba	0.021087516
236	0x3d26eb5d	0.040751804
237	0xbd47a6b6	-0.048742972
238	0xbdb9d5e1	-0.09073997
239	0xbba1070c	-0.00491417
240	0xbd0b6e34	-0.034040645
241	0xbcf3daa2	-0.029767338
242	0xbd328cfd	-0.04359149
243	0x3bf6a4d9	0.0075269756
244	0x3c4375e9	0.011929967
245	0xbdf4983c	-0.11943099
246	0xbd834d16	-0.06411187
247	0xbcccba28	-0.02499111
248	0x3dd94232	0.10608329
249	0xbc1b5ad9	-0.009482109
250	0xbd627d55	-0.055295307
251	0xbab12fcf	-0.0013518276
252	0xbda7466d	-0.081677295
253	0x3cc96bc1	0.024587514
254	0x3d30012f	0.04296988
255	0xbda96c93	-0.08272662

conv2.bias f4 [20]
0	0x3cad1163	0.021126455
1	0xbced0e06	-0.028937351
2	0x3d63c37a	0.055606343
3	0xbcf05869	-0.029339032
4	0xbc517c52	-0.012785988
5	0xbcab806c	-0.02093526
6	0xbd4dd19a	-0.05024872
7	0xbc466d4b	-0.012111018
8	0xbd5b9900	-0.05361271
9	0xbcc5e732	-0.024158094
10	0x3bb4daf9	0.0055192676
11	0xbd88a677	-0.06672376
12	0xbd71472e	-0.058905773
13	0x3d4e44ce	0.050358586
14	0xbd1b562f	-0.037923988
15	0xbd9a3c54	-0.07531038
16	0xbc647372	-0.01394354
17	0xbd9a2634	-0.07526818
18	0xbd50a55f	-0.05093896
19	0x3c90fdbd	0.017699117

fc1.weight f4 [50, 320]
0	0xbd9f30f8	-0.07773012
1	0xbcbccc5f	-0.02304667
2	0xbc2d7d15	-0.010588904
3	0xbd6d7e3e	-0.057981722
4	0x3d9631b9	0.073337026
5	0xbb09fbf2	-0.0021054712
6	0x3c8f0c6f	0.017461983
7	0xbcc5e2a1	-0.024155917
8	0xbb52491d	-0.0032087036
9	0x3d1e3962	0.038628943
10	0x3d05f0ba	0.032700278
11	0x3d59e31e	0.05319511
12	0x3cd8a7c3	0.026447183
13	0xbd4d2a08	-0.050088912
14	0x3c7894bd	0.015172181
15	0x3d3d6375	0.046237428
16	0xbd85e94f	-0.06538641
17	0xbcb116f6	-0.021617394
18	0xbd3a4254	-0.04547341
19	0x3cbcd799	0.023052024
20	0x3d1812c6	0.03712728
21	0x3b7ec9b0	0.003887754
22	0x3d0c8438	0.03430578
23	0xbd668973	-0.056283426
24	0x3c7000c6	0.014648622
25	0xbd45a0f6	-0.048249207
26	0x3ce50817	0.02795796
27	0xbc233836	-0.009962132
28	0xbc5ceb85	-0.013483887
29	0xbd820d94	-0.06350246
30	0x3ce4d680	0.027934313
31	0x3d000797	0.03125724
32	0xbd07f988	-0.033196956
33	0x3c8a4b59	0.016881632
34	0xbc4a0aaa	-0.012331644
35	0xbd5ac019	-0.053405855
36	0xbca53cb4	-0.020170547
37	0x3be42842	0.006962807
38	0x3cef918a	0.029244203
39	0x3d23dc4c	0.040005013
40	0x3cbf5c48	0.023359433
41	0xbb3c0843	-0.0028691448
42	0xb9b4e806	-0.00034505146
43	0xbcde3c0f	-0.027128248
44	0xbcc42679	-0.023944126
45	0xbd0543d8	-0.032535404
46	0x3d3770f6	0.044785462
47	0xbd5e8bcd	-0.054332543
48	0x3cf29bf7	0.029615385
49	0x3d1d5338	0.03840944
50	0x3d0b2ae4	0.03397645
51	0x3d19fa37	0.03759214
52	0xbd272896	-0.04081019
53	0xbc8b732a	-0.017022688
54	0xbd96c277	-0.0736131
55	0x3d128c15	0.035778124
56	0xbd2edb78	-0.04268977
57	0xbd32dde5	-0.043668646
58	0xbd256595	-0.04038008
59	0xbd85de84	-0.06536582
60	0xbd87f79a	-0.06639023
61	0xbcc65751	-0.024211558
62	0x3c38d917	0.011282227
63	0xbdd49e4b	-0.103817545
64	0x3cba2b86	0.022725832
65	0x3c116830	0.008874938
66	0xbc4d5238	-0.0125318095
67	0xbd30252a	-0.043004192
68	0x3c9b383d	0.018947715
69	0xbc30d246	-0.010792321
70	0xbd86c9b9	-0.06581444
71	0xbd1482cc	-0.03625755
72	0x3c9c91f6	0.019112568
73	0xbc4c7efb	-0.012481446
74	0x3d09a69a	0.03360615
75	0x3d80ba6c	0.06285557
76	0x3baa5652	0.0051982785
77	0x3ca82203	0.02052403
78	0x3cd9ed25	0.026602337
79	0x3c705850	0.014669493
80	0xbcf8d13a	-0.030373204
81	0x3d96eb70	0.07369125
82	0x3b6a04e2	0.0035708477
83	0xbdd9c4ab	-0.106332146
84	0xbcbe70c9	-0.02324714
85	0x3c4572c9	0.012051293
86	0xbd1b8e99	-0.03797779
87	0xbd139eb6	-0.03604003
88	0xbc2ffedd	-0.0107419165
89	0x3b0220a6	0.0019855886
90	0xbc3a2e32	-0.011363553
91	0xbb1ba1f2	-0.002374765
92	0xbc262c5a	-0.01014241
93	0x3d824e7e	0.063626274
94	0x3da02588	0.078196585
95	0x3b5308be	0.0032201256
96	0x3c1a820d	0.009430421
97	0x3d0e0c83	0.0346799
98	0xbcd5f11c	-0.026115946
99	0xbc923cff	-0.01785135
100	0x3d693fd1	0.056945626
101	0xbbe47808	-0.0069723167
102	0xbc943cb0	-0.018095344
103	0x3d9d1764	0.07670477
104	0x3bed0e59	0.0072343764
105	0xbd1b2c6b	-0.037884157
106	0x3d750963	0.059823405
107	0x3d90739a	0.07053299
108	0x3d77bf1c	0.06048499
109	0x3cc5e330	0.024156183
110	0x3d30b33d	0.043139685
111	0x3d3bf3cf	0.04588681
112	0x3cb45e0c	0.022017501
113	0xbc5a4d68	-0.013324119
114	0x3db1bd64	0.086787015
115	0x3c572d13	0.013133305
116	0x3c512414	0.012764949
117	0xbd0ae026	-0.03390517
118	0x3c29c967	0.0103629595
119	0x3d1b4a35	0.037912566
120	0x3baf1f1a	0.0053442838
121	0xbcc3e00d	-0.023910547
122	0xbd71e301	-0.05905438
123	0x3d01089b	0.031502347
124	0xb9eb8e82	-0.0004492887
125	0xbd11261b	-0.03543673
126	0xbce1624e	-0.027512696
127	0x3d194091	0.03741509
128	0xbd3f002b	-0.04663102
129	0xbcbd9fa8	-0.02314742
130	0x3cd87c9f	0.026426611
131	0xbc3255d1	-0.010884718
132	0xbbd02c60	-0.006352946
133	0x3d11abba	0.03556416
134	0x3d40f4b4	0.047108367
135	0x3d288a10	0.04114729
136	0x3d0e2343	0.034701597
137	0xbcca40d8	-0.024689123
138	0xbd348ce2	-0.04407967
139	0x3c1ec949	0.009691545
140	0xbcabe63b	-0.020983806
141	0x3cd95353	0.02652899
142	0xbd4ce171	-0.050019685
143	0xbd1723f5	-0.036899526
144	0xbd3337f2	-0.043754525
145	0xbd7e9d2b	-0.062161606
146	0xbd523cff	-0.0513277
147	0xbcf4f284	-0.029900797
148	0x3d887b63	0.06664159
149	0xbb154d36	-0.0022781617
150	0xbbe1dca4	-0.0068927575
151	0xbd86844a	-0.06568201
152	0x3cfcf210	0.030877143
153	0xbc18d4ab	-0.009328048
154	0xbcf9eec7	-0.030509366
155	0x3d969103	0.073518775
156	0x3d437613	0.047720026
157	0x3d3ec40d	0.046573687
158	0x3d56a481	0.052402977
159	0x3d599a30	0.05312556
160	0xbbcbc427	-0.0062184515
161	0xbaa3e672	-0.0012504591
162	0xbd6de66b	-0.05808107
163	0x3c1e1232	0.009647893
164	0x3bc53df0	0.0060193464
165	0xbbf162d2	-0.0073665166
166	0x3d6948cd	0.056954194
167	0x3cc47347	0.02398075
168	0xbd6737fb	-0.05644987
169	0x3c0f7e16	0.008758089
170	0xbb247c0a	-0.0025098347
171	0x3d700986	0.058602832
172	0x3d64ca5a	0.05585704
173	0x3ceb9414	0.028757133
174	0x3d3140d5	0.04327472
175	0xbcc9012d	-0.024536693
176	0xbd0346c4	-0.03204991
177	0xbdf42e00	-0.11922836
178	0xbdd77a6d	-0.10521398
179	0xbdbc1047	-0.09182792
180	0x3b94d3db	0.0045418567
181	0x3d628371	0.055301134
182	0x3bb73a2e	0.0055916524
183	0xbd8a2f07	-0.06747251
184	0x3ca918c0	0.020641685
185	0xbb344089	-0.0027504286
186	0x3ce1947b	0.027536621
187	0x3cfefefb	0.031127444
188	0x3d35e05f	0.04440343
189	0x3d1858c1	0.037194017
190	0x3c6ee681	0.014581324
191	0x3d81ab21	0.063314684
192	0xbcf6216e	-0.030045237
193	0x3d06a5a8	0.032872826
194	0x3cae9891	0.021312984
195	0x3bebb0c4	0.007192703
196	0x3cb584c0	0.022158027
197	0x3d893d52	0.06701149
198	0x3d468e9a	0.04847584
199	0x3d3ced7a	0.046124913
200	0x3c7437b7	0.014905862
201	0xbd83143d	-0.064003445
202	0xbd6b6844	-0.057472482
203	0x3c920140	0.017822862
204	0xbc20c655	-0.009812911
205	0xbd1d15ac	-0.038350746
206	0xbc0ea5e2	-0.008706542
207	0xbd02f107	-0.031968143
208	0xbcf3d695	-0.029765407
209	0x3d8ef093	0.0697948
210	0x3d97c7ca	0.074111536
211	0x3ca69b17	0.020337624
212	0x3c8fe250	0.017563969
213	0xbd57016b	-0.052491587
214	0xbc5924a2	-0.013253363
215	0x39b39f70	0.0003426033
216	0xbdbf8032	-0.09350623
217	0xbb149399	-0.0022670983
218	0xbcc5b037	-0.024131877
219	0xbdb1efc2	-0.08688308
220	0xbdd9871d	-0.10621474
221	0x3cea4c1c	0.028600745
222	0x3a795dce	0.0009512574
223	0xbdc20df8	-0.094753206
224	0x3cc0af21	0.023521008
225	0xbd0ca7fa	-0.034339882
226	0xbdfa42fb	-0.12219807
227	0xbdde1b3e	-0.1084504
228	0x3c7a2226	0.015266931
229	0xbd2f4e7a	-0.04279945
230	0xbd53139a	-0.051532365
231	0xbb9dfb85	-0.004821243
232	0x3bb0a8a4	0.0053911973
233	0x3dba8dba	0.091090634
234	0x3d4d5520	0.05013001
235	0x3c692754	0.014230568
236	0x3d1f8647	0.038946416
237	0x3d7125e9	0.058874045
238	0x3be0dd16	0.006862293
239	0x3cf48dc3	0.029852754
240	0x3c83f611	0.016108545
241	0x3d34e748	0.04416588
242	0xbd077837	-0.03307363
243	0xbd720092	-0.059082575
244	0xbd535bd8	-0.05160126
245	0xbc9986f7	-0.018741114
246	0x3d176c76	0.03696867
247	0x3da0548a	0.078286245
248	0x3d2ca27a	0.042147137
249	0x3cca88e9	0.024723487
250	0x3d886298	0.0665943
251	0x3cb2a7db	0.021808555
252	0x3be53a64	0.006995486
253	0xbd6a2267	-0.057161715
254	0xbd24e0fb	-0.04025362
255	0xbd6b18ea	-0.057396807

fc1.bias f4 [50]
0	0x3d57c854	0.052681282
1	0x3d2e6300	0.042574883
2	0x3b180a5a	0.002319953
3	0xbbd057fd	-0.0063581453
4	0x3caae0cf	0.02085915
5	0xbbc82d5d	-0.0061089233
6	0x3bea495c	0.0071498584
7	0xbc5da8fe	-0.01352906
8	0x3d0c6101	0.034272198
9	0x3c7808cb	0.015138815
10	0x3cd9ff06	0.026610862
11	0x3d87135e	0.06595491
12	0xbcbc090b	-0.02295353
13	0x3b9a66c4	0.0047119576
14	0x3be92ccc	0.007115936
15	0xbd1e031d	-0.038577188
16	0x3d70740e	0.05870443
17	0x3ccca90b	0.02498295
18	0x3d97a21a	0.07403965
19	0xbccc1b52	-0.024915371
20	0x3d1b7236	0.037950717
21	0x3ceb62e6	0.028733682
22	0xbccbd61d	-0.02488237
23	0x3d264e96	0.04060229
24	0x3d1b7fec	0.037963793
25	0xbaddb10a	-0.0016913724
26	0x3db11ef2	0.086484805
27	0xbca6d8bd	-0.02036702
28	0xbcdf9a32	-0.027295206
29	0xbcc29e9f	-0.023757277
30	0xbcb48781	-0.02203727
31	0x3d58f379	0.05296657
32	0x3c31903a	0.010837609
33	0xbcda9d8c	-0.026686452
34	0xbcf4651e	-0.029833373
35	0x3db8b9a1	0.09019781
36	0x3cb7444d	0.022371436
37	0xbd70caf5	-0.058787305
38	0x3d1d4811	0.038398806
39	0xbce200a5	-0.027588198
40	0x3cbfb587	0.023401989
41	0x3dabcd7a	0.08388801
42	0x3d0cc64e	0.034368806
43	0xbcfa99d0	-0.030590922
44	0xbc6b30f7	-0.014354936
45	0x3ceebaa7	0.029141737
46	0xbd16b045	-0.036789197
47	0xbd356f58	-0.04429564
48	0x3d7aa4e7	0.06119242
49	0x3d45b1e5	0.048265357

fc2.weight f4 [10, 50]
0	0x3e3e6008	0.1859132
1	0xbde5532b	-0.11197504
2	0x3e40c613	0.1882556
3	0x3e125f6b	0.14294212
4	0xbe1a7a2f	-0.15085672
5	0xbbddbde1	-0.00676702
6	0xbe44aab8	-0.19205749
7	0xbe2777fb	-0.16354363
8	0xbd94f898	-0.07273978
9	0xbe3f8503	-0.18703084
10	0xbe61f4c8	-0.22066033
11	0xbe1a7c69	-0.15086521
12	0xbe032b18	-0.12809408
13	0x3dd65fef	0.10467517
14	0x3e695f37	0.22790228
15	0x3e26c67c	0.16286653
16	0xbbf1850f	-0.007370598
17	0x3e72a54a	0.23695865
18	0x3e3ea071	0.18615891
19	0xbdd9f96f	-0.10643279
20	0xbde21412	-0.11038984
21	0xbdf1929a	-0.1179554
22	0xbdebc303	-0.11511805
23	0xbe6c3897	-0.23068462
24	0xbdc2df3d	-0.095152356
25	0xbe7b78f7	-0.24557863
26	0xbe757934	-0.23972017
27	0xbe7a4e96	-0.2444404
28	0x3d4b1b9d	0.04958688
29	0x3e470c1c	0.19438213
30	0xbe1ab663	-0.15108638
31	0xbe03c3fd	-0.12867732
32	0x3e67541d	0.2259068
33	0x3e006abc	0.12540716
34	0xbe1c85de	-0.15285441
35	0x3e5e6a16	0.21720156
36	0x3dff7f62	0.12475468
37	0x3cbf3d55	0.023344675
38	0xbcac80a3	-0.021057433
39	0xbe1916c9	-0.14950098
40	0xbe0952d6	-0.13410506
41	0xbe4dd808	-0.2010194
42	0x3e113076	0.14178643
43	0xbe045775	-0.12923987
44	0x3ce3c388	0.027803198
45	0x3e6d407e	0.23169133
46	0xbdec9b46	-0.115530536
47	0xbc9df541	-0.019281985
48	0x3df1525c	0.11783287
49	0x3e4325ac	0.1905734
50	0xbd884eaf	-0.06655633
51	0x3e3205bc	0.17385
52	0xbe2d7910	-0.16940713
53	0xbb522ea6	-0.0032071262
54	0x3e36e8e0	0.17862272
55	0x3e24406c	0.160402
56	0xbe6658c5	-0.224948
57	0x3defb54b	0.11704501
58	0x3da8db45	0.08244947
59	0xbddabf99	-0.106810756
60	0x3e1a347a	0.1505908
61	0x3e6176b3	0.22017936
62	0xbe0c3195	-0.13690789
63	0xbe2c0d96	-0.16802058
64	0xbd0dfb92	-0.034663744
65	0xbe6fbc98	-0.23411787
66	0x3e849482	0.25894552
67	0xbd8149ca	-0.06312902
68	0xbe64c55b	-0.2234091
69	0xbc726cd8	-0.014796458
70	0xbe34501d	-0.17608686
71	0x3e00c075	0.12573417
72	0x3e1ad12e	0.15118858
73	0x3e4a3555	0.19746907
74	0x3e2c8f53	0.16851549
75	0xbe8a02da	-0.269553
76	0xbe9be33c	-0.30446804
77	0x3e68a95b	0.22720854
78	0x3e0fee6c	0.14055794
79	0x3b12ae04	0.0022381553
80	0x3e3e200f	0.18566917
81	0xbe0350b2	-0.12823752
82	0xbe33c33d	-0.17554946
83	0xbe598fe8	-0.21246302
84	0x3e33af51	0.17547347
85	0x3d842e1c	0.06454107
86	0xbe120580	-0.1425991
87	0xbdd4293b	-0.103594266
88	0x3e3c8cca	0.18413082
89	0x3e67666b	0.22597663
90	0xbd92c6de	-0.07166837
91	0x3dceae32	0.10091819
92	0xbdeda9f0	-0.11604679
93	0xbe65a4aa	-0.22426096
94	0x3e17986c	0.14804238
95	0xbddd3dcb	-0.10802802
96	0xbe32fda9	-0.17479576
97	0x3e572def	0.21013616
98	0xbe710753	-0.2353795
99	0x3cdb2816	0.026752513
100	0xbd8d09da	-0.06886645
101	0xbdac4199	-0.08410949
102	0xbd236d2e	-0.039899044
103	0x3d36427d	0.044497002
104	0xbe0002f6	-0.1250113
105	0x3e200919	0.1562847
106	0x3e0d7397	0.13813625
107	0x3dda57cc	0.10661277
108	0x3e5ecf7d	0.21758838
109	0x3da2ec78	0.07955259
110	0xbd8e5180	-0.06949139
111	0x3e709069	0.23492588
112	0x3dac55e1	0.084148176
113	0x3e02c993	0.12772207
114	0x3e4f2097	0.20227276
115	0x3de93d38	0.1138863
116	0xbe05bce2	-0.13060334
117	0xbd33e9bb	-0.043924075
118	0xbe0a029f	-0.13477562
119	0xbe58e154	-0.21179706
120	0xbdab6ee4	-0.0837076
121	0x3de65c0c	0.11248025
122	0xbe30cb2d	-0.17265005
123	0xbe42406f	-0.18969892
124	0xbd4581e1	-0.048219565
125	0xbde27cad	-0.11058936
126	0xbe2c6dd4	-0.16838771
127	0x3ce7760f	0.028254537
128	0xbe5c6b5e	-0.21525332
129	0xbcc1c36f	-0.02365276
130	0xbdcf3705	-0.10117916
131	0xbdfdf9b4	-0.12401143
132	0x3d9a3511	0.07529653
133	0xbe1cf074	-0.153261
134	0x3e2469f9	0.1605605
135	0x3e1a98e1	0.15097381
136	0xbdb916d4	-0.09037557
137	0xbe032aa4	-0.12809235
138	0x3e1340a9	0.14380135
139	0x3d3b82e3	0.04577912
140	0x3e332999	0.17496337
141	0x3e2d1ad6	0.16904768
142	0xbddaa669	-0.106762715
143	0xbd402e2b	-0.04691903
144	0x3d9b3a2f	0.07579457
145	0x3e3ec258	0.18628824
146	0xbcc94d05	-0.024572859
147	0x3e3966af	0.18105577
148	0xbdfc3477	-0.123146944
149	0x3e393c03	0.18089299
150	0xbd592559	-0.053014133
151	0x3e51411e	0.20434996
152	0x3e2503d0	0.16114736
153	0xbe1dfd8d	-0.15428753
154	0xbd5f3446	-0.05449321
155	0xbe50dedf	-0.20397519
156	0x3dfba52e	0.12287365
157	0x3de592dc	0.11209652
158	0xbd42c014	-0.04754646
159	0x3dabe5fe	0.08393477
160	0xbd100e45	-0.03516986
161	0x3e5d902b	0.21637027
162	0xbe0a9b27	-0.13535748
163	0x3c457fc3	0.012054387
164	0x3e13b689	0.144251
165	0xbdc19767	-0.09452706
166	0xbe3bce8e	-0.18340513
167	0xbd6b22c4	-0.057406202
168	0xbdef3d8e	-0.116816625
169	0x3e2a5e4d	0.16637535
170	0x3e4a1fef	0.19738744
171	0x3e132467	0.14369355
172	0x3e028535	0.12746127
173	0xbdfa88b4	-0.12233105
174	0xbe54f1c0	-0.20795345
175	0xbdfceee1	-0.1235025
176	0x3e1c9177	0.15289865
177	0xbd94c629	-0.072643586
178	0x3e56bfaf	0.20971559
179	0xbdc2b7e1	-0.09507728
180	0xbe8cf897	-0.2753341
181	0x3e89729f	0.2684526
182	0xbe12b081	-0.14325143
183	0x3e2a5295	0.16633065
184	0x3deba374	0.115057856
185	0x3d0248ab	0.031807583
186	0x3e2d8faf	0.16949342
187	0x3c95f362	0.01830453
188	0xbe7081ab	-0.23486964
189	0xbd762381	-0.060092453
190	0x3e0eb198	0.13934934
191	0x3e2bba0d	0.16770191
192	0xbe38f1a3	-0.18060927
193	0x3e0d3b44	0.1379214
194	0x3deeacbf	0.116540425
195	0xbd44108a	-0.047867335
196	0xbdbf2e9e	-0.093350634
197	0xbd9255d3	-0.07145276
198	0xbdeef19c	-0.11667177
199	0x3e173895	0.14767678
200	0xbda5ec0c	-0.08101663
201	0xbb8deb09	-0.004330997
202	0xbda4f1c9	-0.08053929
203	0x3d2c10dc	0.042008266
204	0x3e3250f1	0.17413689
205	0x3e36c0ff	0.1784706
206	0x3e1c50b2	0.15265158
207	0xbe4f7cc2	-0.20262435
208	0xbdfc7aef	-0.12328135
209	0xbe243537	-0.16035925
210	0x3e47d2da	0.19514027
211	0x3d1198d6	0.035546146
212	0x3e8212cd	0.2540497
213	0xbe676ac1	-0.22599317
214	0xbe01d63f	-0.12679385
215	0x3e17dbb7	0.14829908
216	0xbdcf72f8	-0.101293504
217	0xbdfa09d0	-0.12208903
218	0xbe09ce96	-0.13457713
219	0xbe008896	-0.12552103
220	0xbdca9149	-0.09890992
221	0xbe22f3d7	-0.1591333
222	0x3e38570e	0.18001959
223	0x3e5b92d6	0.21442732
224	0x3e495077	0.19659601
225	0x3e3a3b5e	0.1818671
226	0x3dba4d5c	0.090967864
227	0xbd0557b7	-0.032554355
228	0xbd3725d4	-0.04471381
229	0xbdf36194	-0.11883846
230	0x3dcca6f6	0.09992783
231	0x3e4b061d	0.19826551
232	0xbe3aed37	-0.18254553
233	0xbe861df4	-0.26194727
234	0xbe09a740	-0.13442707
235	0xbe2d33fa	-0.16914359
236	0xbdc9e03c	-0.098572224
237	0x3ea3af5d	0.3196973
238	0x3e1a9066	0.15094146
239	0xbdbc6994	-0.09199825
240	0xbe7c48f0	-0.24637198
241	0xbe04c785	-0.12966736
242	0x3e30b7a9	0.17257561
243	0x3c87576f	0.016521184
244	0xbe109d60	-0.14122534
245	0xbc49b9f2	-0.012312399
246	0xbdafcada	-0.08583613
247	0xbe33e402	-0.17567447
248	0x3e4e407f	0.20141791
249	0xbdfacfdf	-0.122466795
250	0x3da5eba0	0.081015825
251	0xbdca5fec	-0.09881577
252	0xbc9df890	-0.019283563
253	0xbe5d2e67	-0.21599732
254	0x3c1314e7	0.0089771515
255	0xbdd7389e	-0.10508846

fc2.bias f4 [10]
0	0xbd43e5de	-0.04782664
1	0x3d8e7bff	0.06957244
2	0xbd854d54	-0.0650889
3	0xbe22a46b	-0.15883033
4	0x3c4030a1	0.011730344
5	0x3dda0897	0.1064617
6	0xbe25d45d	-0.16194291
7	0xbdf3db02	-0.11907007
8	0x3df8e4e1	0.1215303
9	0xbd610b30	-0.05494231
