results/mnist_model.pth (torch, 90416 bytes, 8 tensors)

conv1.weight f4 [10, 1, 5, 5]
0.07765963 -0.18394087 -0.25240803 -0.18338999 -0.35620734 0.19599639 0.019262332 0.019898439
-0.045430005 -0.101641275 0.19143082 0.25434425 0.2988381 0.13008332 0.07683654 0.008079309
0.17108874 0.18081376 0.34651732 0.21624336 -0.1740412 -0.21868758 -0.1572908 -0.14817359
-0.029203676 0.14414568 0.33102322 0.0882519 -0.39832738 -0.13933532 0.2657616 0.42443675
0.06284721 -0.40019068 -0.37790596 0.1599239 0.4257791 -0.13718587 -0.153428 -0.28524134
0.36885032 0.11802263 0.14000268 -0.11128001 -0.20050061 0.24280395 0.117710635 0.1851901
-0.0342252 -0.041248314 -0.35725975 -0.22003536 0.06396588 0.045280855 0.32100123 -0.029574608
-0.058993127 0.031443324 0.34196505 0.16119578 -0.18645082 0.19523777 0.3736079 0.38082838
-0.14271605 0.032182276 0.12087514 0.19988748 -0.12124352 -0.28097934 0.12191577 -0.026412364
0.068683505 -0.12254764 -0.10984607 0.13376842 0.23588708 0.26699355 -0.06855386 0.19955888
-0.15830377 -0.09334118 0.09141576 0.052968152 0.2158665 -0.13352413 -0.20013684 0.095765054
-0.04939931 0.14145313 0.06300995 -0.21213105 -0.09261795 -0.05223332 -0.19331765 -0.063718475
0.053496305 -0.06882144 -0.17845313 -0.13084863 0.28894883 0.03405229 0.16183098 0.1020393
-0.154637 -0.09412088 0.33525077 0.10336185 0.13098961 0.052038927 0.17112173 0.47450963
0.41093904 -0.053820595 0.15298676 0.19290234 0.36839312 0.27767968 0.013167784 0.022500757
-0.26468197 -0.012609173 0.22965099 -0.03283934 0.2302256 -0.1963909 -0.32396594 -0.14078455
0.23128918 0.3950478 -0.14965837 0.05420899 0.2687874 0.3795417 0.26277912 0.20929901
0.17645806 0.11571385 0.0084941005 -0.13154331 -0.03453855 -0.018775154 -0.122986265 0.15497245
0.13493595 -0.048922 0.01588534 0.03686224 0.19367644 0.23631832 -0.07439497 0.15892471
-0.0468901 -0.0005806592 -0.20032674 -0.18130648 -0.19082041 -0.10271881 0.17039335 -0.069148704
-0.19792871 0.047563646 0.09004266 0.15600964 -0.13100746 0.04608306 -0.04685712 -0.0016335717
-0.14260034 -0.08233028 -0.013332566 0.12838529 0.07665215 0.11127374 0.27999374 0.08585085
0.074081905 -0.007632166 -0.17837188 0.15507269 -0.16232392 -0.1466187 -0.3164797 -0.25986165
-0.32874718 0.18009481 -0.15747559 -0.22824611 -0.18934041 -0.24224614 0.24306256 0.1773729
0.10172889 0.09110853 0.24507594 0.01974192 0.3981282 0.45894888 0.44098297 0.04825812
0.043138273 -0.14602885 0.21785146 -0.018095993 0.1666333 0.012576045 -0.0013165004 0.05178294
0.16434358 0.22578053 0.050133456 0.067273416 -0.15651019 0.253162 0.34154978 0.12430067
0.07681459 -0.22603737 -0.068742834 0.28525808 -0.3348 -0.023625249 -0.33316055 -0.27373046
0.07276762 -0.08901476 0.026273768 0.30097726 0.3658043 0.39912525 -0.033638876 -0.1425079
0.34174466 0.1534825 0.09283091 -0.024808127 -0.18685915 0.16351719 0.19152392 -0.10463907
-0.26412284 -0.10630947 0.008416657 -0.054108515 -0.15253334 -0.10337149 -0.3176951 -0.273012
-0.22961502 0.0563121
00000000: 030c 9f3d ff5a 3cbe a03b 81be 96ca 3bbe
00000010: cf60 b6be 47b3 483e 0acc 9d3c 0d02 a33c
00000020: d014 3abd 4d29 d0bd 7106 443e 6939 823e
00000030: 4f01 993e 9034 053e 7a5c 9d3d 145f 043c
00000040: e331 2f3e 3e27 393e b86a b13e e66e 5d3e
00000050: db37 32be a3ef 5fbe d710 21be d1ba 17be
00000060: 8c3c efbc ed9a 133e e07b a93e 6abd b43d
00000070: 91f1 cbbe ebad 0ebe e811 883e c64f d93e
00000080: 0ab6 803d cbe5 ccbe e47c c1be 17c3 233e
00000090: b8ff d93e 747a 0cbe 3b1c 1dbe 270b 92be
000000a0: f3d9 bc3e d9b5 f13d dd5c 0f3e c6e6 e3bd
000000b0: 0850 4dbe 99a1 783e 4612 f13d 79a2 3d3e
000000c0: b92f 0cbd fef3 28bd c0ea b6be f350 61be
000000d0: 8b00 833d 6b78 393d 465a a43e 7346 f2bc
000000e0: c7a2 71bd b7ca 003d 0b16 af3e 8210 253e
000000f0: f7ec 3ebe 69ec 473e 8949 bf3e f0fb c23e
00000100: 2824 12be 90d1 033d 638d f73d 4eaf 4c3e
00000110: 864e f8bd 86dc 8fbe faae f93d be5e d8bc
00000120: f0a9 8c3d 42fa fabd faf6 e0bd 97fa 083e
00000130: 628c 713e 61b3 883e f765 8cbd 2a59 4c3e
00000140: 621a 22be a929 bfbd 3038 bb3d 22f5 583d
00000150: 1c0c 5d3e 8dba 08be acf0 4cbe 7820 c43d
00000160: ee56 4abd 17d9 103e 5c0b 813d e238 59be
00000170: 7bae bdbd 9bf2 55bd 10f5 45be d57e 82bd
00000180: f11e 5b3d 41f2 8cbd 6bbc 36be 2ffd 05be
00000190: 1af1 933e 6a7a 0b3d 05b7 253e fbf9 d03d
000001a0: 2959 1ebe 73c2 c0bd fda5 ab3e 61af d33d
000001b0: 2422 063e c526 553d 893a 2f3e edf2 f23e
000001c0: 9a66 d23e fc72 5cbd 90a8 1c3e 3188 453e
000001d0: 069e bc3e 082c 8e3e b0bd 573c 8253 b83c
000001e0: 6584 87be b496 4ebc a129 6b3e 8b82 06bd
000001f0: 42c0 6b3e b21a 49be ddde a5be d329 10be
00000200: 12d7 6c3e b543 ca3e 0b40 19be 3f0a 5e3d
00000210: 819e 893e 4a53 c23e fc8a 863e 7b52 563e
00000220: 6cb1 343e 62fb ec3d d72a 0b3c 4ab3 06be
00000230: 4b78 0dbd 5ace 99bc 39e0 fbbd 19b1 1e3e
00000240: a62c 0a3e 6f62 48bd f921 823c dcfc 163d
00000250: 1e53 463e 6efd 713e 645c 98bd 29bd 223e
00000260: d50f 40bd 6137 18ba 7422 4dbe 68a8 39be
00000270: 6d66 43be 3d5e d2bd 987b 2e3e d69d 8dbd
00000280: d3ad 4abe 19d2 423d 4968 b83d fec0 1f3e
00000290: d226 06be 97c1 3c3d 40ed 3fbd 921d d6ba
000002a0: d305 12be c79c a8bd d670 5abc 6f77 033e
000002b0: cdfb 9c3d 7de3 e33d 575b 8f3e 92d2 af3d
000002c0: 41b8 973d 4017 fabb 1ea7 36be 60cb 1e3e
000002d0: 3e38 26be 3623 16be a109 a2be 960c 85be
000002e0: 8d51 a8be c66a 383e 4841 21be 59b9 69be
000002f0: 74e2 41be 5f0f 78be 64e5 783e 3ea1 353e
00000300: 3c57 d03d 1c97 ba3d 30f5 7a3e cfb9 a13c
00000310: 76d7 cb3e 59fb ea3e 85c8 e13e 4eaa 453d
00000320: c2b1 303d 9688 15be 7414 5f3e 0c3e 94bc
00000330: eba1 2a3e c10b 4e3c 6c8e acba 591a 543d
00000340: af49 283e 0333 673e bd58 4d3d a5c6 893d
00000350: 3544 20be 739e 813e 9ddf ae3e 5a91 fe3d
00000360: f850 9d3d 5776 67be 0bc9 8cbd 590d 923e
00000370: e86a abbe bd89 c1bc 0594 aabe 6626 8cbe
00000380: 3107 953d 5f4d b6bd 163c d73c b119 9a3e
00000390: b44a bb3e 255a cc3e ebc8 09bd 97ed 11be
000003a0: 28f9 ae3e 842a 1d3e 221e be3d 6a3a cbbc
000003b0: 0158 3fbe 0d71 273e d91e 443e 024d d6bd
000003c0: 1c3b 87be c8b8 d9bd 05e6 093c e4a0 5dbd
000003d0: b331 1cbe 6fb4 d3bd efa8 a2be 3bc8 8bbe
000003e0: 3320 6bbe 84a7 663d

conv1.bias f4 [10]
0.14703687 -0.088731684 0.0026606384 0.11269474 0.22732802 0.008158808 0.12813835 0.1508801
0.065840274 0.06144642
00000000: d590 163e f5b8 b5bd 1b5e 2e3b 80cc e63d
00000010: adc8 683e 85ac 053c b336 033e 5080 1a3e
00000020: 44d7 863d 3eaf 7b3d

conv2.weight f4 [20, 10, 5, 5]
0.03715358 0.008893931 -0.11212354 0.02240394 0.039445154 -0.058775898 -0.011177685 -0.13091624
0.013062029 -0.026858317 0.0030988322 -0.03200716 -0.03759318 0.054345597 0.011713073 -0.07783114
-0.052894372 0.046360962 0.026421389 0.031525146 -0.054809563 -0.003980586 0.06897299 0.040406827
-0.038709506 -0.046996206 -0.1450095 -0.023613492 -0.031807847 0.034392044 -0.03101982 -0.13716897
0.03363079 0.053602405 0.025928374 -0.06875507 -0.032977354 0.10362573 0.013612668 -0.012078166
-0.050051183 0.019507702 0.10869988 0.0006278942 -0.0047569606 -0.020477438 0.035695624 0.06998758
-0.028629018 0.023449037 0.02772688 -0.015603466 -0.020994307 0.028447507 0.09431977 -0.07338043
0.029350145 0.11668823 0.12103182 0.04154666 -0.024443472 0.04116796 0.011894781 -0.023819787
0.019144842 -0.0474811 -0.06488002 -0.05185681 -0.08793589 -0.06815457 0.026876673 -0.042504344
-0.06198896 -0.07533708 -0.040306173 -0.003647885 -0.05457366 -0.039514735 -0.0065011648 -0.010562991
-0.052807525 -0.07405469 -0.09313847 0.010845055 -0.020635987 -0.031511735 -0.051585477 -0.07777275
-0.088990815 -0.05389539 0.05751378 0.01581841 -0.033892307 -0.023079326 0.05526164 0.03460363
0.07565226 0.05636034 0.051202804 0.0014679107 -0.013142315 -0.097021244 0.008135506 0.019504223
0.100874044 -0.059543934 -0.11573825 0.0154978875 0.07844134 0.0071363878 -0.10275433 0.059462857
0.08150825 -0.0044565825 0.01359141 -0.057424787 0.014996239 0.14506702 0.047510434 -0.009208303
-0.016504472 -0.1092969 -0.035439238 -0.029561128 -0.09843397 0.054940972 0.029097022 0.0043809754
0.01846133 -0.02652293 -0.017163897 0.096033975 0.106461644 0.08806676 0.06232082 0.03966971
0.15997106 0.09258086 0.07983869 0.00020948477 -0.03903739 0.093852215 0.021887878 -0.03708937
-0.083142385 -0.07912302 -0.057274148 -0.09530573 0.0006063365 -0.07834292 -0.019836172 0.008319105
0.027456757 -0.030004865 0.03577067 0.024774188 -0.058291383 0.073808305 -0.03166558 -0.03319036
-0.06617686 0.06521779 0.022852803 0.04806012 -0.017272271 0.009838846 -0.021881133 -0.03939083
-0.0071336357 -0.032573592 0.019582666 -0.021897448 0.010608415 0.0035848524 -0.014132059 -0.0530761
0.028862396 -0.045815747 -0.017928837 0.059191927 -0.058958635 0.02917812 -0.16027656 -0.025004255
0.040299658 -0.03752483 -0.101852946 -0.01459201 -0.008005824 -0.007265781 -0.02756278 -0.054927994
0.071940534 0.061468236 0.074074544 0.10119646 -0.028095867 -0.03058829 0.022296797 -0.09499399
0.009820895 -0.06615648 -0.009064744 0.005043296 -0.036398564 0.001596866 -0.05973463 -0.047845695
0.008450844 -0.042777065 0.023469867 0.013366912 0.053383693 0.053723432 0.03231391 0.049810924
-0.019882148 0.050576225 0.035117134 -0.0687982 -0.059635747 -0.06449831 0.008725134 -0.0034997312
-0.0011667417 0.04778917 -0.043391496 0.015432783 -0.010614074 -0.011954918 -0.008127454 -0.06674005
-0.014514939 -0.09123263 -0.014519804 0.008134793 0.063563876 -0.05028504 -0.080101244 0.010287627
-0.054948147 -0.031913724 -0.05216148 0.018295888 0.009672321 -0.10517095 -0.06821082 -0.03359504
0.08290567 -0.022037605 -0.0471236 0.028789785 -0.06211832 0.028970802 0.033921003 -0.07138394
00000000: 5a2e 183d dab7 113c 07a1 e5bd 7888 b73c
00000010: 3e91 213d ffbe 70bd 9c22 37bc e80e 06be
00000020: 1f02 563c f905 dcbc c715 4b3b f119 03bd
00000030: 4efb 19bd 7d99 5e3d 30e8 3f3c ef65 9fbd
00000040: c5a7 58bd fee4 3d3d ab71 d83c 8320 013d
00000050: fe7f 60bd 936f 82bb b641 8d3d a181 253d
00000060: dc8d 1ebd 187f 40bd 5f7d 14be 1571 c1bc
00000070: f248 02bd acde 0c3d 471d febc 0676 0cbe
00000080: 70c0 093d 328e 5b3d be67 d43c 75cf 8cbd
00000090: 4313 07bd ba39 d43d ab07 5f3c 80e3 45bc
000000a0: 7802 4dbd 9ece 9f3c 0b9e de3d 4499 243a
000000b0: 47e0 9bbb 4dc0 a7bc 9335 123d a655 8f3d
000000c0: 6787 eabc 3218 c03c 7b23 e33c aea5 7fbc
000000d0: 41fc abbc bf0a e93c b92a c13d 7b48 96bd
000000e0: b76f f03c 3dfa ee3d 88df f73d d52c 2a3d
000000f0: ad3d c8bc bc9f 283d 54e2 423c b721 c3bc
00000100: a5d5 9c3c 8b7b 42bd d1df 84bd ce67 54bd
00000110: bb17 b4bd a094 8bbd 782c dc3c 0919 2ebd
00000120: 23e8 7dbd 544a 9abd 1618 25bd 5b11 6fbb
00000130: a188 5fbd 34da 21bd b907 d5bb 6510 2dbc
00000140: b44c 58bd fca9 97bd 62bf bebd 75af 313c
00000150: cd0c a9bc 7312 01bd 4b4b 53bd 5247 9fbd
00000160: d140 b6bd 6ac1 5cbd 9293 6b3d 9c95 813c
00000170: a9d2 0abd db10 bdbc 085a 623d 89bc 0d3d
00000180: 92ef 9a3d 1ada 663d 08ba 513d e966 c03a
00000190: dd52 57bc 13b3 c6bd c94a 053c 52c7 9f3c
000001a0: 0d97 ce3d 57e4 73bd 2d08 edbd daea 7d3c
000001b0: daa5 a03d 5cd8 e93b dd70 d2bd 538f 733d
000001c0: cced a63d 8608 92bb 81ae 5e3c 4136 6bbd
000001d0: c9b2 753c 738c 143e 4d9a 423d 6cde 16bc
000001e0: 6334 87bc 0ed7 dfbd bc28 11bd 2e2a f2bc
000001f0: c097 c9bd c909 613d e15c ee3c 498e 8f3b
00000200: 373c 973c 9e46 d9bc 4d9b 8cbc 76ad c43d
00000210: 9008 da3d 585c b43d 1e44 7f3d b57c 223d
00000220: 74cf 233e 099b bd3d 7882 a33d 24a9 5b39
00000230: ace5 1fbd 9735 c03d 354e b33c 06eb 17bd
00000240: 8e46 aabd 400b a2bd 4c98 6abd a72f c3bd
00000250: 8ef2 1e3a 4172 a0bd 787f a2bc db4c 083c
00000260: feec e03c c3cc f5bc 4484 123d 3df3 ca3c
00000270: f2c2 6ebd cf28 973d c4b3 01bd 9df2 07bd
00000280: bc87 87bd e890 853d cd35 bb3c b0da 443d
00000290: 947e 8dbc 1c33 213c 1040 b3bc 4758 21bd
000002a0: 46c1 e9bb e36b 05bd d46b a03c 4762 b3bc
000002b0: ebce 2d3c d8ef 6a3b 278a 67bc 5366 59bd
000002c0: d570 ec3c 4ba9 3bbd 7fdf 92bc 3c73 723d
000002d0: 9c7e 71bd f406 ef3c 8a1f 24be b9d5 ccbc
000002e0: 4111 253d a3b3 19bd 4798 d0bd 5313 6fbc
000002f0: dc2a 03bc ca15 eebb 57cb e1bc 2dfc 60bd
00000300: 8f55 933d 1ec6 7b3d 65b4 973d 1740 cf3d
00000310: 4e29 e6bc 4b94 fabc c6a7 b63c 368c c2bd
00000320: d2e7 203c 0c7d 87bd 4b84 14bc 3c42 a53b
00000330: a916 15bd ee4d d13a 4dac 74bd d9f9 43bd
00000340: 6975 0a3c 0137 2fbd e143 c03c e400 5b3c
00000350: dca8 5a3d 1a0d 5c3d 975b 043d 8a06 4c3d
00000360: e3df a2bc 0429 4f3d fcd6 0f3d 12e6 8cbd
00000370: 9d44 74bd b117 84bd ddf3 0e3c bf5b 65bb
00000380: 5bed 98ba 94be 433d 48bb 31bd c9d9 7c3c
00000390: a7e6 2dbc 8fde 43bc 0329 05bc 02af 88bd
000003a0: 11d0 6dbc 2cd8 babd 79e4 6dbc cb47 053c
000003b0: c72d 823d b0f7 4dbd 1f0c a4bd 6f8d 283c
000003c0: 4f11 61bd f7b7 02bd 47a7 55bd 42e1 953c
000003d0: a878 1e3c de63 d7bd 1db2 8bbd f49a 09bd
000003e0: 73ca a93d 3588 b4bc ad04 41bd 8ed8 eb3c
000003f0: c86f 7ebd 2d54 ed3c c0f0 0a3d be31 92bd

conv2.bias f4 [20]
0.021825105 -0.025065862 0.043983914 -0.01992488 -0.016499693 -0.023977116 -0.0388747 -0.015283771
-0.060379434 -0.023731181 -0.0014217118 -0.065013506 -0.05453927 0.062851876 -0.041351195 -0.07027656
-0.0015711759 -0.07816163 -0.052465666 0.015698062
00000000: 90ca b23c ec56 cdbc 7a28 343d 8039 a3bc
00000010: 5d2a 87bc a86b c4bc 143b 1fbd c868 7abc
00000020: 6d50 77bd e567 c2bc bb58 baba cd25 85bd
00000030: 9264 5fbd 7cb8 803d df5f 29bd 28ed 8fbd
00000040: eaef cdba 3413 a0bd 3de6 56bd 3999 803c

fc1.weight f4 [50, 320]
-0.12470626 -0.069230504 -0.017773056 -0.038181696 0.03638265 -0.011456305 0.05017622 -0.0130436225
-0.025236575 0.046359275 0.03348019 0.05718919 0.0064891283 -0.08728625 0.0030720432 0.032534305
-0.06911336 0.010889856 -0.022215974 0.017776487 0.036042873 -0.008661526 0.013382001 -0.020686597
0.017780563 -0.008961803 0.032773294 0.0032866024 -0.014627803 -0.02051498 0.010886394 0.0036364717
-0.041388664 0.009474171 -0.032703355 -0.076930046 -0.026663048 0.014281355 0.037596624 0.08120151
0.013251655 -0.0074663367 -0.029482048 -0.025688605 -0.01427022 -0.019091198 0.051878408 -0.06340019
0.004557769 0.05409743 0.027336443 0.036596075 -0.04595496 0.0029319827 -0.07189347 0.032102406
-0.040004134 -0.03502874 -0.050907455 -0.07426749 -0.04170622 -0.028895158 -0.0116257295 -0.09929142
0.013608994 0.013897677 -0.007641015 -0.03271137 0.019171908 -0.0022684243 -0.062508345 -0.035819966
0.015317723 -0.020137478 0.034493394 0.043819737 0.00082494004 0.043693088 0.019656248 0.008823727
-0.040579375 0.015469836 -0.032866158 -0.13016663 0.0032856697 -0.008142961 -0.015802044 0.011952643
-0.021247229 -0.024743928 -0.008215123 0.021233037 0.02006512 0.03447167 0.08737952 0.028073715
0.015409322 0.026915448 0.018405782 -0.022703797 0.015431966 -0.028445737 -0.05309441 0.014894327
0.015944121 -0.028957516 0.040956948 0.021116512 0.04268954 -0.0079072695 0.0013578925 0.028515784
-0.009935466 0.0012822766 0.11379503 -0.0007069835 0.004466751 -0.007147867 -0.0014146278 0.051658124
0.028267564 -0.024946034 -0.05728383 -0.007236596 -0.004283355 -0.0323162 -0.016469149 -0.02456787
-0.04963685 0.011866921 0.080378115 0.025937354 -0.0061224466 0.016014533 0.042522635 0.04831356
0.060752153 -0.018456077 -0.055613257 -0.016561663 0.0027948993 0.020859115 -0.07104583 -0.049527053
-0.08986713 -0.081865504 -0.07358188 -0.030312883 0.061503593 0.013138861 0.01650742 -0.045272823
0.04127629 -0.00077922526 -0.004351696 0.051893923 0.047620468 0.026195398 0.044035513 0.039163403
-0.021899557 0.0022154448 -0.05390655 -0.0040783025 0.015120207 0.00034453484 0.056479394 0.006497403
-0.06753529 0.0025345813 -0.01428221 0.04595235 0.047803495 0.043291323 0.055566426 -0.026994472
-0.03578701 -0.12921411 -0.101828925 -0.08803925 0.015517056 0.03434335 -0.006929458 -0.10538317
0.02104969 -0.011722219 0.028913392 0.017796474 0.027530363 0.040621683 -0.0074375407 0.08142054
-0.02901954 0.018948903 -0.010013561 0.016115999 -0.00015630743 0.034219325 0.018223748 0.010266574
0.008721985 -0.069556415 -0.022133468 -0.00018788075 0.0031643927 -0.012702124 0.023017041 -0.023665259
-0.044101328 0.050756175 0.044777993 0.045579333 0.012156343 -0.027383659 0.0012294356 -0.001814579
-0.11834636 0.019603606 -0.021429636 -0.050220225 -0.1223661 0.021597097 -0.021228565 -0.109833
0.02061424 -0.035009556 -0.12243414 -0.11402678 0.011709465 -0.051184352 -0.06480512 0.015781164
-0.008268405 0.06243361 0.035546202 0.007383672 0.025039367 0.017345648 0.03019705 0.030124264
0.0057855635 0.022644067 -0.063810214 -0.07453453 -0.052596286 -0.0109594865 0.035493445 0.08238616
0.066670045 0.037313454 0.05152806 -0.0037213385 -0.013699999 -0.052804105 -0.005593003 -0.080410264
00000000: ff65 ffbd b9c8 8dbd cd98 91bc 6964 1cbd
00000010: f905 153d 3ab3 3bbc 9485 4d3d ebb4 55bc
00000020: efbc cebc 39e3 3d3d 8622 093d 363f 6a3d
00000030: c1a2 d43b 22c3 b2bd 5554 493b b142 053d
00000040: 4e8b 8dbd 5e6b 323c 46fe b5bc ff9f 913c
00000050: b1a1 133d 13e9 0dbc 2e40 5b3c f076 a9bc
00000060: 8ba8 913c 87d4 12bc 4a3d 063d 0a64 573b
00000070: 74a9 6fbc 080f a8bc d95c 323c df51 6e3b
00000080: 2987 29bd 8e39 1b3c f4f3 05bd 808d 9dbd
00000090: 776c dabc 58fc 693c ebfe 193d fa4c a63d
000000a0: 781d 593c 2ca8 f4bb 5684 f1bc e970 d2bc
000000b0: a4cd 69bc 2565 9cbc 747e 543d f5d7 81bd
000000c0: 5659 953b 4495 5d3d adf0 df3c c4e5 153d
000000d0: 453b 3cbd 8226 403b e23c 93bd d07d 033d
000000e0: 60db 23bd 4c7a 0fbd 5684 50bd 8e19 98bd
000000f0: 24d4 2abd 8ab5 ecbc d879 3ebc 4d59 cbbd
00000100: 42f8 5e3c 15b3 633c 7b61 fabb 5cfc 05bd
00000110: 680e 9d3c d8a9 14bb 6004 80bd f5b7 12bd
00000120: 30f7 7a3c 5af7 a4bc f248 0d3d 537c 333d
00000130: ca40 583a 86f7 323d 2406 a13c 6591 103c
00000140: 8f36 26bd 3275 7d3c aa9e 06bd 674a 05be
00000150: 6454 573b 0e6a 05bc 4a73 81bc 05d5 433c
00000160: ab0e aebc c7b3 cabc b998 06bc e8f0 ad3c
00000170: 9b5f a43c 2a32 0d3d 09f4 b23d d9fa e53c
00000180: 6277 7c3c c97d dc3c b9c7 963c 50fd b9bc
00000190: 5bd6 7c3c 0907 e9bc 8679 59bd 5607 743c
000001a0: 3f9d 823c 5038 edbc 79c2 273d 89fc ac3c
000001b0: 3adb 2e3d 7e8d 01bc 50fb b13a ef99 e93c
000001c0: 5dc8 22bc 1012 a83a 5e0d e93d dc54 39ba
000001d0: d35d 923b a838 eabb 086b b9ba 7897 533d
000001e0: 6191 e73c a05b ccbc 73a2 6abd f820 edbb
000001f0: 635b 8cbb fe5d 04bd 4fea 86bc 8f42 c9bc
00000200: 0250 4bbd 796d 423c 489d a43d 937a d43c
00000210: ce9e c8bb e930 833c 372c 2e3d 71e4 453d
00000220: 40d7 783d 3331 97bc baca 63bd 53ac 87bc
00000230: a12a 373b bce0 aa3c 7a80 91bd e1dc 4abd
00000240: 420c b8bd 1aa9 a7bd 19b2 96bd b952 f8bc
00000250: 31eb 7b3d 6144 573c 923a 873c ff6f 39bd
00000260: 5411 293d ec44 4cba ac98 8ebb b98e 543d
00000270: ae0d 433d bb97 d63c 955e 343d ce69 203d
00000280: b366 b3bc ff30 113b 1dcd 5cbd 48a3 85bb
00000290: bfba 773c afa2 b439 f056 673d 2be8 d43b
000002a0: f14f 8abd 381b 263b eeff 69bc 8838 3c3d
000002b0: 99cd 433d 3e52 313d 9f99 633d 8323 ddbc
000002c0: 6695 12bd b450 04be af8b d0bd ec4d b4bd
000002d0: 403b 7e3c 9dab 0c3d 8210 e3bb 22d3 d7bd
000002e0: 6670 ac3c 8d0e 40bc c7db ec3c e9c9 913c
000002f0: 5b87 e13c ec62 263d 9db6 f3bb d0bf a63d
00000300: 63ba edbc bb3a 9b3c eb0f 24bc b305 843c
00000310: 75e6 23b9 9029 0c3d f849 953c 2235 283c
00000320: a8e6 0e3c 9873 8ebd 3f51 b5bc db01 45b9
00000330: b361 4f3b 921c 50bc 3c8e bc3c a5dd c1bc
00000340: 98a3 34bd b5e5 4f3d 2169 373d 65b1 3a3d
00000350: 662b 473c b253 e0bc 0325 a13a 2bd7 edba
00000360: 945f f2bd be97 a03c 348d afbc b9b3 4dbd
00000370: 149b fabd 65ec b03c 87e7 adbc 20f0 e0bd
00000380: 32df a83c 2e66 0fbd c0be fabd df86 e9bd
00000390: 0ed9 3f3c afa6 51bd 8cb8 84bd 8047 813c
000003a0: 3478 07bc 63ba 7f3d e598 113d bbf2 f13b
000003b0: 5c1f cd3c 7618 8e3c ce5f f73c 29c7 f63c
000003c0: d394 bd3b 0d80 b93c eeae 82bd 8fa5 98bd
000003d0: 346f 57bd 6b8f 33bc 9361 113d 13ba a83d
000003e0: 4e8a 883d fed5 183d 160f 533d b3e1 73bb
000003f0: f675 60bc 1e49 58bd 8245 b7bb 23ae a4bd

fc1.bias f4 [50]
0.0599531 0.03562171 -0.0046308 -0.005091283 0.029415594 -0.00019336108 0.005612153 -0.017317293
0.0337272 0.012390406 0.024510356 0.062465645 -0.023001522 0.003266259 0.003193491 -0.035203576
0.07160156 0.03148071 0.07761018 -0.02726376 0.035609525 0.031037547 -0.024073962 0.050693303
0.046689924 -0.0020589274 0.08820007 -0.020463768 -0.03367949 -0.02546048 -0.018653851 0.0521839
0.011172956 -0.02879257 -0.040128313 0.09351865 0.019955257 -0.06009712 0.04528151 -0.02298775
0.026407415 0.078784145 0.038175385 -0.033817254 -0.014468979 0.03210433 -0.035054844 -0.04216554
0.059258077 0.046934772
00000000: 6291 753d 12e8 113d f7bd 97bb c7d4 a6bb
00000010: f9f8 f03c f8c0 4ab9 27e6 b73b ffdc 8dbc
00000020: 8825 0a3d 2101 4b3c f1c9 c83c fadb 7f3d
00000030: b06d bcbc bc0e 563b e349 513b a031 10bd
00000040: d7a3 923d ebf1 003d 16f2 9e3d 4058 dfbc
00000050: 4bdb 113d 7442 fe3c c236 c5bc c8a3 4f3d
00000060: ef3d 3f3d 12ef 06bb 3da2 b43d a2a3 a7bc
00000070: 81f3 09bd 7f92 d0bc f6cf 98bc c9be 553d
00000080: c60e 373c 65de ebbc 965d 24bd b586 bf3d
00000090: 3579 a33c 6628 76bd 1b79 393d ce50 bcbc
000000a0: 5d54 d83c 9559 a13d cb5d 1c3d f683 0abd
000000b0: 4c0f 6dbc d47f 033d ab95 0fbd c6b5 2cbd
000000c0: 99b8 723d ad3e 403d

fc2.weight f4 [10, 50]
0.18245581 -0.07412302 0.2103377 0.13669316 -0.1330156 -0.047528777 -0.15373057 -0.22050402
-0.10049912 -0.1728499 -0.22661917 -0.14877012 -0.10059145 0.18151124 0.25034082 0.1675689
-0.015724212 0.2615309 0.16148154 -0.028342413 -0.10976792 -0.15367612 -0.08790067 -0.1997892
0.018931473 -0.21389954 -0.19940968 -0.29190743 -0.059688423 0.20439427 -0.13063441 -0.11720917
0.20755938 0.11707107 -0.12664638 0.19930533 0.12541656 0.050642483 -0.056392506 -0.15849562
-0.16197786 -0.20787504 0.06973808 -0.087519035 -0.043298915 0.27340084 -0.09438569 -0.049081292
0.06344087 0.21128513 -0.058263328 0.11729243 -0.17557998 -0.02133549 0.19194855 0.16182688
-0.21650113 0.07424797 0.048802637 -0.17273207 0.09310923 0.21691272 -0.07743525 -0.14603147
-0.021701558 -0.24445114 0.17419383 -0.06933322 -0.20647138 0.11326852 -0.1578011 0.10659864
0.1559977 0.19297539 0.19111902 -0.25048417 -0.30851075 0.10210768 0.1679563 -0.006559485
0.18970242 -0.17027675 -0.18816182 -0.22706851 0.17382017 0.012223889 -0.16108659 -0.086196184
0.17546715 0.2293727 -0.011334676 0.026800042 -0.13283746 -0.22405115 0.15205462 -0.14377792
-0.16141978 0.22007926 -0.25937828 0.018669019 -0.11882023 0.0068701454 -0.10889693 -0.019437
-0.10505977 0.17692903 0.14350055 0.11738209 0.19646305 0.04453297 -0.047819678 0.23115773
0.09438954 0.15449952 0.20601489 0.10499914 -0.067521155 -0.09527797 -0.124633215 -0.21679349
-0.093720056 0.12263444 -0.087147795 -0.19786201 -0.08975379 -0.0953116 -0.20444098 -0.023892848
-0.23463646 -0.036239665 -0.12645657 -0.11248672 0.10891431 -0.17494524 0.18046202 0.14789271
-0.075604536 -0.11811456 0.1553994 0.1293464 0.2002289 0.19117527 -0.10827876 -0.06657815
0.0390573 0.20911263 0.008182204 0.20726904 -0.14582762 0.18373846 -0.04652892 0.20753679
0.040203184 -0.1563893 -0.040995345 -0.17814381 0.10508306 0.12313441 -0.011181575 0.062254988
-0.034569904 0.21530178 -0.14268462 0.012895258 0.13543044 -0.05758498 -0.1832443 0.017021663
-0.1064036 0.15739892 0.19251601 0.17276143 0.15395887 -0.1446394 -0.21818848 -0.15058033
0.15556668 -0.082560375 0.20523311 -0.130332 -0.29202038 0.24118736 -0.1525299 0.17010783
0.015212392 0.09321533 0.20742874 0.0071954667 -0.21218733 -0.1116489 0.17412958 0.18706638
-0.1659949 0.1441273 0.15591294 -0.035606265 -0.11705714 -0.05692513 -0.08163809 0.13968806
-0.068752356 -0.018343441 -0.058969844 0.07532532 0.05248254 0.17653443 0.16287617 -0.22266829
-0.1297921 -0.17391245 0.22918119 -0.015513163 0.27135137 -0.19031276 -0.086657345 0.1389048
-0.052125093 -0.14586899 -0.09312982 -0.15686771 -0.11329052 -0.18715705 0.17989972 0.22942674
0.12861095 0.20848615 0.082330346 0.13449878 0.12474313 -0.1369592 0.11565589 0.22846441
-0.17411637 -0.26508403 -0.10510024 -0.19515724 -0.11235258 0.3043883 0.17853402 -0.063056745
-0.21251677 -0.099912494 0.16930199 -0.03287053 -0.1454929 -0.025907991 -0.08362373 -0.18124163
0.21756461 -0.14967921 0.1106546 -0.11513772 -0.07027965 -0.22815119 0.016676413 -0.11623406
00000000: b2d5 3a3e cfcd 97bd c462 573e 4bf9 0b3e
00000010: 3e35 08be 89ad 42bd 8c6b 1dbe cecb 61be
00000020: 7cd2 cdbd 90ff 30be db0e 68be 3257 18be
00000030: e402 cebd 15de 393e ac2c 803e 2f97 2b3e
00000040: 10d0 80bc 61e7 853e 6b5b 253e 592e e8bc
00000050: 01ce e0bd 465d 1dbe 4405 b4bd 8a95 4cbe
00000060: 2d16 9b3c 7b08 5bbe 0d32 4cbe e474 95be
00000070: d97b 74bd bb4c 513e 07c5 05be 5c0b f0bd
00000080: 728a 543e f5c2 ef3d 97af 01be b216 4c3e
00000090: 336d 003e 7e6e 4f3d d4fb 66bd ad4c 22be
000000a0: 86dd 25be 32dd 54be d7d2 8e3d 2e3d b3bd
000000b0: 345a 31bd 32fb 8b3e 494d c1bd 7709 49bd
000000c0: 49ed 813d 215b 583e 87a5 6ebd 0337 f03d
000000d0: 3dcb 33be c4c7 aebc 298e 443e f2b5 253e
000000e0: 79b2 5dbe 520f 983d 46e5 473d ade0 30be
000000f0: 0db0 be3d 5e1e 5e3e 5f96 9ebd 4689 15be
00000100: 77c7 b1bc 6651 7abe de5f 323e 93fe 8dbd
00000110: 3c6d 53be 53f9 e73d 9d96 21be 6350 da3d
00000120: dcbd 1f3e 579b 453e b4b4 433e 763f 80be
00000130: 1ff5 9dbe d51d d13d bcfc 2b3e f3f0 d6bb
00000140: 5a41 423e 075d 2ebe 7ead 40be a684 68be
00000150: eafd 313e b546 483c e2f3 24be a087 b0bd
00000160: a9ad 333e ade0 6a3e 14b5 39bc c38b db3c
00000170: 8b06 08be aa6d 65be 35b4 1b3e 853a 13be
00000180: 3a4b 25be 755c 613e 3bcd 84be c5ef 983c
00000190: 0558 f3bd f51e e13b 5b05 dfbd 583a 9fbc
000001a0: 9429 d7bd e22c 353e cff1 123e 0566 f03d
000001b0: 9c2d 493e 3468 363d 91de 43bd 9db4 6c3e
000001c0: 4e4f c13d 1f35 1e3e 91f5 523e ca09 d73d
000001d0: 8848 8abd 1921 c3bd b33f ffbd 1dff 5dbe
000001e0: 4df0 bfbd c427 fb3d 8b7a b2bd 579c 4abe
000001f0: d6d0 b7bd ba32 c3bd fa58 51be efba c3bc
00000200: 8a44 70be 0b70 14bd d57d 01be 705f e6bd
00000210: 770e df3d d824 33be 09cb 383e 3071 173e
00000220: 8dd6 9abd 0ce6 f1bd 0521 1f3e 6273 043e
00000230: ce08 4d3e 73c3 433e 41c1 ddbd 205a 88bd
00000240: 8cfa 1f3d 9f21 563e a70e 063c 563e 543e
00000250: d653 15be ef25 3c3e 1c95 3ebd 8684 543e
00000260: 18ac 243d 8424 20be bcea 27bd 556b 36be
00000270: ca35 d73d e52d fc3d ed32 37bc 16ff 7e3d
00000280: 2c99 0dbd 1278 5c3e eb1b 12be a246 533c
00000290: 47ae 0a3e 3ade 6bbd 65a4 3bbe 0471 8b3c
000002a0: 21ea d9bd 2f2d 213e eb22 453e 5fe8 303e
000002b0: 65a7 1d3e 5a1c 14be cd6c 5fbe bb31 1abe
000002c0: df4c 1f3e 6a15 a9bd a128 523e c075 05be
000002d0: b283 95be d2f9 763e cc30 1cbe bf30 2e3e
000002e0: 663d 793c aee7 be3d 3368 543e f3c7 eb3b
000002f0: a347 59be 2ea8 e4bd 064f 323e 548e 3f3e
00000300: 91fa 29be 1b96 133e a4a7 1f3e e0d7 11bd
00000310: a7bb efbd 532a 69bd df31 a7bd 630a 0f3e
00000320: 09ce 8cbd fc44 96bc 5d8a 71bd 2944 9a3d
00000330: eff7 563d 71c5 343e 03c9 263e 2803 64be
00000340: 38e8 04be 1b16 32be 79ae 6a3e ec2a 7ebc
00000350: 91ee 8a3e 59e1 42be 6879 b1bd 0f3d 0e3e
00000360: 1f81 55bd ae5e 15be d9ba bebd eea1 20be
00000370: dc04 e8bd 19a6 3fbe a237 383e d8ee 6a3e
00000380: 97b2 033e 657d 553e d09c a83d 0cba 093e
00000390: 5379 ff3d 083f 0cbe ffdc ec3d 93f2 693e
000003a0: 904b 32be 18b9 87be cb3e d7bd 4dd7 47be
000003b0: 1c19 e6bd c9d8 9b3e 9fd1 363e e523 81bd
000003c0: ff9d 59be ec9e ccbd 805d 2d3e 40a3 06bd
000003d0: 17fc 14be ff3c d4bc eb42 abbd 6897 39be
000003e0: 42c9 5e3e 8245 19be e19e e23d 53cd ebbd
000003f0: c7ee 8fbd 77a0 69be f99c 883c 1f0c eebd

fc2.bias f4 [10]
-0.026593968 0.063175656 -0.061204247 -0.14109658 -0.031926434 0.09631206 -0.1915827 -0.117501415
0.12256358 -0.010551459
00000000: 98db d9bc 3d62 813d 4eb1 7abd 9f7b 10be
00000010: 4bc5 02bd 423f c53d 412e 44be 95a4 f0bd
00000020: 9d02 fb3d 07e0 2cbc
