results/mnist_model.pth (torch, 90416 bytes, 8 tensors)

conv1.weight f4 [10, 1, 5, 5]
00000000: af5f d33c fabd 5bbe 72e8 86be 97f9 5cbe
00000010: 61b9 97be eec1 2e3e bcd9 573c ad5e 0fbd
00000020: 60bd e7bd 053e 0dbe 5052 f33d 3c02 583e
00000030: 01f7 4a3e 6c4a d43c 501f 29bd b655 04be
00000040: 9af1 a03d 2053 343d a6e9 4b3e f4e1 8a3d
00000050: 1187 83be fe8c 93be 3b3d 76be f7e5 89be
00000060: 99f2 1dbe 1596 063c 1759 4d3e 7041 ebbd
00000070: f864 09bf 2171 65be a896 303d 5dff 623e
00000080: 1b0a ffbd 804b 01bf e489 e5be 0f38 1ebe
00000090: 590c 533e 4000 9fbe 40be 9bbe 245f c9be
000000a0: 1647 8c3d e8c0 f1bd 186d c1bd d239 b9be
000000b0: 9b06 bbbe 009b 31bc 6a77 a6bd 3612 7fbd
000000c0: 07ac 8ebe 102d 46be e882 c1be 2c98 77be
000000d0: bb1b 313d 7041 983c fafa 973e 9492 2ebe
000000e0: b4a4 d6bd ebf8 193d 505b 6e3e 7dd8 8bbc
000000f0: 129d 92be 2873 0a3e 7c7a ba3e 7fd8 973e
00000100: cbf3 cabe 1842 7f3c c2ad f93d 3710 403e
00000110: b9a4 45be 539c d5be 7a52 093d f89d f5bd
00000120: ca8a 11bd 45fd 4cbe 67d0 eabd 3dbc f43d
00000130: a8e0 4e3e cf2d 373e 12cf 43be d557 713d
00000140: ad4c 51be 1101 14be 1a1a 163d e70f 16bb
00000150: c94d 1c3e eadf 1abe ecfa 51be 2c55 c93d
00000160: 15f5 9ebc b88f 303e 9d02 533d 5be2 5dbe
00000170: c3ba 14be a0d6 8dbd a956 46be 15b6 0dbd
00000180: 3da1 793d d774 f1bd d05c 42be 4d65 16be
00000190: 020b f83d cb73 92bd ac0d 4e3d c0ed 023b
000001a0: 2169 69be 46b4 a9be f877 5a3d ef03 3bbe
000001b0: 7269 12be 9add 8bbd f46d 34be 10f8 313d
000001c0: 0b83 27bd e538 b1be 0e0d b93c 0eef d4bd
000001d0: c794 0a3d 1d2e 2ebc 2283 d0bd 80e3 693a
000001e0: 6aab f9be 0fd8 71be 10a7 b03d e216 5abd
000001f0: fa1c 7c3e 739d 8abe b0e1 cabe 303f 76be
00000200: 8939 df3d dc7b a33e 8428 97be ffa1 9ebd
00000210: 13a6 c63d 6588 333e d40c 773d 7c34 b73d
00000220: 8cf8 353c 1674 d8bd 1ab8 3fbe 9280 a7be
00000230: ae19 bfbd 5e24 31be 8899 b1be 109b e93a
00000240: 562d 3c3c 219e b4bd 3063 90bd 9b55 c6bd
00000250: f251 c73d bfc7 5a3e c395 a9bd e7ef 0e3e
00000260: fa02 ecbd d19a 98bd 4106 78be 8649 61be
00000270: 1f6c 7fbe 22e8 21be b2ab 0d3e 7438 a2bd
00000280: bd64 6abe 80ff b338 b613 2e3d 4e23 063e
00000290: 8ebf 20be a0b3 d639 35b5 d7bd 5fd2 81bd
000002a0: c05e 2cbe 4689 d5bd eab8 88bd 3bf2 653d
000002b0: dc28 c33b 35d2 a63d ba9d 9a3e 4c0e 483c
000002c0: de03 5e3d 1173 d83c 3b07 dabd 1a95 383e
000002d0: 5350 60be 90e8 49be ab47 b4be 083d abbe
000002e0: 4bba bbbe 9e31 043e 8795 52be 68d4 7abe
000002f0: 7ede 8abe 40f3 96be a9a8 373e 47cf fe3d
00000300: 2c4b 203d 44a6 c1bc c777 0a3e ce1e 48be
00000310: a4e9 5c3e e082 8d3e 6abc 783e 86ed aebd
00000320: acd7 d3bc 0efe 49be afb6 f43d c384 04be
00000330: 54f8 6dbc a7b0 febd 14fc 26be c702 0ebe
00000340: cc2f 5f3b d341 8f3d bc04 a4bd 2442 c9bd
00000350: 2e37 b0be c655 a63d 5071 6f3e 52a2 003d
00000360: b0d8 27ba 23c1 98be 27d1 0dbe 00f6 883e
00000370: 3bb9 d6be ba38 fabd 3baa d1be 6d27 bfbe
00000380: a6c6 013d c2eb 0fbe 31e7 0fbd 9e07 4e3e
00000390: dbe5 203e 0d50 6e3e cee8 32be bd8c 96be
000003a0: b30c 2a3e e4e9 62bd c1b0 30bd 1e2b 3cbe
000003b0: fb17 b5be f423 9e3b a46c e63d f56b 15be
000003c0: 3725 cdbe ea7d 78be 5227 00be 8382 ebbd
000003d0: ac6d f6bd 9318 86be e171 efbe 2022 d6be
000003e0: 8cbc 97be 9414 823d
0.025802461 -0.21459189 -0.26349217 -0.21579586 -0.2963362 0.17066166 0.0131744705 -0.0350024
-0.11315417 -0.1379319 0.11880934 0.21094602 0.19820787 0.025914393 -0.041289628 -0.12923321
0.07858582 0.044024587 0.19913349 0.067813784 -0.25688985 -0.28818506 -0.24046795 -0.26933262
-0.15424575 0.008214493 0.20053516 -0.114870906 -0.5366969 -0.22406437 0.043112427 0.22167726
-0.12453099 -0.5050583 -0.44831765 -0.15451072 0.20610179 -0.31054878 -0.30418587 -0.393304
0.06849496 -0.11804372 -0.09444636 -0.36176926 -0.36528477 -0.010840178 -0.08128245 -0.062273227
-0.2786562 -0.19353127 -0.37795186 -0.24179143 0.043239336 0.01858589 0.29683667 -0.17048103
-0.104806334 0.037590902 0.2327702 -0.017071003 -0.2863546 0.13520491 0.36421573 0.2965736
-0.39639124 0.015579723 0.12191345 0.18756185 -0.19301118 -0.41720828 0.03352592 -0.11993021
-0.03553275 -0.2001849 -0.11465531 0.11949966 0.20202887 0.17888568 -0.1912196 0.058921654
-0.20439406 -0.14453532 0.036645986 -0.0022897662 0.15264048 -0.15124479 -0.20505875 0.09830698
-0.019403974 0.17242324 0.051516164 -0.21668379 -0.14524369 -0.06925702 -0.19368996 -0.034597475
0.060944784 -0.117898636 -0.18980718 -0.1468708 0.121114746 -0.07150992 0.050306007 0.0019978136
-0.2279401 -0.3314535 0.053337067 -0.1826322 -0.14298037 -0.068293765 -0.17620069 0.04344946
-0.040896457 -0.3461372 0.022589233 -0.103971586 0.03383329 -0.010631111 -0.101812616 0.0008922145
-0.4876359 -0.23617576 0.08625615 -0.05324448 0.24620429 -0.2707325 -0.3962531 -0.24047542
0.10899646 0.31930435 -0.29523098 -0.07745742 0.09699645 0.17532499 0.06031497 0.089455575
0.0111066215 -0.10569017 -0.18722573 -0.3271528 -0.0933107 -0.17299029 -0.34687448 0.0017822701
0.011485418 -0.08819223 -0.070501685 -0.09684297 0.09732427 0.2136526 -0.08280518 0.13958703
-0.11524005 -0.07451404 -0.24221136 -0.22000703 -0.24943589 -0.15811208 0.13835028 -0.07920924
-0.22889991 8.582976e-05 0.042499267 0.13099405 -0.15698072 0.00040951092 -0.105326094 -0.06338953
-0.1683302 -0.104265735 -0.066758946 0.056139212 0.0059557986 0.081455626 0.3019846 0.01221044
0.054202907 0.026422055 -0.1064591 0.18025628 -0.21905641 -0.19717622 -0.35210928 -0.33445
-0.36665568 0.12909552 -0.20564853 -0.24495089 -0.27122873 -0.2948246 0.17935432 0.12441879
0.03913419 -0.023638852 0.13522254 -0.19543001 0.21573502 0.27638912 0.24290624 -0.08541398
-0.025859676 -0.1972582 0.11948907 -0.1294127 -0.014524538 -0.124360375 -0.16307098 -0.13868247
0.0034055589 0.06994977 -0.080087155 -0.098270684 -0.344171 0.08121829 0.23383069 0.0314048
-0.00064028334 -0.29834852 -0.13849317 0.26750183 -0.41938195 -0.12217851 -0.40950188 -0.37334767
0.031683587 -0.14054778 -0.03513259 0.20120093 0.15712683 0.23272724 -0.1747162 -0.2940425
0.16606407 -0.055398837 -0.043137316 -0.18375823 -0.35369858 0.0048260633 0.1125119 -0.14591964
-0.40067455 -0.24266782 -0.12515 -0.114995025 -0.12032637 -0.26190624 -0.4676657 -0.4182291
-0.29636037 0.06351581

conv1.bias f4 [10]
00000000: a073 2fbe 82ef 84bd a295 02be 09aa c53c
00000010: 6a81 0e3e dcf1 fbbc d851 1b3e 1b89 27be
00000020: 2784 3cbd 98f1 8f3d
-0.17133951 -0.06490995 -0.12752393 0.02412893 0.13916555 -0.030754976 0.1516794 -0.16360895
-0.046024468 0.07028502

conv2.weight f4 [20, 10, 5, 5]
00000000: b21c 383c 87c5 17bd 87f6 44be 8a36 84bc
00000010: ca45 2f3d ea6d b5bd 9813 37bd e842 2dbe
00000020: dc02 81bd c7e1 24bd 183d 2abd 7eb3 bbbd
00000030: c46b a8bd 7a11 a23d 1068 933d fefb cbbd
00000040: dffd 81bd 9891 713c 9cba 85bc 5a80 8cbc
00000050: 0ce6 cdbd ed8f 36bd 54cd 2f3d 9a0c d8bc
00000060: f729 edbd 83eb fbbd 4c48 55be 58e4 e4bd
00000070: 20b5 43be 7196 18be c6f5 05be 7fb0 35be
00000080: 0f9c 29bd b2c7 a9bd a989 23be 4161 01be
00000090: dab5 15bd c67a c8b9 6d14 adbd da99 28be
000000a0: ce7e c6bd bc36 603c 66dc 003d 44d7 f4bd
000000b0: 4218 10be 98ea 18bd e3f1 6b3d 8cac f43b
000000c0: ecd8 21be da20 b5bd 519d cabb a8c4 89bd
000000d0: 11bc a8bd f143 19bd 5b18 863d c291 fbbd
000000e0: 5349 ddbc 00a9 87bc 6094 f73a 6eba 80bd
000000f0: f4d3 b6bd f358 4dbd 8a83 13be fe53 28be
00000100: 7cf7 32bd 9612 57bd bb3a 02be 3005 2fbe
00000110: 2f2e 6cbe 4ad4 f2bd 6b5f 313c c386 12be
00000120: 371c 86be 8e78 49be 983b e0bd 1811 46bb
00000130: 94fe 97bd 4329 3ebd 2db0 65bc d939 32bd
00000140: 3b05 b5bd 73b0 dcbd d4bd 25be 627a 58bd
00000150: dbde 6dbd ee5c 95bd 0a2c e7bd 4808 08be
00000160: baa6 2ebe 3678 e8bd caec e73c b75e c8bc
00000170: b49b 5dbd 8b86 c9bc 0d42 6a3d dcd5 9f3a
00000180: 071c 703d b904 ec3c a346 953c abbc b9bc
00000190: cf96 1abd 7411 12be 546e 14bd f88c 71bd
000001a0: 388e b23d ff62 03be e1d8 42be 7b4b 85bc
000001b0: bea2 483d cce7 b03a 0bec 28be 9072 c53c
000001c0: f494 203d 4c01 1cbd 9628 2ebc 0cbc d8bd
000001d0: 152e 513c 0aa9 fc3d 221a 9d3c 841a 86bd
000001e0: 907e e1bc 6d39 02be cc2e bebd da46 04be
000001f0: f991 2cbe 4b91 2bba e53c 13bd e166 e0bd
00000200: 74b2 96bd fee1 32bd eb7f 8cbd 5150 533d
00000210: 24a6 363d 6bae 813d 92d8 f33c fec9 803b
00000220: f39f ca3d 15e1 d4bc 1330 f53c 2238 57bc
00000230: 5f1b 9abd a634 e23c 98ec ffbc d50e cdbd
00000240: 06e4 bcbd 623b 93bd 0523 e6bd 3616 4fbe
00000250: f535 a2bd 27c9 05be ca05 44bd b7ba 2dbd
00000260: 2f4e 97bc d21a 96bd fda9 af3c 06b4 e63a
00000270: c353 9abd 96df 813d 00a1 3fbd a351 5dbd
00000280: c935 82bd 603d 763d f875 f73b 0b61 ba3c
00000290: 07ec 85bd ef1d 08bc 8587 71bd 19cc 9bbd
000002a0: 36fd 25bd 9223 9cbd e6e2 923b d370 4bbd
000002b0: fa24 1dbc 54f9 d7bc ec42 67bd 5813 abbd
000002c0: 21ab 3ebc abfb 10be e000 0fbe 7ff9 31bd
000002d0: aa5d dcbd 2d94 9fbc 543f 58be b5b7 9ebd
000002e0: 69ef 983d 5a3e b5bd 3d78 efbd 6c91 a3bd
000002f0: 8436 7abd dc2d 8639 cf2e 43bd cd4e fabd
00000300: b440 eabc e883 233b a848 94bb 77db fd3d
00000310: cdac 15bd e6fd 3abd 76e2 1bbd 2384 48be
00000320: 018b a7bc 7a5b efbd a226 dabd 3d58 2fbd
00000330: 15b9 32bd 9b9d 72bd e8e1 e6bd a4e8 2bbe
00000340: 7a21 8cbd f1fc d8bb 85ac 23bd 9ff4 29bd
00000350: b0dd 39ba d6c2 023d a1da 963d 540b b83b
00000360: 2f07 a8bd 2cbe 883d 752e 803d b912 6dbd
00000370: 5ff5 12be 7d34 15be b887 44bd 6807 28bd
00000380: a081 2abd 6626 503d d18c 5fbd f871 59bc
00000390: fc7f 24bd 6a18 84bd 1122 afbd dd5b c6bd
000003a0: 98b2 e6bd 8074 3abe 0851 0cbd 4999 69bd
000003b0: adf3 d6bc 90ed 26be 0ce2 2abe 8d13 02bd
000003c0: 83fc b6bd a86c cbbd 43b7 30bd 841b 5f3d
000003d0: 9270 063d 7f55 2ebe f330 0fbe 4518 a9bd
000003e0: b49a 003d 4cab 9abd 3887 76bd f738 6f3c
000003f0: 2e66 bdbd 0c65 da3b e717 3d3d 47d1 99bd
0.01123731 -0.03705361 -0.19234668 -0.016139288 0.042791165 -0.08858855 -0.04469642 -0.16920054
-0.062993735 -0.04025438 -0.04156217 -0.09165095 -0.0822368 0.0791349 0.07197583 -0.09960173
-0.0634725 0.014744185 -0.016324334 -0.017151047 -0.100536436 -0.044570852 0.042920426 -0.026373196
-0.1158027 -0.1230078 -0.2082836 -0.111763656 -0.19112062 -0.14901139 -0.13082036 -0.17743109
-0.041408595 -0.08290042 -0.15970482 -0.12634756 -0.03655038 -0.00038238446 -0.084511615 -0.1646494
-0.09692155 0.013684925 0.03146019 -0.11955121 -0.14071754 -0.0373331 0.057603728 0.0074668583
-0.15805405 -0.088441566 -0.0061833044 -0.06726962 -0.08238996 -0.03741831 0.06547614 -0.122836605
-0.027012503 -0.016560078 0.0018888824 -0.06285559 -0.089271456 -0.050133657 -0.14405647 -0.1643829
-0.04369305 -0.05250796 -0.12717716 -0.17091823 -0.23064493 -0.11856897 0.010825972 -0.1430922
-0.261934 -0.19674894 -0.109488666 -0.003022259 -0.07421604 -0.04642607 -0.014019054 -0.0435122
-0.08838888 -0.107758425 -0.16185695 -0.05285109 -0.05807386 -0.072931156 -0.11287697 -0.13284409
-0.17055789 -0.113510534 0.028311152 -0.024459226 -0.05410357 -0.024600288 0.057191897 0.0012194472
0.05862048 0.028810846 0.018222159 -0.022672972 -0.03774148 -0.1426447 -0.03623803 -0.05897233
0.08718532 -0.12830733 -0.19028045 -0.016271343 0.048983328 0.0013496815 -0.16496293 0.02410248
0.039204553 -0.038087174 -0.010629794 -0.10582742 0.0127673345 0.12336929 0.0191775 -0.06548026
-0.02752617 -0.12717219 -0.092862695 -0.12917653 -0.16852559 -0.00065447827 -0.035946745 -0.109571226
-0.07358256 -0.043672554 -0.06860336 0.051590268 0.044592038 0.06332096 0.029766355 0.0039303293
0.09893789 -0.025986234 0.02993015 -0.013135942 -0.07524752 0.027612995 -0.031240746 -0.100125946
-0.092231795 -0.07189061 -0.11237148 -0.20223317 -0.07920448 -0.13065015 -0.047857083 -0.042414393
-0.018469898 -0.07329334 0.021443361 0.0017601259 -0.075355075 0.06341474 -0.0467844 -0.054032933
-0.06357915 0.060117126 0.007551905 0.022751352 -0.06539159 -0.008307918 -0.058967132 -0.07607288
-0.040524684 -0.07623972 0.004482615 -0.049668144 -0.009591335 -0.026364006 -0.056460306 -0.08353299
-0.01163748 -0.14158504 -0.13965178 -0.04345083 -0.107600525 -0.019479835 -0.21117908 -0.07749883
0.07467539 -0.08849783 -0.116928555 -0.079867214 -0.061087146 0.0002559264 -0.047652062 -0.12222061
-0.028595306 0.0024950448 -0.004525263 0.12395375 -0.03654175 -0.045652293 -0.038057767 -0.19581656
-0.020452024 -0.1168737 -0.106519 -0.04280876 -0.04363354 -0.059232336 -0.11273557 -0.16787964
-0.06842323 -0.00662195 -0.03995945 -0.041493054 -0.0007090224 0.03192409 0.07365919 0.005616585
-0.08204495 0.066768974 0.06258861 -0.057879183 -0.14351414 -0.14570804 -0.047980994 -0.04102269
-0.041627526 0.05081787 -0.054577652 -0.013271801 -0.040161118 -0.06449969 -0.085514195 -0.0968549
-0.11264533 -0.18208504 -0.034256965 -0.05703095 -0.02623924 -0.1630156 -0.16687793 -0.031756926
-0.089348815 -0.09932834 -0.043143522 0.0544696 0.0328222 -0.17024802 -0.13983516 -0.08256582
0.031397536 -0.075522035 -0.06018755 0.014600984 -0.09248005 0.0066648778 0.046165373 -0.075106196

conv2.bias f4 [20]
00000000: 80a3 02bd 310d 44bd 4069 d83a f7ba 4fbe
00000010: 3f8c 9dbc d2e0 97bd ebec 17bd 1589 aabd
00000020: 6790 95bd bb80 a83c 29fa 89bb f5bc 5abd
00000030: a01c 7dbd 68c2 893c 0f43 58bd 265b 0bbe
00000040: d031 3ebc d0dc ddbd f43f 4cbd df10 983d
-0.031894207 -0.047864143 0.0016510859 -0.20286165 -0.019231914 -0.07415928 -0.037091177 -0.083269276
-0.07302933 0.020569196 -0.0042107296 -0.05340286 -0.061794877 0.016816333 -0.052798327 -0.13608989
-0.011608556 -0.10833132 -0.049865678 0.07425093

fc1.weight f4 [50, 320]
00000000: d5ef f3bd 9f52 68bd a416 57bc 4815 66bd
00000010: 94c6 363d b5f8 f53b dfd0 5b3d 7924 a8bc
00000020: d22d f9bc ba41 3a3d 08d0 ec3b 7391 8f3d
00000030: 2ea9 433d a31d aebd 7346 0bbc 07e1 263d
00000040: e68e a6bd 3e4b 35ba 2759 33bd 1a58 0e3d
00000050: a277 403d b049 1f3c 518a 8aba d983 2dbd
00000060: db62 3c3c 66c7 943c ebfc a43c e48c 97bc
00000070: 3f74 22bc 42c7 d1bc c131 fb3b 89bc 83bb
00000080: f6ec 8abd f0b8 203c f058 893a faad 07bd
00000090: 563b d6bc 4c38 c83c ffb0 093d fd32 c63d
000000a0: bd5f bb3b 75b0 ce3c 889a c03b 5dd7 8d3c
000000b0: ae28 12bd 40d0 293b 3edc 203d 3c17 99bd
000000c0: 84f6 063d e653 c33c f438 b43b 4a3a 3e3d
000000d0: 60c1 afbc 7909 f23c 350d c4bc 2c33 bf3c
000000e0: 4dc8 08bd 1823 bbbc 6ff2 adba 3fd2 3dbd
000000f0: f948 3bbd 561f e6bc 30db d7bc 49dd dfbd
00000100: 6747 853c fab4 4d3b 1463 15bd 56a8 5fbd
00000110: dfd4 003d 79c6 0ebc 85bb 99bd c8e9 45bd
00000120: 4453 883c cb88 00bd 3134 df3c a18e 5d3d
00000130: e5e6 1ebc d3ea 9f3c dbeb 8d3c 56c1 833c
00000140: e849 44bd a4de bc3c 0e4c 13bd f84e 19be
00000150: b87a 00ba be73 0f3c 5e96 e4bc 7bd2 b13b
00000160: d290 97bc c52b f2bb 299f 20bc 9220 223d
00000170: 6033 db3c 6631 c83b f10c a63d c1d1 583d
00000180: 3abf ec3c f818 8b3c c27c 3b3b c121 0fbd
00000190: 82ad 2f3d 6829 c93b 983e f0bc 6896 323d
000001a0: 3459 e93c a0c2 fdba b9aa 863d 18e0 953d
000001b0: a2ae a73d ee44 5e3d fc53 953d 1c71 cf3d
000001c0: dc2f dfbc 5f98 05bc 0d91 a23d 5472 f63c
000001d0: d6a8 f53b 793a a4bc 28f4 d0bb 0c2e a73c
000001e0: 49ed 053d fefb 4bbd 97a9 82bd a89a 76bc
000001f0: 4367 8a3c 6774 cdbc 96ba 10bd 7194 48bc
00000200: 77c9 a4bd 56ba 51bc 6f1a b03d f2cd 013d
00000210: 3508 33bd 7138 b83c e577 8c3d 41db 403d
00000220: e2b4 373d 4a24 9dbc 734d 6abd a280 17bd
00000230: f67b 1f3c fbe3 013d c2ea 66bd 8fef b1bd
00000240: a883 d1bc ba00 52bd b8eb 85bc 2c47 f53c
00000250: 07c3 233e b41a e13d f711 a53d c252 ae3c
00000260: 2dbf 2b3e 2eef 0f3e a497 8a3d d84d 043e
00000270: cdab 1c3e c6f0 043e 7990 e13d 31ce 153e
00000280: 3b06 84b9 c270 93b9 5b29 4dbd 7244 f2bb
00000290: 613c cb3c 1458 e1bc 0d57 253d c6de 6f3c
000002a0: e374 94bd 4ea0 07bc c3d7 203c 4b19 703d
000002b0: 0e3f 1c3d 78c8 663d 3639 853d 8748 15bd
000002c0: 3529 06bd ae25 e8bd 49bf fbbd 565f aebd
000002d0: 7b66 003d b52a 6d3d 0088 0eb7 6f11 b9bd
000002e0: a9f1 3f3d 2864 253d 18a2 4c3d 8c5f 573c
000002f0: f06f 7e3d b8bc 6c3d 110b 9d3c 4586 bb3d
00000300: 1f15 e3bc f30c f13c 3f4d a03c 5d2a 113d
00000310: 5598 e63b 2134 873c 159a 583c 8b9d eb3b
00000320: 4443 993c 083e 8fbd c521 f4ba 4bca 2c3c
00000330: d9fc 05bc c7b3 adbc d3b4 0a3d 4b0b 8ebc
00000340: a72f 84bc 9e21 9f3d ad6a 873d 8577 4f3d
00000350: a2a4 a1ba 653d e7bc 6b7c 76bb 2500 ddbb
00000360: 45ca 00be 93da 453d 3d25 e5bc 7115 9ebd
00000370: f011 06be 1dc1 0a3d a0ef acbc 47cb 10be
00000380: 22f4 093d 3c97 5bbd ba33 14be a34d 04be
00000390: a0a0 f43c 943a 77bd e352 85bd c962 a93c
000003a0: 4b9a 15bb d181 973d eb95 803d 5861 933b
000003b0: c139 e23c e6c9 263d 272b 003d 144f 113c
000003c0: f0f6 d5ba a538 c83b fa92 94bd 6763 61bd
000003d0: bd90 ccbc 2acc a3bc b332 1f3d 7fb5 c53d
000003e0: 0ca8 8e3d aa79 dc3c 01ac 7f3d 7907 3d3b
000003f0: 46ce 86ba 4b18 bdbd 636d 46bd e85c afbd
-0.11910979 -0.05671942 -0.013127957 -0.05617264 0.044622973 0.007506455 0.053665992 -0.020525204
-0.030417357 0.045472838 0.0072269477 0.07010164 0.047768764 -0.085017465 -0.008500683 0.040741947
-0.081327245 -0.0006915814 -0.043786194 0.03475199 0.04698909 0.009722158 -0.0010569786 -0.042362068
0.011498178 0.018161487 0.020140132 -0.0184998 -0.009915411 -0.025607709 0.0076658432 -0.004020278
-0.06783478 0.009809718 0.0010478776 -0.0331249 -0.02615134 0.024440907 0.033616062 0.09677694
0.0057182 0.025230626 0.0058777966 0.017314607 -0.035683326 0.002591148 0.03927254 -0.07475135
0.03294994 0.023843717 0.0054999534 0.046442308 -0.021454513 0.029545533 -0.023932079 0.02333983
-0.033394147 -0.022843882 -0.0013271103 -0.046343084 -0.04572389 -0.028091114 -0.026349634 -0.10930879
0.016269399 0.0031388388 -0.03647144 -0.054603897 0.03145301 -0.008714312 -0.0750647 -0.048318654
0.016641267 -0.031380456 0.027246566 0.0540911 -0.009698604 0.019521153 0.017324379 0.0160834
-0.047922045 0.023055382 -0.035961203 -0.1497153 -0.0004901099 0.008755622 -0.027903732 0.0054267026
-0.018501673 -0.0073904716 -0.009803572 0.039581843 0.026757896 0.0061094044 0.08107937 0.052934412
0.028899778 0.01697968 0.0028608297 -0.0349443 0.04289008 0.006138969 -0.029326722 0.04360047
0.028484918 -0.0019360371 0.065755315 0.07318133 0.081876054 0.054264955 0.072914094 0.10128996
-0.0272445 -0.008154004 0.079378225 0.030083813 0.0074969335 -0.020047413 -0.006376762 0.020407699
0.032696996 -0.049800865 -0.06380003 -0.015051521 0.016894942 -0.025079919 -0.035334192 -0.012242422
-0.08046239 -0.012800774 0.08598792 0.031690545 -0.043709 0.02248785 0.068588056 0.047084097
0.044850238 -0.019182343 -0.057202768 -0.03698791 0.009734144 0.03171156 -0.056376226 -0.0868827
-0.025575474 -0.051270224 -0.016347751 0.029941164 0.15992366 0.10991421 0.08060067 0.021279696
0.16772147 0.14056084 0.067672044 0.1292032 0.15299912 0.12982473 0.11013884 0.14629437
-0.00025181644 -0.00028122036 -0.050088268 -0.007393413 0.024809064 -0.02750782 0.04036622 0.014640516
-0.07248857 -0.008277966 0.009817067 0.05861787 0.03814607 0.056343526 0.06505053 -0.03644612
-0.03275414 -0.11335312 -0.12292344 -0.08514278 0.031347733 0.057902057 -8.4955245e-06 -0.09036528
0.046861324 0.04037872 0.049959272 0.013145339 0.06211847 0.057797164 0.019170316 0.09156469
-0.027720032 0.02942512 0.019568084 0.03544079 0.0070372024 0.01650435 0.01322033 0.0071904114
0.018708833 -0.069942534 -0.0018625787 0.010546277 -0.008177959 -0.021203889 0.033863854 -0.01733937
-0.016136004 0.07770084 0.06612144 0.050651092 -0.001233239 -0.028227517 -0.003761078 -0.006744402
-0.1257716 0.04830415 -0.027971858 -0.077189334 -0.1309278 0.033875573 -0.021110356 -0.14140044
0.03368009 -0.053611025 -0.14472857 -0.12920241 0.029861748 -0.0603586 -0.0650995 0.020676987
-0.0022827561 0.073978074 0.062785946 0.0044976883 0.02761543 0.04071989 0.031291153 0.008868951
-0.0016324203 0.006110268 -0.07254596 -0.055026438 -0.02497136 -0.019994814 0.03886671 0.09653758
0.06965646 0.026913483 0.062419895 0.0028843565 -0.0010284863 -0.09233149 -0.048444163 -0.08562642

fc1.bias f4 [50]
00000000: 6397 923d 17dc 3e3d bb14 58bc 15a3 48bc
00000010: 2836 183d 848b ab3b cd02 60bb 0545 d8bc
00000020: ab0a 0d3d a036 b03c ff42 fd3c 56be 803d
00000030: 720d 8abc e15e 4b3c a8ef 533c 9a01 0abd
00000040: b760 c73d c15a 0a3d 05f7 993d 6065 cd3a
00000050: 5ae0 283d 6807 343d 090d c1bc 8368 b33d
00000060: 863d 553d b471 ae3b c52e a83d 120a 70bc
00000070: bf63 15bd 08cb fcba 56e3 92bc 83d9 743d
00000080: 62c5 b43c 3feb aabc c475 dabc 509a e33d
00000090: f26d 773d 1a8f 35bd 274d 033d b757 5abc
000000a0: 4669 193d ac36 983d d5f1 163d aa1c dfbc
000000b0: 5c56 2fbb bf5b 073d c9ed f0bc e2a9 45bd
000000c0: c8d3 5e3d aada 3c3d
0.07157781 0.046596613 -0.013188536 -0.012245913 0.037161022 0.0052351374 -0.0034181357 -0.026400099
0.034434002 0.021510422 0.030915735 0.06286304 -0.016852114 0.012412758 0.0129355565 -0.033692934
0.09735244 0.033777956 0.07517818 0.0015670471 0.041229583 0.043952376 -0.023565786 0.087601684
0.052060626 0.005323613 0.082120456 -0.014650838 -0.03647208 -0.0019286582 -0.017930668 0.059777748
0.022066776 -0.020864127 -0.026667483 0.11113417 0.060407586 -0.044325925 0.032056 -0.013326577
0.037453912 0.07432303 0.036851723 -0.027235348 -0.0026754355 0.03304648 -0.02941026 -0.048257716
0.05440119 0.04610697

fc2.weight f4 [10, 50]
00000000: 4076 533e 87de ccbd ec1a 5e3e 1116 bd3e
00000010: 44bb 4ebe 92ea 26ba 7eab 59bd 007f 7dbe
00000020: 9a53 0cbe 2c66 5dbe 5660 6dbe b4fa 24be
00000030: c36f 18be fc2f 3c3e dbe1 813e 2579 ed3e
00000040: be7f 353b 883d 8d3e 5e6a 3a3e 8d61 7cbd
00000050: e012 01be fa17 2abe 925b dabd 4f6a 4dbe
00000060: c957 d33d f2eb 6fbe f8d1 51be e718 abbe
00000070: 2d8b 0cbe 8941 433e 22a0 04be 5a80 0abe
00000080: efa3 793e e8a6 233e 6c73 17be 64f5 863e
00000090: 0adb c53d c564 403d d330 96bd b46c 1fbe
000000a0: 8fe1 2ebe d342 4cbd fc7b 7b3d b81b 03be
000000b0: 164b b0bd 578d 5f3e 489f cebd b578 b1bd
000000c0: fe52 c23d d3bd 623e 8fcc a8bd 69a0 ff3d
000000d0: c353 d3bd b289 aebd 4814 3a3e 8f27 3d3e
000000e0: 0b44 72be 3154 e73c 1b90 bfbd e980 36be
000000f0: 372e bf3d c08e 703e b295 70bd eaf9 23be
00000100: 545b 0bbd e808 80be 1d4e 733e d2a4 94bd
00000110: 5c8e 64be ae81 e63d 1f90 47be f556 413e
00000120: 609e 3f3e 0c6f 693e 6760 3a3e 0a6d 78be
00000130: 33c2 a4be b78a f33d de34 5b3e 2a34 893d
00000140: 4e91 2a3e 6806 41be 79b2 42be 7c6f 80be
00000150: 12a9 653e e62d a0be 5dc5 2dbe 0b3b 0dbe
00000160: e625 3a3a 9686 c33d 39c3 47bd f8ac 92bc
00000170: 590f 3abe e54d 6ebe d88e 743e ac0f 7f3d
00000180: 7da9 32be 7084 05bd ea63 97be 3a09 133c
00000190: f5d2 0bbe f23f 59bd 38fa 26be ee1e 0dbe
000001a0: 14b2 d7bb fa03 2f3e 1c2c 1a3e 86d5 adbe
000001b0: 71c6 88bf 7d11 b73d e93e 87be c351 19bf
000001c0: 70b5 883d bd66 353e bf47 623e 6eb6 cdbe
000001d0: d835 debd c57e c3be 6f00 06be 3243 82be
000001e0: 05c0 e1bd f566 173e 91c2 a0bd 4a2e 82be
000001f0: bc57 bdbd 84b4 2abe 423d 42be b547 703c
00000200: c80a 8abe e3b1 5cbd 26ae 68bd 1aae e8bd
00000210: 1a03 fc3d 39f1 3dbe 554b 5a3e 168f 95be
00000220: dcd5 23bf 3a0c 44be 599f 01be ec77 ba3e
00000230: b62f 6f3e 6ea4 623e 76cd e3be e216 64bd
00000240: 5619 753d 9d0d c1be 06ae f1bc 6933 973e
00000250: 5755 1ebe 12e3 fd3d c4a1 abbd 1e58 6b3e
00000260: 6134 4b3d cd5f 35be f97d 80bd e264 97be
00000270: a257 073e 4ef2 083f bcb1 b73f ac5f db3d
00000280: bde7 5cbd 444f 723f 7dc7 17be 5383 06bd
00000290: 0289 3c3e a065 d53e ef17 89be ada0 0cbe
000002a0: abe4 49bd e6d6 783d f0f0 593e 6831 303e
000002b0: 9ddc d43c f38a 35bf f219 80be b16f 5cbe
000002c0: 0458 203e ec13 4bbe 5417 e83e 0a9a 0dbe
000002d0: 819e 9dbe 24a8 663e 5144 28be e6e9 3f3e
000002e0: 4081 a03c 735b 8cbe 488f fabe 52f8 c8bb
000002f0: e513 913e 427b 15be 0be9 3c3e b7a1 6e3e
00000300: feaf 323e d1b2 413e 279f 143e 0832 123f
00000310: 8017 f6bd 1b86 113e 27bd 90bd 7287 0b3e
00000320: 4e29 ffbd 6eb0 153d 1c9c 42bd 8da1 283e
00000330: c26a cb3d a5f2 883d af2b fc3d 8685 0fbe
00000340: 3f82 13be 5419 58be 801f 9d3e 87e7 073e
00000350: 9459 af3e ed1d 57be 20d3 cbbd ec2e 6e3d
00000360: eb43 b8be 795e fdbd 52f2 00be 8bd5 8abe
00000370: 65e1 acbd 21aa 5cbe 1bb6 553e 3aa2 abbe
00000380: 6b80 153e 20c0 59bd 0d69 8f3d 3e5d 80bd
00000390: 7486 1c3e 1994 b9be 943f d63d 9f73 7b3e
000003a0: 10dd 2cbe 5ec6 99be 955a 00be c535 853f
000003b0: 8d46 46be 33af ee3e fe1e 2b3e 9ec7 1abe
000003c0: 3184 3abe 597f 3bbe 7e75 2c3e 589e 25bd
000003d0: 2799 f2bd e796 5abd adfa c3bd 6e9a 21be
000003e0: 7dec 553e 9164 08be c8b4 453e 5ec6 eebd
000003f0: de2d c1bd 9703 47be 6336 4d3c b4ac 113d
0.20650578 -0.10003381 0.21689957 0.36930898 -0.20188624 -0.0006367351 -0.053142063 -0.24755478
-0.13703766 -0.21621007 -0.2318128 -0.1611126 -0.14886384 0.1837768 0.25367627 0.46381488
0.0027694548 0.27586007 0.18204638 -0.06161647 -0.12604856 -0.16610709 -0.10661997 -0.20060085
0.10319478 -0.2342985 -0.20490253 -0.33417436 -0.13724966 0.19067968 -0.12951711 -0.13525525
0.24378942 0.15981638 -0.14790124 0.26359093 0.09660919 0.0469711 -0.07333531 -0.1556881
-0.17078231 -0.049868416 0.061397538 -0.12803543 -0.086080715 0.2183126 -0.10088974 -0.08665601
0.09488486 0.22142725 -0.082421415 0.12481768 -0.10318711 -0.08522357 0.18171799 0.18472122
-0.23658769 0.028238388 -0.09353658 -0.17822613 0.09334987 0.23491955 -0.05873651 -0.16013303
-0.034022644 -0.25006795 0.23760267 -0.072579995 -0.22319931 0.11255203 -0.19488572 0.18880828
0.18712759 0.22796267 0.18200837 -0.24260345 -0.32179412 0.11891692 0.21406886 0.06699403
0.16656992 -0.188501 -0.19013394 -0.25085056 0.22427776 -0.31285018 -0.1696982 -0.13792054
0.0007100984 0.095471546 -0.048770163 -0.017904744 -0.18169917 -0.23271902 0.23882616 0.062270805
-0.17447467 -0.032597005 -0.29568416 0.008974368 -0.13654692 -0.0530395 -0.16306388 -0.1378133
-0.006582508 0.1709136 0.15055889 -0.33951968 -1.068556 0.089388825 -0.26415184 -0.59890383
0.066752315 0.17714973 0.22097681 -0.40178245 -0.10850114 -0.38182655 -0.13086103 -0.2544189
-0.11022953 0.14785369 -0.078496106 -0.2542594 -0.0924525 -0.16670424 -0.1896868 0.014665534
-0.2696135 -0.053880583 -0.056806706 -0.11361332 0.12305279 -0.1854905 0.213178 -0.29210728
-0.639982 -0.19145289 -0.12658443 0.36419618 0.23358044 0.22133037 -0.44492692 -0.055685885
0.059838615 -0.377057 -0.029501926 0.2953141 -0.15462242 0.12396826 -0.08380464 0.22982833
0.0496105 -0.17712326 -0.062740274 -0.29569155 0.13217023 0.5349473 1.4351115 0.10711607
-0.05393194 0.946522 -0.14822192 -0.032840084 0.1841164 0.41679096 -0.26776072 -0.13733168
-0.04929034 0.060751818 0.21283317 0.17206347 0.025984103 -0.70915145 -0.25019795 -0.21526982
0.15658575 -0.19831818 0.45330298 -0.13828292 -0.3078499 0.22525078 -0.1643231 0.18741569
0.019592881 -0.2741352 -0.4893744 -0.0061331177 0.2833549 -0.145978 0.18448274 0.23303877
0.17449948 0.1891587 0.14513837 0.5710759 -0.12016201 0.14211313 -0.07067328 0.13625887
-0.1245905 0.03654521 -0.04751216 0.16467877 0.09932472 0.06686906 0.123130195 -0.14015779
-0.14405154 -0.21103412 0.30688095 0.13271914 0.3424803 -0.2100751 -0.09952378 0.058150217
-0.35989317 -0.12371535 -0.12592438 -0.27116045 -0.08441428 -0.21549274 0.20870249 -0.33522207
0.14599769 -0.05316174 0.07002459 -0.062677845 0.15285665 -0.36245802 0.10461345 0.24555825
-0.16881204 -0.30034155 -0.12534554 1.0407034 -0.1936285 0.4661804 0.16711041 -0.1511521
-0.1821449 -0.18310298 0.16841695 -0.04043421 -0.11845618 -0.053366568 -0.09569297 -0.15781567
0.20890994 -0.13319613 0.19307244 -0.11658929 -0.094325766 -0.19434963 0.012525174 0.035565093

fc2.bias f4 [10]
00000000: 4c26 893d d4cc e83d 4227 e7bd ea13 0ebe
00000010: 32f7 81bd 8290 f23d 020e 8bbe 038e 00be
00000020: 01de 283e 698f 4dbd
0.06696758 0.11367193 -0.11286785 -0.13874784 -0.06345977 0.11843969 -0.27159125 -0.12554173
0.16490938 -0.050185595
