results/mnist_model.pth (torch, 90416 bytes, 8 tensors)

conv1.weight f4 [10, 1, 5, 5]
00000000: c4f5 013d a90f 65be b3ee 98be 8a0b 82be
00000010: a791 9fbe df3a 5c3e 44c0 063d df8d a4bd
00000020: 6c3b f3bd eafe 2ebe 0305 5b3e dab5 b33e
00000030: 158d df3e 5d09 833e 68b2 9a3d 7961 03bd
00000040: 8341 7c3e abf3 973e b32b df3e cc4e 7e3e
00000050: cacd 85be 38df aabe 8ffc aebe 9412 91be
00000060: 34bb 89bd 604e fd3d f082 563e 64e0 74bd
00000070: 06b6 e6be f6c8 6ebe 2f90 863e a0cc d73e
00000080: 4d65 f03c 3707 d7be 2d0b ecbe bc04 2e3e
00000090: fa69 0a3f e709 e1bd 9303 4dbe c529 c8be
000000a0: beae ad3e 3160 4e3e 5e17 423e 8fd8 04be
000000b0: b641 81be c6a6 1d3e 4d24 083e 45c8 553e
000000c0: f826 20ba e437 5dbb ddee c3be 8ef9 8ebe
000000d0: 3d3e 8cbc 832a 303d 15e3 9d3e 966e 13be
000000e0: c920 05be fe96 843c b699 bd3e fae5 143e
000000f0: 02b0 85be 9e5a 133e 7c72 cb3e d2f3 f03e
00000100: d90b 3abe 2bb8 1f3b 2dd2 223e 305c 973e
00000110: 5692 20bd 0d09 8bbe 6ccd f43d c145 04bd
00000120: e1ca c6bb f9c6 28be ffb2 32be 63c0 4d3e
00000130: 434f c33e 8fdb be3e 08c7 603d 29d8 4a3e
00000140: fcdb 2ebe 6a29 a5bc fdc0 313e 438e 3b3e
00000150: 34b4 a53e 7929 51be d118 73be 9b74 b63d
00000160: f6a4 8e3c 16ed 653e 0fe6 ffbb 0236 9dbe
00000170: 8daf 5fbe d74d 08be aaea 82be 6f88 8bbd
00000180: e122 89bc 7353 5ebe 7aa4 acbe ec64 78be
00000190: e9b3 bb3e 3a05 f23c c89f f23d b6a4 f23d
000001a0: b4f7 82bd 51f6 22be 10ed 733e b82c f13b
000001b0: e121 5f3d 911c 953d ebaf 0b3c db84 a83e
000001c0: 49b9 663e b55f 4ebe a368 873d 18ca cb3d
000001d0: 6e9e 8a3e 7ee9 3d3e 82f7 24bc e68c 483c
000001e0: 79e4 38be b1ac 453d 8559 753e 014e 09bd
000001f0: a334 543e 4bb8 4dbe a8d5 adbe 23f7 47be
00000200: c81b 4b3e 53c5 b63e ade2 24be bf88 a43d
00000210: 37a9 993e 9a6d c13e 3d73 e93d c0f9 503e
00000220: f70c 463e bc59 4d3d 9eb5 94bd 2c0c 8abe
00000230: 3be9 87bc 796e 8fbd e638 86be 19c9 453d
00000240: c6e0 ce3d 40c7 9a3c 2e1e 233d ecfc ad3c
00000250: 1985 2b3e ef03 6f3e 117c 10be 28f6 a53d
00000260: a282 b0bd 35b8 9b3c 60a7 6fbe a651 80be
00000270: 262c 66be 9882 debd 13ef 493e 0675 e2bd
00000280: 75a5 8bbe 49a7 023c 8d63 a33d 933b 143e
00000290: 2dda 37be 1de3 1cbd b2e6 9cbd 031e 55bc
000002a0: 90f9 06be 98e0 02bd b2f6 a3bc b9a1 f43d
000002b0: f696 e23d ebc5 6d3e a77b df3e 27a2 d53d
000002c0: 2875 593e b17c 4d3e 08c2 ffbd 28b1 613e
000002d0: f2ce 77be 69f5 87be 2a97 f7be 644e dabe
000002e0: a881 c1be 69f1 1e3e da55 82be 99f9 b1be
000002f0: 2836 49be 94d3 4cbe 0d1b 903e 1cd9 823e
00000300: dc69 333e 4ec2 383e e601 973e 7f70 1ebd
00000310: 4877 d63e 637f 003f 38bb bf3e 72a2 bc3b
00000320: 014f 8e3c 385d 10be ad9c 703e 8c33 873c
00000330: 6127 283e ff44 9cbd fd39 acbd f181 09bb
00000340: 8b0d 543e c354 8c3e 5b3f 01bd 7725 03bd
00000350: 9bdd 9cbe 98f6 5a3e 314c cc3e 9744 d23d
00000360: cbf0 313d d974 90be c2c9 96bd 0fcb cb3e
00000370: 99b2 acbe ecb7 dbbc ac66 c8be 0ac6 a8be
00000380: ec63 f13d 3b5f 05be 31ca 8cbd 3429 913e
00000390: 5afa c33e 5318 cb3e e315 ebbd 05eb 57be
000003a0: 787b a13e 2270 353e b512 153e 350a fdbd
000003b0: 0223 7abe 5eac 083e 716e 8a3e b343 133d
000003c0: 1b0c bfbe 8b99 41be c300 60bd 90bd 813c
000003d0: f902 5ebd b8d2 5cbe bd8a e1be dfc9 cbbe
000003e0: 73f0 71be 6fff 363c
0.03172852 -0.22369255 -0.29869613 -0.2539943 -0.3116581 0.21506833 0.032898203 -0.08034872
-0.11876568 -0.1708943 0.2138863 0.3509968 0.43662325 0.2559308 0.075535595 -0.03207538
0.24634366 0.2967809 0.43588027 0.24834746 -0.26133567 -0.33373427 -0.34177062 -0.28334486
-0.06725159 0.123684645 0.20948386 -0.059784308 -0.45060748 -0.23318848 0.26281878 0.42148304
0.029345179 -0.41997692 -0.46102276 0.16993994 0.5406796 -0.10988217 -0.20020895 -0.39094368
0.3392238 0.20153882 0.18954226 -0.12973236 -0.25245446 0.1539565 0.13295098 0.20877178
-0.00061093224 -0.0033755237 -0.38268176 -0.2792477 -0.017119521 0.043009292 0.30837312 -0.14397654
-0.13000788 0.01618528 0.37031335 0.14540854 -0.26110846 0.14390036 0.39735782 0.4706102
-0.18168582 0.0024371247 0.15900488 0.2956252 -0.039202057 -0.27155343 0.119532436 -0.032293085
-0.0060666655 -0.16482152 -0.17451094 0.20092921 0.3814641 0.37276885 0.05487731 0.19809021
-0.17076105 -0.02016135 0.17358775 0.18315987 0.32364047 -0.20425977 -0.23739935 0.089089595
0.017412644 0.22453722 -0.0078094075 -0.30705267 -0.21844311 -0.13310944 -0.2556966 -0.06813132
-0.016740264 -0.21711521 -0.33719236 -0.24257249 0.36660698 0.029543508 0.11846882 0.11847822
-0.06394902 -0.15914275 0.23820901 0.007360067 0.05447567 0.07280839 0.008525829 0.3291386
0.22531618 -0.20153697 0.06611755 0.09950656 0.27073997 0.18546101 -0.010068776 0.012240624
-0.18055905 0.048260394 0.2395993 -0.033521656 0.20723204 -0.20089833 -0.3395207 -0.19527869
0.19834816 0.3569742 -0.16102095 0.08033895 0.30011913 0.37778932 0.11398933 0.20407772
0.19340883 0.050134405 -0.07261203 -0.2696241 -0.016590705 -0.07003493 -0.26215285 0.048287485
0.10101466 0.018893838 0.039823703 0.021238767 0.16749991 0.23341344 -0.14109828 0.08103591
-0.08618666 0.019008735 -0.23403692 -0.25062293 -0.22477779 -0.108647525 0.19720106 -0.11057477
-0.2727467 0.007974454 0.07977972 0.14475851 -0.17954321 -0.03830253 -0.07661189 -0.013007644
-0.13181138 -0.03195247 -0.020015094 0.11944909 0.1106395 0.23220031 0.43649027 0.10431319
0.21236098 0.20067097 -0.124881804 0.22040236 -0.24200037 -0.2655442 -0.48357517 -0.42637932
-0.37794232 0.15521778 -0.25456125 -0.3476074 -0.19649565 -0.20002586 0.28145638 0.25556266
0.17520851 0.18042871 0.29493636 -0.038681503 0.4188788 0.50194377 0.37447524 0.0057566697
0.017371656 -0.1409806 0.23497267 0.016504072 0.16421272 -0.076303475 -0.08409498 -0.0020981992
0.20708291 0.27408418 -0.03155456 -0.03201815 -0.30637822 0.2138313 0.3990188 0.10266989
0.04344253 -0.28214148 -0.07362701 0.3980336 -0.3373001 -0.0268211 -0.39140832 -0.32963592
0.11786637 -0.13024609 -0.068745025 0.28351748 0.3827694 0.39666995 -0.11478784 -0.21085747
0.31539512 0.17718557 0.14557917 -0.123554625 -0.24427417 0.13347003 0.27037385 0.035953235
-0.37313923 -0.18906228 -0.054688226 0.01583746 -0.054202054 -0.21564758 -0.4405116 -0.39802453
-0.2362688 0.011169299

conv1.bias f4 [10]
00000000: 79d1 a9bd cfe3 90bd d0ce 04be 5aa4 09bd
00000010: fa66 6a3e 46fe 633c f5d6 ac3d 19e6 9a3d
00000020: 0c13 8b3c 4243 5ebd
-0.08291907 -0.07074701 -0.12969518 -0.033604003 0.22890845 0.013915604 0.08439437 0.07563419
0.016976856 -0.05426336

conv2.weight f4 [20, 10, 5, 5]
00000000: d61a 633d 3f09 473d 8d4b 11be 462a 35bd
00000010: 62ee 393d 2b05 3ebc 85eb 793c 139d 05be
00000020: fdbe 9a3c 0745 e43c 22bb 103d 2162 5bbc
00000030: 63e3 7dbd 45f9 133c 3519 9e3c d8e8 b4bd
00000040: 6e60 43bd f41e 873c 17f8 7b3c aa75 813d
00000050: 1456 bdbd 532b 32bc ebd8 9a3d 6832 333c
00000060: 40bf 8dbd 54d1 02bd 0848 1dbe 5cb4 c1bd
00000070: 9462 73bc 7557 993c 5123 aabd f91e 2cbe
00000080: 237d 87bc 74f2 053d 4684 e439 b6a3 f0bd
00000090: 53e3 e1bc 2b75 633b b1d7 f9bc 6485 5ebc
000000a0: dd37 f5bd a4e8 a83c 8c51 933d 8b95 0d3d
000000b0: 0452 c63a 855b b9bc ce7b b23d e078 4e3d
000000c0: 062a 34bd bd56 47bd fa2d ab3d 9e64 75bd
000000d0: e4c3 493a 257f 583d 7878 df3d 0a7b 64bd
000000e0: 6879 023d 002e ed3d d22d dc3d a94d c03c
000000f0: a771 0cbd 421b 273d b323 ac3c 68d5 463b
00000100: b7c1 65bc a607 6abd eb50 89bd 917a 82bd
00000110: 4739 06be abac 9bbd 7d80 133d 6556 83bd
00000120: d84a afbd 96bd b8bd beef 8dbd 3168 213d
00000130: 9f74 acbd 573f 86bd 7f78 e9bc d4b2 3dbc
00000140: ab46 b1bc 39fd 6fbd 4e4b e6bd 83f2 fcbc
00000150: dccc a6bb 5504 8dbb f56f 58bd e9e0 99bd
00000160: 6e08 c6bd 7776 37bd 2dad f93d fc5f 2e3d
00000170: 1dca 3ebd 2dde 6dbd ccbd 763d 5d9c 4f3c
00000180: e93e d53d d18d 933d 11be 1f3d f09d 02bc
00000190: a5a1 123d 5d51 b2bd 9d5d 3d3c 1ffc a73d
000001a0: 4cf9 2a3e 1583 9bbc 6364 ebbd 147e ffba
000001b0: 5b63 083e b69a f43c 6d5a f2bd c86b 693d
000001c0: d6a9 163d 0f51 1f3d 9ff9 963c 081f 04be
000001d0: 4c25 23bc 8bc2 b53d 7f8e 663d 8339 2dbd
000001e0: 2259 98bd 0a7e e5bd 15ca ccbd 0ae5 99bd
000001f0: 4f70 c9bd 2d67 813d d184 873d 451b 993d
00000200: affc bb3d 9132 8cba be17 0abc cf4e c23d
00000210: 2c6d 073e 594a c33d 38d7 b03d f14f 463d
00000220: 9983 263e 2a59 e23d 7aa4 ca3d e605 543c
00000230: a449 8abd ca2c 6a3d 6126 803d 381e e1bc
00000240: ef61 26bd 2cd2 8cbd 811a adbd 88c9 b8bd
00000250: 88cb 7d3c ba62 dcbc 6031 35bc f734 04bd
00000260: ebd8 b73c a8d3 7fbb 7ffd 1c3d e82f 123d
00000270: 956a 84bd 4203 c53d 89af e0bc ed7e 02bd
00000280: 7a6a 08bd ec0f 953d 171a a03d 37b1 8a3d
00000290: c575 05bd 8aff d33c 55fd 32bd eaa2 8bbc
000002a0: a1b1 983b 58a1 8ebd 16de 613d 7b0b 22bc
000002b0: d867 6e3c 99b7 773c cb1e 66bd 9345 1fbd
000002c0: 0f23 963d 5344 92bd fa6d 6abd 7bd9 413d
000002d0: ae6c d03c b923 e63d 798f 24be b6e7 96bd
000002e0: ea97 f63c 6740 86bc b13b 92bd 0d64 8abd
000002f0: 1ce7 96bd 62ae 003d 589a 933c 9124 4bbd
00000300: 9456 a13c 5830 e33c 6bb3 c83d 63a7 2c3e
00000310: ead5 443d 0101 2cbb 406e ddbb 7be9 e6bd
00000320: 6cd3 55bb dbf7 82bd 9442 9cbc 96e4 c73c
00000330: 7957 c3bb 2142 003b a87a 0dbd 67f8 2bbd
00000340: 2e60 783c 976e e5ba 1717 b63c 9bfd 873c
00000350: 7d9f da3d 393d c13d e8d7 3d3d 2c4c 373d
00000360: 44ce 5abd 3f5d 8c3d 2ea0 ca3c d3f0 a9bd
00000370: 96e9 b5bd 9fca 03be e38e 6ebc cc3e 51bd
00000380: 05c3 77bd db1a d23d 49af bebd 77a5 45bc
00000390: d96c 10bd 4c29 d7bc 7f3f 2d3d 4de7 34bd
000003a0: 4c6f 33bc b513 fcbd 8ff4 4f3b 234f 8b3d
000003b0: 3295 513d 526b 7cbd e986 8bbd 3804 093d
000003c0: 6f9d 6d3d 963a 70bc cf74 78bc d0ca 5b3d
000003d0: da55 523c d1db f5bd fc4a c4bd d914 abbc
000003e0: a27f 743d 2aa3 54bd 26c0 34bd 89e7 d53b
000003f0: 34d1 78bd 1dfc 0c3d 50e7 603d f8d6 adbd
0.055445515 0.048592802 -0.14188977 -0.04422977 0.045393355 -0.011597912 0.015253906 -0.130482
0.018889898 0.027864946 0.035334714 -0.013390095 -0.06198443 0.009031598 0.019299129 -0.08833474
-0.047699384 0.016494252 0.015378973 0.06321271 -0.09244934 -0.010874587 0.07560905 0.010937311
-0.06921244 -0.031937912 -0.15359509 -0.09458229 -0.014855046 0.01871846 -0.08307517 -0.1680869
-0.016539162 0.032701924 0.000435861 -0.117499754 -0.027574217 0.0034707289 -0.030498357 -0.0135816075
-0.11973546 0.020618744 0.07193288 0.034566443 0.0015130644 -0.022626648 0.0871502 0.050408244
-0.04398539 -0.048666704 0.08358379 -0.05991041 0.00076967315 0.05285563 0.109116495 -0.0557814
0.031854063 0.115810394 0.10750927 0.023474531 -0.034288075 0.04079748 0.021013116 0.0030339602
-0.014023236 -0.0571362 -0.06704887 -0.06371034 -0.13107787 -0.07601293 0.036011208 -0.06412963
-0.08559197 -0.09020536 -0.06930493 0.039406005 -0.08420681 -0.0655505 -0.02849984 -0.0115782805
-0.021640142 -0.0585911 -0.11244832 -0.030877357 -0.005090339 -0.004303495 -0.052841146 -0.07513601
-0.096695766 -0.04479071 0.12191234 0.042572007 -0.04657947 -0.05807321 0.0602396 0.012671557
0.1041239 0.07204784 0.03899962 -0.007972226 0.035798687 -0.08706925 0.011557964 0.08202385
0.16696662 -0.018983403 -0.114937566 -0.001949253 0.13319151 0.029858928 -0.118336536 0.056987554
0.036783062 0.038895663 0.018429575 -0.12902462 -0.009957623 0.08874997 0.05628824 -0.042291176
-0.07438876 -0.11205681 -0.099994816 -0.07514389 -0.09835874 0.06318507 0.066171296 0.074759044
0.09179055 -0.0010696222 -0.008428512 0.09487688 0.1322524 0.09535665 0.086348 0.04841608
0.16261138 0.11052163 0.09894653 0.012940859 -0.06752327 0.05717162 0.0625732 -0.02748023
-0.04062074 -0.068760246 -0.08452321 -0.09022814 0.01549042 -0.026902545 -0.011059135 -0.032277074
0.022442302 -0.003903607 0.03832769 0.03569022 -0.064656414 0.09619762 -0.027427452 -0.031859327
-0.03330467 0.072784275 0.07817476 0.06772082 -0.032583017 0.025878686 -0.043698628 -0.017045457
0.004659847 -0.06964368 0.05514344 -0.0098904325 0.0145511255 0.015119457 -0.05618171 -0.03888471
0.07330906 -0.07141938 -0.057233788 0.047326546 0.025442448 0.11237282 -0.16070355 -0.07368414
0.030101735 -0.016388131 -0.071402915 -0.067573644 -0.07368299 0.031416304 0.018017933 -0.04959542
0.019694604 0.027733013 0.09799846 0.16860728 0.048055567 -0.0026245716 -0.0067575276 -0.112750016
-0.0032627238 -0.06394931 -0.019074716 0.02440099 -0.0059613553 0.0019570666 -0.034540802 -0.04198494
0.01515965 -0.0017504272 0.022227807 0.01660042 0.10674951 0.094355054 0.046348482 0.044750378
-0.053419366 0.06853723 0.024734583 -0.08297887 -0.088824436 -0.12870263 -0.014560434 -0.05108528
-0.06048872 0.102590285 -0.09310777 -0.012063376 -0.035260055 -0.02626481 0.042296883 -0.044165898
-0.010951828 -0.12308446 0.0031731462 0.068022035 0.051167674 -0.061625786 -0.068128414 0.03345129
0.05801147 -0.0146624055 -0.015164568 0.053660214 0.012837851 -0.12004817 -0.09584615 -0.020883964
0.059692033 -0.051913418 -0.04412856 0.0065278453 -0.060746387 0.03442012 0.054908097 -0.08488268

conv2.bias f4 [20]
00000000: 48d5 a33c 7925 f8bc 351c 4b3d 9aee 3dbd
00000010: 7ecb 8dbc bac0 84bc 3623 0bbd a414 41ba
00000020: 06da 9cbd efe6 09bd 69f9 493d 17c2 8ebd
00000030: 2dce 7dbd 9b69 3a3d bda5 27bc 44c4 a6bd
00000040: d5d7 a2bb 3075 afbd 63f1 14bd 28cc 0a3d
0.019999161 -0.030291306 0.049587447 -0.046370126 -0.017308947 -0.01620518 -0.033969127 -0.00073654414
-0.07658772 -0.0336675 0.04931012 -0.069706134 -0.061964203 0.04551087 -0.010232386 -0.081429034
-0.004969577 -0.085672736 -0.036363017 0.033886105

fc1.weight f4 [50, 320]
00000000: 59e2 1bbe ab69 21bd 6b68 19bc ee7d 32bd
00000010: a074 633c 7f74 11bd 0604 4b39 89dd 6bbd
00000020: f5af 9c3a 6c5d 883c 5fe5 793d bc93 193d
00000030: 28ec 933c 5f6e b8bd f215 583d 8a89 203d
00000040: 7bd4 acbc d5aa 593d 96ae a8bc 6d8e 03bd
00000050: 9907 683d 49c7 923c e4c9 4dbb 8efe ecbd
00000060: 3133 68bd c988 72bd 2c8b b1bb 00b7 d2bb
00000070: fa7f 58bd 985c 68bd e602 ba3c ec17 873d
00000080: 8172 79bd c7e5 563a 2373 14bb 6609 8abd
00000090: e3b5 2dbd 37d4 ff3c aae4 843b d79c 3c3c
000000a0: 2854 99bb 1dc1 7c3d 83ea e8bb 16d6 39bd
000000b0: a53a 3cbc ccc8 14bd e752 be3c c799 42bd
000000c0: ac91 f33c b427 5cbc db2b 903a 09a0 b93d
000000d0: e303 81bb 9a3e 19bc 71c3 41bd 3fd5 b13d
000000e0: 7061 28bd 2745 dbbd fae6 43bd 906c d5bd
000000f0: 30ec fcbc cdc2 18bd ffde a0bc d6e6 f7bd
00000100: a00f 46bd ffa5 dcbc a5a7 5abd e6d6 4dbd
00000110: 3c82 413c 227c 52bc 0fc7 1ebd 46a5 02bd
00000120: 7f23 6c3d 5263 17bd 3ff9 ae3c aa29 a13d
00000130: cc31 5d3c 80aa bb3c f649 d13c 90cd 8d3c
00000140: b8d9 3fbb f3a9 a33c 5a30 07bd ca49 19be
00000150: 41bd 823a bab8 b63b 7e4f 8abd 8551 2bbc
00000160: 728b 5cbd 7dd4 1cbc 5850 dbba 4dee 403d
00000170: a1fd 2f3c b5a4 a43d b284 863d 3ba8 053c
00000180: 9633 c43c 32c4 cd3b 52b4 cb3c 256a cd3c
00000190: 7c62 d03c 99e2 67bd 91a0 50bd b783 fe3c
000001a0: aacc cbbc 0ffc b5bd 5f35 313c a6f7 14bc
000001b0: 2f68 50bd dbf7 05bd d3c3 323d d292 97bc
000001c0: 49ce bbbc 2f9f cebc a5c9 5c3d 0c05 75bd
000001d0: 696b 7abc 367f 893c b795 19bc 8c89 8c3b
000001e0: 29c0 493c eb4a ddbc 5b59 bcbd 8bef 77bc
000001f0: a720 783d 7373 3ebd 2492 343b e44b 313d
00000200: 2535 6bbd 7460 5abc ec41 123d 0354 12bd
00000210: 59ee 22bc b94a 81b9 81e4 303d 2713 bebb
00000220: ccad 033d b9db ad3c 97bc 7fbd 04cd 3abd
00000230: 5e01 e0bb 0f7c 4b3d d64d d4bb c283 57bd
00000240: 4e1b 87bd 554c dcbd c5e0 9abd df5f 15bd
00000250: 1145 a93d c385 e63c f8cf 5abc c978 ebbc
00000260: 27b0 8f3d 8de7 e839 fb35 92bb 8475 213d
00000270: 9676 213d 786b b63d 6727 e03c 4073 f93c
00000280: b4e9 20bd a482 ebbc 636b 97bd e0b0 c43b
00000290: 9902 02bc caa7 70bd 366f 7b3d 8061 a13d
000002a0: c06f cbbc ec21 34bd a37e 85bb 7d8d b93d
000002b0: 8a8f 073d 020b 123b 99e3 873d 0d9b 76bd
000002c0: 23b3 73bd 3556 edbd 0b6e adbd 8d2d 71bd
000002d0: df7d 193d 374a 353c eacc ee3a 7a92 8bbd
000002e0: 77f1 493d 90ab 9dbc 99da 2fbc 5f2a 613b
000002f0: b479 c53c 0747 343d 1031 e23b ae8a 823d
00000300: c9ef 53bd 058b 3b3c 7a9e 2a3b ae48 473d
00000310: efe7 043c bb76 0c3c 3de0 f83c e0fb b93c
00000320: cbb1 26bc 3044 b7bd e173 4b3c b449 bb3c
00000330: 7813 76bb e3f0 8dbc faf5 3f3c 13d8 dfbc
00000340: 1341 363a 4d20 953d 0dbf a43d b6f3 613d
00000350: 983d d43b 3bf0 0fbd 3c3a 1bbc ab95 24bd
00000360: 2805 15be 25fc d73b c17e 06bd 638c 0fbe
00000370: c85b 0abe 8b79 123c b0f1 83bc 192b 37be
00000380: 17a6 a83c 888e 53bd 488d 1dbe f933 ddbd
00000390: 5573 d73c 8f80 34bd 2aad 6cbd eed7 cd3c
000003a0: 58c5 013c 7831 bf3d 9b49 303d c4b6 d43c
000003b0: e116 953d f658 c73c a421 bebb f207 1a3d
000003c0: cac6 e53b a854 5d3d 8700 5cbc a38b 86bd
000003d0: 633c adbb 29dc 7abc afc4 013a 29d2 a83d
000003e0: 793a 0e3d 17bf 03bc a35f 0a3d 0371 0dbc
000003f0: bc99 683d 7c96 a4bd 0279 5abd 07f7 8fbd
-0.15223064 -0.039407413 -0.009363274 -0.043577127 0.013882786 -0.03551149 0.00019361087 -0.05758432
0.0011954295 0.01664611 0.06100976 0.037494406 0.018056944 -0.090054266 0.052755304 0.039193667
-0.021097412 0.053141434 -0.020591062 -0.03211825 0.05664787 0.017917292 -0.0031400854 -0.1157199
-0.056689445 -0.05921248 -0.005418202 -0.0064305067 -0.052856423 -0.05672893 0.02270646 0.065963596
-0.060900215 0.00081976916 -0.0022651635 -0.06740074 -0.04240979 0.031229122 0.004055579 0.011512003
-0.0046792217 0.061707605 -0.007108034 -0.045370184 -0.011488591 -0.036324307 0.02323289 -0.047509935
0.029732548 -0.0134372 0.0010999398 0.090637274 -0.003937231 -0.009353304 -0.047305528 0.086832516
-0.04110855 -0.10706549 -0.0478277 -0.10421097 -0.030874342 -0.03729515 -0.019637583 -0.12104575
-0.048354745 -0.026934622 -0.053382535 -0.05025377 0.011810835 -0.012846978 -0.038764056 -0.0318959
0.05765104 -0.036959954 0.021359084 0.07869275 0.013500642 0.02290845 0.025547963 0.017309934
-0.0029274058 0.019978499 -0.033005096 -0.14969555 0.0009974615 0.0055762203 -0.06753443 -0.0104564475
-0.053843923 -0.0095721455 -0.0016732318 0.04710226 0.010741622 0.08039228 0.06568278 0.008157785
0.02395038 0.006279492 0.024866257 0.025075028 0.025437586 -0.056612585 -0.050934378 0.031068666
-0.024877865 -0.08885967 0.010815947 -0.009092247 -0.050880607 -0.032707077 0.043643784 -0.018502627
-0.022925513 -0.025222389 0.05390324 -0.059819266 -0.015284398 0.016784292 -0.009374074 0.004288858
0.012313881 -0.027013263 -0.09196731 -0.015132795 0.060578015 -0.04649682 0.0027552927 0.043285266
-0.05742373 -0.01332866 0.0357074 -0.03572465 -0.009944522 -0.0002466047 0.04318667 -0.005800623
0.032148167 0.021222936 -0.062435713 -0.045605674 -0.0068361005 0.04967886 -0.0064790053 -0.05261589
-0.06597005 -0.10756747 -0.07562403 -0.036468383 0.082651265 0.028139954 -0.013355248 -0.028744118
0.0701602 0.00044423007 -0.0044620014 0.039418712 0.039419733 0.08907217 0.027362539 0.030450463
-0.039285377 -0.028748818 -0.07393529 0.0060025305 -0.00793519 -0.058753766 0.061385356 0.07879925
-0.02483356 -0.043977663 -0.004073934 0.0906019 0.033095874 0.0022284393 0.06635208 -0.06020646
-0.05949701 -0.11588708 -0.08468255 -0.05888133 0.037473556 0.0110650575 0.0018219028 -0.068150476
0.049302544 -0.019246846 -0.01073327 0.003435753 0.024105884 0.04401305 0.0069028214 0.06374107
-0.05174235 0.011446719 0.00260344 0.048653297 0.008111938 0.008573229 0.030380363 0.022703111
-0.010174225 -0.089485526 0.012417764 0.022862293 -0.0037548225 -0.017326778 0.01171636 -0.027324712
0.0006952446 0.072815515 0.080442525 0.05516406 0.006477069 -0.03514121 -0.009474333 -0.040181797
-0.14552748 0.0065913373 -0.032835726 -0.14018397 -0.13511574 0.008940111 -0.016106457 -0.17887534
0.02058701 -0.0516496 -0.15385926 -0.108009286 0.026300112 -0.044067916 -0.05778233 0.025127377
0.007920586 0.09335607 0.043038946 0.025966056 0.072797544 0.024334412 -0.00580235 0.037605233
0.007012223 0.054035813 -0.01342786 -0.06569602 -0.0052867397 -0.015311279 0.00049502676 0.0824321
0.034723733 -0.008041165 0.033782613 -0.008632901 0.056787238 -0.08036515 -0.05333806 -0.070295386

fc1.bias f4 [50]
00000000: c5f8 853d 73be 5d3d 95f7 083d 6c20 a33c
00000010: 6628 f23c d35a 6a3c f69a 353c 1cdf bcbb
00000020: 1ee3 483d ac83 e93c fb3b 263d 0a1d ca3d
00000030: 8b66 17bc 1bf9 c73c 672d 3a3c b6ec adbc
00000040: f457 b33d dfd3 883d 9621 ad3d 81f3 1c3b
00000050: 9e35 333d 72a5 1e3d fb2b 45bc 8092 7b3d
00000060: 8800 923d b28c be3b 28d2 aa3d 52c5 353c
00000070: 3bc2 41bb 98e3 e03a 15d7 aabb 30e4 793d
00000080: b402 0f3d dac2 5ebc 801d e9bb e320 ea3d
00000090: 3a9e 433d 1415 42bd dd42 4e3d 9c48 1abc
000000a0: 33f7 273d 3590 a43d 0237 5d3d 1e6d edbc
000000b0: 7ef2 433c 191f 4b3d 2e7e 9cbc f633 6ebc
000000c0: b425 853d 9b28 8b3d
0.0654159 0.054136705 0.033439238 0.01991292 0.02956028 0.014303881 0.011084309 -0.0057639014
0.04904472 0.028505169 0.040584546 0.0986882 -0.009240757 0.024410775 0.011363364 -0.021231037
0.0875701 0.06681036 0.08453672 0.002394885 0.043752305 0.038732 -0.012034412 0.06141901
0.071290076 0.005815112 0.083408654 0.011094408 -0.0029565233 0.0017157672 -0.005213628 0.061008632
0.034914687 -0.013596261 -0.0071141124 0.11432054 0.04775832 -0.047383383 0.050356735 -0.0094167255
0.041007232 0.08035318 0.054007538 -0.028982695 0.01195967 0.049590204 -0.019103136 -0.014538756
0.06501332 0.06794854

fc2.weight f4 [10, 50]
00000000: 02e0 883e af0f e4bd 1a6e 2b3e 71a5 843e
00000010: 9e1f 4fbe f464 3e3d 9a78 28be 79dc 0ebe
00000020: 02a0 e9bd 63c3 78be 4a88 7dbe b05e 1abe
00000030: ce97 10be 5fa0 233e 34a6 9a3e be7b 353e
00000040: 23c6 a9bd 488e 8a3e ce6b 603e fe4c dcbd
00000050: 20f2 10be b50e 3abe f1f4 dbbd 2280 8ebe
00000060: 4498 27be 5fc8 89be c182 8fbe 7769 82be
00000070: 321d a0bd 447a 7f3e b998 d2bd f241 53be
00000080: ae17 883e b689 263e c547 3fbe 0460 863e
00000090: 90a5 d03d d528 b73c 7e9b 173e 9ea7 38be
000000a0: 2acf 20be 3b8e 1bbe 9404 6dbb bcc3 23be
000000b0: c740 f2bd ac89 8a3e cbfd c6bd 98ca e5bd
000000c0: 6be8 8ebd ee5e b6b9 1f41 6ebd 95cc 063e
000000d0: 760f 89be cb25 353e 41c8 5d3e 79a9 4c3e
000000e0: d589 6fbe 4142 123e eb1e 233a ade3 58be
000000f0: 25a1 543e c89a 9e3e 02e2 26be e41d 71be
00000100: 3ceb f1bc b0a1 74be 4378 5d3e 9a8b 1fbe
00000110: 48e8 67be 204c 123e ff31 6bbe 0db0 b7bc
00000120: 7d98 1a3e 4f5e 233e 0302 5b3e 79ac 79be
00000130: 4d06 95be 3c0b 923e 6013 5c3e e83e a8bd
00000140: 95bc 503e 5c83 31be bffd 3ebe 9559 91be
00000150: da4d 473e 27e1 da3c e468 12be a756 50be
00000160: 2be0 e53d 984f 903e e127 31bd 1210 ab3d
00000170: e603 3abe 1b8a 69be d8b2 243e 2071 e0bd
00000180: 2e75 58be 12c3 813e 6043 8fbe 5e87 0fbc
00000190: 97b5 c4bd 3907 6abd b33d 97bd c08c bb3d
000001a0: 2b48 ffbd 2195 463e f5cf 213e 6f6f 053e
000001b0: 2b13 563e 8e31 c73d 91a9 12be ab87 9d3e
000001c0: 6647 663e 8c66 2d3e e522 6d3e f203 f83d
000001d0: 6efe 0ebe 39f9 00be f22f 36be e34f 87be
000001e0: dd2e fabd 4539 4b3e 4817 0bbe 9a90 11be
000001f0: 78e1 e6bd 18f8 05be 8e55 64be ba16 293c
00000200: bdd4 72be c2ab 01bd 6bfd ebbd 7e71 cbbd
00000210: 2d7c 8e3d d6c0 55be e86c 453e 87d7 4a3e
00000220: cdb4 85bd 2197 30bd 2a38 173e 42d6 433e
00000230: 7663 783e f7ef 553e 18ef a5bd 3865 9ebd
00000240: 64a2 273e c720 583e fa4e 47bd e896 823e
00000250: 84a2 28be 2167 783e 0113 c2bd ff69 4f3e
00000260: a89b 183e 4531 63be e61b b3bd 2af8 58be
00000270: ef16 103e 6f20 243e f03f 813a f134 f33d
00000280: 8bbc b1bd b75d 7b3e a834 0dbe c033 26bd
00000290: 7aff 4abc 4dac febd 50dd 4bbe efd0 013e
000002a0: 6978 6dbd e051 323e 3ad7 4f3e 414b 8f3e
000002b0: 40fd 073e d4df d1bd 72f1 64be 3475 febd
000002c0: 85f6 243e a679 dcbd ef3f 743e 488c 08be
000002d0: c56e 9ebe 3b55 8a3e d35e 38be 6d0a 4c3e
000002e0: 8625 353e f8d7 b0bc 7fd9 683e 3919 0ebd
000002f0: de95 73be 411e 3abe adfb 663e 3020 5d3e
00000300: 1f73 6bbe 4a9b 0a3e 0a25 463e cda0 3bbd
00000310: 5b32 b9bd d025 36ba b1f2 78bd 8a12 6c3e
00000320: 5097 bbbd ba55 203e 2d10 3fbe 1d6a 8bbc
00000330: 687b 753e 61dd 463e 8577 383e 6268 5ebe
00000340: 6963 55be 4ed2 62be 5a6f 6d3e ed74 e7bc
00000350: d59f 913e f3ea 73be a2e6 d63c 801e 4a3e
00000360: 68b1 933d 95f6 4fbe 4465 35be d234 4dbe
00000370: d5ea 21be 0927 15be 3d24 543e 222e 503e
00000380: c61f 423e 3516 873e 71ff 153e aea8 2c3d
00000390: 93e6 44bd 8741 30be c5b5 063e 0f48 983e
000003a0: ace0 37be 09a8 8abe 9679 58be e036 61be
000003b0: 4525 37be 1085 ab3e b6f0 0f3e 25a5 a8bd
000003c0: 001a 36be 739c 45be af4b 5c3e 32af 133d
000003d0: 935e 38be 3ee8 26bd 18ac cabd 9119 47be
000003e0: 4433 733e 295b 23be 6977 15bc fdbe f1bd
000003f0: a689 103e 7078 5dbe b85b aebd ebd7 01be
0.26733404 -0.11135804 0.16741219 0.25907472 -0.20226905 0.046482995 -0.16452256 -0.13951291
-0.11407472 -0.24293284 -0.24759021 -0.15075183 -0.14120409 0.15979145 0.30204928 0.17722985
-0.08289745 0.27061677 0.21916124 -0.107568726 -0.14154863 -0.18169673 -0.10740078 -0.27832133
-0.16366678 -0.26910684 -0.28029445 -0.25471088 -0.078180686 0.24948984 -0.10283036 -0.20630625
0.26580566 0.1626347 -0.18679722 0.2624513 0.101878285 0.022358337 0.1480541 -0.18032691
-0.15704027 -0.15190975 -0.003616606 -0.15992635 -0.118287615 0.2705816 -0.09716376 -0.11220282
-0.06977924 -0.00034784473 -0.058167573 0.1316398 -0.26769608 0.17690198 0.21658422 0.19986524
-0.23392422 0.14283086 0.00062225637 -0.21180601 0.20764597 0.30977464 -0.16297153 -0.23546559
-0.029531114 -0.23889804 0.21627907 -0.15580598 -0.22647202 0.14286852 -0.22968291 -0.022422815
0.15097232 0.15953945 0.21387486 -0.243822 -0.2910637 0.28524196 0.21491766 -0.082151234
0.20384438 -0.17335266 -0.18651484 -0.28388658 0.19463292 0.02671869 -0.14297825 -0.20345555
0.11224397 0.28185725 -0.043250922 0.083526745 -0.1816555 -0.2280659 0.16083848 -0.10959077
-0.2113845 0.2534414 -0.2798109 -0.008760301 -0.09604948 -0.057135794 -0.07384815 0.09157705
-0.12464937 0.19392826 0.15801986 0.1303079 0.2090575 0.09726249 -0.14322497 0.3076757
0.22488174 0.1693365 0.23157842 0.121101275 -0.13964245 -0.12595071 -0.17791727 -0.26428136
-0.1221597 0.19846065 -0.135831 -0.14215317 -0.112734735 -0.13082922 -0.22298262 0.01032036
-0.23713966 -0.03165794 -0.11522945 -0.09933756 0.069572784 -0.20874342 0.19279826 0.1980878
-0.06528626 -0.043112878 0.14767519 0.19124702 0.24256691 0.2089232 -0.08102244 -0.0773415
0.16370541 0.21106254 -0.048659302 0.25505757 -0.16468245 0.2425809 -0.09476281 0.20255278
0.14903128 -0.22186764 -0.087455556 -0.21188417 0.14071248 0.16027997 0.0009860974 0.11875332
-0.0867854 0.24547468 -0.13789618 -0.040576696 -0.012390012 -0.124352075 -0.19908643 0.12677358
-0.05797616 0.17414045 0.20296946 0.27987102 0.13280201 -0.1024777 -0.22357729 -0.124246985
0.16109665 -0.1076539 0.23852514 -0.13334763 -0.30943885 0.2701815 -0.18004923 0.19925852
0.17690095 -0.021587357 0.22739218 -0.034692023 -0.23787639 -0.18175603 0.22556944 0.2159431
-0.22993134 0.135358 0.19350067 -0.04580765 -0.09042808 -0.00069483835 -0.060778324 0.23053947
-0.0915972 0.15657702 -0.18658514 -0.017018372 0.23972857 0.19420387 0.18014343 -0.21719506
-0.20838703 -0.22150537 0.23187009 -0.028253997 0.28442255 -0.23820095 0.026233021 0.19738197
0.07211572 -0.20308907 -0.17714411 -0.2003968 -0.15812238 -0.14565672 0.20716949 0.20330098
0.18957433 0.2638413 0.14648224 0.042153053 -0.048071455 -0.17212497 0.13155277 0.29742476
-0.179568 -0.27081326 -0.21140131 -0.2199359 -0.17885311 0.33499956 0.14056668 -0.08234624
-0.17783356 -0.19297962 0.21513246 0.03605575 -0.18004827 -0.040748827 -0.098961055 -0.19443347
0.23750025 -0.15952744 -0.009122708 -0.11804006 0.14115009 -0.21627975 -0.08513588 -0.12680022

fc2.bias f4 [10]
00000000: 3f8b 3b3e ebdd f43d d58c c0bd 7a7a 5cbe
00000010: 22c5 a1bc cc5d f83d 0d2b 96be e8f5 e7bd
00000020: ce4d 2a3e c4bd 1cbe
0.18314837 0.1195639 -0.094018616 -0.21531096 -0.01974732 0.12127265 -0.2932972 -0.113262
0.16631243 -0.15306765
